models/ncls2-dex100/scenario4_epoch112.pt (torch, 63659 bytes, 6 tensors)

inp.fc.weight f4 [100, 49]
000000 b9 cf 10 bd 37 61 9c be 1d 8c 80 bc 9d bd c2 bd
       -0.03535435 -0.3054292 -0.015691811 -0.09508822
000010 49 77 15 be 93 9b 4d 3e a9 41 27 3e 70 34 80 bd
       -0.14596285 0.20078878 0.16333641 -0.06260002
000020 cf 30 0d 3e ee a3 96 be fa cc 6f be c2 5c 72 be
       0.1378815 -0.29421943 -0.23418036 -0.23668197
000030 0d fb e3 be 54 7f b1 be 9b 93 6d 3e ff b5 35 be
       -0.44527474 -0.34667456 0.23200838 -0.17745207
000040 d1 0f b0 3d 60 02 26 3d 32 17 02 3e 2c 75 05 bd
       0.08596767 0.04052961 0.12704161 -0.032582447
000050 34 e8 35 be f4 f7 84 3e 48 2b 39 3e 18 f1 cd 3d
       -0.1776436 0.25970423 0.18082917 0.100557506
000060 5e dc 63 be 6e b9 09 bc 54 09 d8 bd ae b4 e9 3d
       -0.22252032 -0.008406026 -0.10548654 0.11411415
000070 1c 5a 0f be e6 31 66 3d bb 49 4e 3e 59 06 d4 bd
       -0.13999218 0.05619993 0.20145313 -0.10352773
000080 38 9a f9 bd cb 94 88 3e 3b cd 32 bd 1b 03 0d be
       -0.12187618 0.2667602 -0.043652754 -0.13770716
000090 51 c2 7e bb 95 b2 46 ba 95 04 0b be 78 11 d2 3d
       -0.0038873146 -0.00075797114 -0.13575967 0.10257238
0000a0 a6 1f 9c bd 09 fc 9f bb 88 3e e8 bc 32 e1 29 3d
       -0.07623224 -0.00488234 -0.02835013 0.04147453
0000b0 7e e3 45 be 74 a7 33 be a8 2f bf be b4 6a be 3d
       -0.19325063 -0.17544347 -0.37341046 0.09297696
0000c0 04 d0 7a be a3 71 3a bd 45 55 7e 3d d4 29 1d be
       -0.24493414 -0.04551853 0.062093038 -0.15347987
0000d0 7b a0 0d be 38 64 f6 3d f6 8c 70 bc 8d e1 d3 3d
       -0.1383075 0.12030834 -0.014682045 0.10345755
0000e0 dc 8d 95 be ee 93 9d bd 16 5d b4 3d 72 7f 1c 3f
       -0.29209793 -0.07694231 0.08806817 0.61131966
0000f0 09 79 ec 3d 9a 96 85 bd 8d 70 60 be c2 2c f0 3e
       0.11546523 -0.065228656 -0.21917935 0.46909148
000100 c1 56 04 3c 75 df 73 3d d0 9c d1 bd a0 6d 23 bd
       0.008077324 0.059539277 -0.10234988 -0.03989947
000110 07 c8 21 be b0 a4 29 be c2 d4 4f bd c8 69 5a 38
       -0.1579896 -0.1656673 -0.05074001 5.2073767e-05
000120 3f 0d e8 bd 57 85 d9 bd 89 40 04 3e 85 7f 05 3e
       -0.113306515 -0.10621136 0.12915243 0.13036926
000130 42 50 f9 3d 42 5a d0 3e 65 84 a6 3c 9d 2d 88 be
       0.12173511 0.4069386 0.020326803 -0.265973
000140 d3 94 e8 bc b0 55 b6 bd 0b f0 42 bd 92 f7 2e be
       -0.028391277 -0.08903062 -0.047592204 -0.17086628
000150 99 b2 c5 bd 57 0a bb 3d 68 fd 44 be 4e 84 31 3c
       -0.096532054 0.091328315 -0.19237292 0.010834767
000160 25 46 76 be d6 07 bd bc e9 10 6e be f5 a5 c9 bc
       -0.24050196 -0.023075026 -0.23248638 -0.024615267
000170 1f 18 78 3d 9a 4f 5b 3b 6f 7e e3 bc 02 e0 04 be
       0.06056988 0.0033464194 -0.02777025 -0.12976077
000180 e7 bd 86 be ac 3a 4d 3c 7f 16 81 3e e8 4f a1 3c
       -0.2631676 0.0125261955 0.25212476 0.019691423
000190 90 f3 60 bd 75 5a 1a 3c f7 65 d0 bd d0 83 28 3e
       -0.05491978 0.009420981 -0.10175698 0.16456532
0001a0 f7 f5 0d 3d 8f 7f 2a 3d f5 86 81 3d 5e 5d 9a bd
       0.0346584 0.041625556 0.06324569 -0.0753734
0001b0 4a f5 93 3e 8d 5c 2b be 64 b9 3b 3d 3f 71 c3 3c
       0.28898078 -0.16734524 0.0458311 0.02385771
0001c0 3d 86 9c 3e 84 93 51 3d 42 bf a9 ba 00 02 1a be
       0.30571166 0.051166072 -0.0012950676 -0.15039825
0001d0 9f cf 0c 3e 7f b1 65 be e7 58 c3 3e fe 48 f5 bd
       0.13751076 -0.2243099 0.38153765 -0.11976813
0001e0 81 d6 19 3e 0a e3 9a 3c 7e a2 fe 3d 33 22 d6 bd
       0.15023233 0.018907089 0.12433337 -0.10455742
0001f0 13 1a 8d be f5 66 2c 3e 72 4f 9c bd 75 ff fa 3d
       -0.27558956 0.1683615 -0.076323405 0.12255756
000200 5f b8 03 bc d8 02 ff 3c 17 c9 54 bd 49 af 5b bc
       -0.008039563 0.031129286 -0.051949587 -0.01340849
000210 9e 51 ca bd 9d de 0f 3e 15 d5 fb bb e2 4c a9 bd
       -0.098788485 0.14049764 -0.0076853135 -0.08266617
000220 d8 b9 c7 3d 46 45 d7 3d 27 b0 d8 3d cd 6f 6b 3e
       0.09752244 0.1051126 0.105804734 0.22991867
000230 66 e5 17 be 87 64 36 39 dc ea 52 3e c9 20 73 3e
       -0.14833602 0.00017394322 0.20597404 0.23742975
000240 e5 b8 39 3c ee 1a 10 be 6d 9d 1e 3e 82 97 4e bd
       0.011335586 -0.14072773 0.1548974 -0.050437458
000250 84 20 99 be 87 fd b2 3e cf 90 cf bd cc 26 ba 3e
       -0.2990762 0.3495905 -0.10135042 0.36357725
000260 5a 7c 61 3d 39 f4 ee bd 74 02 5f bd aa af be bd
       0.05505023 -0.116676755 -0.0544457 -0.09310849
000270 07 a6 04 be cd 93 69 3c af f5 0f be de b8 3d b9
       -0.1295396 0.01425643 -0.14058565 -0.00018093313
000280 00 ed 1a 3e 7d 99 3f be 00 f3 a4 3c 1e a1 5e bc
       0.15129471 -0.18710895 0.020135403 -0.013588218
000290 c4 a8 cb 3d 69 15 33 3e cf 25 30 be 86 70 ae bd
       0.09944299 0.17488636 -0.17201923 -0.08517556
0002a0 35 fb 75 3d 23 45 46 be ea ba a5 bc 85 b0 a3 3d
       0.060054023 -0.19362311 -0.02023073 0.07992653
0002b0 aa 82 a4 3d 8b f8 01 be 06 38 f8 be 09 a4 a2 be
       0.08032735 -0.12692468 -0.48480242 -0.31765774
0002c0 1e 18 e7 3b 13 4f 3c be e5 29 f6 bd 9d 41 1b 3d
       0.0070524355 -0.1838954 -0.120197095 0.03790437
0002d0 7b df 63 3d 8b ca 05 bd f3 e9 2f 3e e3 81 eb 3d
       0.05563305 -0.032663863 0.17179088 0.11499383
0002e0 2f 45 89 3e f0 7f db 3d 13 be 1e be 4e 61 d7 bd
       0.26810595 0.107177615 -0.15502195 -0.10516606
0002f0 5e dd 61 3d 3c bc 9e bd 6a 05 12 be 1d 4d 14 be
       0.055142753 -0.077507466 -0.14259878 -0.14482541
000300 70 28 c2 bd ba 68 97 3d d3 17 65 b9 1d 93 4e 3e
       -0.09480369 0.07393022 -0.00021848017 0.20173307
000310 4b a5 fc 3c 8b 2f b7 3c e8 37 a3 ba fe 76 a5 bd
       0.030840537 0.022361537 -0.0012452574 -0.080793366
000320 46 98 33 3c 79 3f 3d 3e c9 75 90 3d 60 7a a5 be
       0.010961598 0.18481244 0.07053716 -0.32319927
000330 5c 9d 80 bd fd f9 b3 3d 23 eb 22 3f 6f d6 08 3e
       -0.06280014 0.08787916 0.6364004 0.1336305
000340 5a d7 5e be 03 da 45 be 42 98 a5 3e 70 c6 9f 3d
       -0.21761838 -0.19321446 0.32342726 0.07801521
000350 7e fb e6 3c 64 15 2a be b7 bf 6f bd 95 f0 04 be
       0.028196093 -0.16609722 -0.058532443 -0.129824
000360 09 de a9 3d d5 67 43 be d2 40 13 bc a3 08 68 be
       0.08294303 -0.19082578 -0.008987622 -0.22659545
000370 6a 61 85 bd e3 79 ab 3d 07 38 37 be 6f 35 d8 bc
       -0.06512721 0.083728574 -0.17892466 -0.026392667
000380 74 b6 96 3e 40 91 4f 3e 88 36 26 be f0 36 1f be
       0.29436076 0.20270252 -0.1623174 -0.155483
000390 31 76 11 be 89 3e 11 bd 4b 94 11 3e 4d 85 96 bb
       -0.14205243 -0.03546003 0.14216726 -0.0045935274
0003a0 e1 81 80 3d f9 6a 88 be 97 e8 e7 3d da ee 47 be
       0.062747724 -0.26644114 0.1132366 -0.19524708
0003b0 f4 30 31 bd 26 ca 43 3c c7 7f a1 3d 96 8c 0b be
       -0.043259576 0.011950051 0.078857 -0.13627848
0003c0 b1 cf e5 bd c9 51 a9 3d 2c bd 62 be c4 48 de be
       -0.112212546 0.082675524 -0.22142476 -0.4341489
0003d0 d2 8d 7f 3d 68 6c 00 ba eb 97 7a be 36 6b 8f bd
       0.06239111 -0.0004898966 -0.24472015 -0.07002871
0003e0 c3 12 ec 3d 2f 2d b5 bd 6e 99 24 3e a6 90 11 3d
       0.11527016 -0.08846509 0.16074154 0.035538338
0003f0 55 15 26 3d c4 2d 83 be 28 65 8c be 62 77 8a be
       0.040547688 -0.25620854 -0.27420926 -0.27044207

inp.fc.bias f4 [100]
000000 ec 80 4a be 80 30 b7 be 29 24 61 bd e8 34 aa be
       -0.19775742 -0.3577919 -0.054966126 -0.3324349
000010 cc 6d d5 be 5a e0 87 be 3c 30 87 be 61 e2 3c be
       -0.4168533 -0.26538354 -0.26403987 -0.18445732
000020 61 34 01 bf c6 3b 35 be 49 9d f1 be b8 2a 9a bd
       -0.5047055 -0.17698583 -0.47190312 -0.07527679
000030 a8 63 29 be 8b e9 dc be cc 62 90 bd 86 7c 9d be
       -0.16541922 -0.4314693 -0.07050094 -0.30759066
000040 e5 f0 a5 be 14 6c 94 bd 58 16 8f be c8 ab 88 be
       -0.3241035 -0.07247177 -0.27946734 -0.2669356
000050 82 00 08 bf 02 ee 96 3b 95 bd a4 be 58 79 72 be
       -0.53125775 0.0046060095 -0.3217589 -0.23679101
000060 4b a7 80 be 3d 7a 62 be 0d b1 21 be 12 d5 01 be
       -0.25127634 -0.22116943 -0.15790196 -0.12678936
000070 51 9a 2c be 11 9e 87 be b3 a3 72 bd a2 eb 56 be
       -0.16855742 -0.26487783 -0.059238147 -0.20988324
000080 89 c1 af be ba fe a3 bc 74 fa f3 be 02 19 68 be
       -0.34327343 -0.020018924 -0.47652018 -0.2266579
000090 f9 54 4c be 56 e1 0c be e5 80 8b be 4b c0 17 be
       -0.1995429 -0.13757834 -0.27246776 -0.14819448
0000a0 61 3d 98 be b6 1e b1 be 33 f8 8e be 83 aa 22 be
       -0.29734328 -0.34593743 -0.27923736 -0.15885358
0000b0 ba 61 9e be 84 a0 be be 9d e9 a7 be 60 b9 50 be
       -0.30933934 -0.3723184 -0.3279542 -0.20383215
0000c0 37 fa c6 be 11 5f 83 be 88 90 de be 42 33 0c be
       -0.38862774 -0.25658467 -0.43469644 -0.13691428
0000d0 45 22 de bc a3 7d 01 be cc c3 cd bd 54 85 a4 be
       -0.02711595 -0.12645583 -0.10047111 -0.3213297
0000e0 05 b7 35 be 66 25 bc be 46 42 85 be dd 4b a5 be
       -0.17745598 -0.36747283 -0.26027125 -0.32284442
0000f0 cf ed 88 bd 65 0b 04 bf 38 cf ae be 8e b0 56 be
       -0.066859834 -0.51579887 -0.3414247 -0.20965788
000100 49 89 a0 be 7a 49 b9 be b9 f4 93 be 30 85 31 be
       -0.3135474 -0.3618887 -0.28897646 -0.17335963
000110 e4 94 51 be 29 e0 84 be 9d 07 64 be 03 61 7a be
       -0.20466954 -0.2595227 -0.22268529 -0.2445107
000120 fa 6a f1 be f0 d3 1b 3d 7a 4c cb be b3 5f 68 be
       -0.4715193 0.038043916 -0.39706784 -0.22692756
000130 c2 2e 9c be 93 d8 dd be ee d3 7d be ca c7 01 be
       -0.30504423 -0.43329296 -0.24787876 -0.1267387
000140 30 f2 40 be cb d6 23 be 56 cb cb be 26 54 12 be
       -0.18842387 -0.15999906 -0.3980357 -0.14289913
000150 c6 e9 82 be 17 58 8b be 91 cc 2f be f6 8c 97 bd
       -0.2556898 -0.27215645 -0.1716788 -0.07399933
000160 7b f2 6d be f9 94 40 be d0 da b0 be f0 cb 75 be
       -0.2323703 -0.18806829 -0.3454194 -0.24003577
000170 9b 96 81 be fd de 92 be 0d 6f 10 be 3c cd a9 be
       -0.25310215 -0.28685752 -0.14104863 -0.33164394
000180 01 c2 47 bd bd 53 cb be 29 00 28 be 79 f0 8f be
       -0.048769 -0.39712325 -0.16406311 -0.28113154

layers.0.fc.weight f4 [100, 100]
000000 22 00 42 3e 38 2d 6e be 5f 12 00 3c 52 0a bc bd
       0.18945363 -0.23259437 0.00781688 -0.09181656
000010 e5 c8 d6 ba 59 36 87 3e 90 7f 24 3d 49 b3 95 bd
       -0.0016386776 0.2640865 0.040160716 -0.073095866
000020 49 c4 04 3d e4 91 76 3d 0e 98 c6 bb a5 06 11 be
       0.032413755 0.060197726 -0.006060607 -0.14162691
000030 a4 07 d2 3d 60 d2 b6 3b 0c 82 6e 3e 29 f9 8d be
       0.102553636 0.005579278 0.23291796 -0.27729157
000040 fd d4 23 3e 93 8e 1e 3d 8a df bb 3d 61 e1 3d be
       0.15999217 0.038710188 0.09173496 -0.18543006
000050 93 bb a2 bd a8 08 8c bd a1 9a fc bd 68 08 b8 3e
       -0.07945933 -0.068375885 -0.123341806 0.35943913
000060 27 5b 15 3e be f0 4d 3d 04 2b 63 3c f0 d4 00 3d
       0.14585553 0.050278418 0.013865236 0.031453073
000070 f7 80 42 3e dd 0a a2 3e fb 99 5e bd 9a 9d e8 3e
       0.18994509 0.31648913 -0.054346066 0.4543274
000080 a6 f0 fb 3d e0 2d fd 3c 11 47 12 be 20 10 9f be
       0.123017594 0.030905664 -0.14284922 -0.3106699
000090 a9 4e de bc 8f 87 81 be e0 37 0c bd df 28 9c 3d
       -0.027137117 -0.25298735 -0.034232974 0.07624983
0000a0 63 1f 86 3e 82 49 58 bd 0f 8f 24 bd a9 54 00 bd
       0.2619582 -0.052804478 -0.040175494 -0.03133074
0000b0 c8 47 4b be 2e 2b b7 bd 9b 84 5f bd 73 9d 8b bd
       -0.19851601 -0.08943783 -0.05456982 -0.068171404
0000c0 cd 02 cb 3d ed 31 33 be 97 d0 a1 3e 55 7d 89 3c
       0.099126436 -0.17499514 0.31604454 0.016783396
0000d0 c6 2d 10 be aa 7c df 3d ba 1d 44 bc be 2c 0e 3c
       -0.14079961 0.1091245 -0.011969978 0.00867766
0000e0 0a 6c ac 3e 06 65 9f 3e 9e 41 32 be a1 84 c0 3d
       0.33676177 0.31131762 -0.17407843 0.09400297
0000f0 e3 20 f0 bd 07 75 06 3d 11 08 a4 3e 23 58 6a bc
       -0.11725023 0.03282645 0.32037404 -0.01430324
000100 a8 ee 80 bd 0d d2 86 3d 5e 3e 17 3c bc 98 95 3d
       -0.0629552 0.06583033 0.009231178 0.073045224
000110 8b 31 d2 3d 31 a3 1c be 6b b8 0c 3e 9c 6c 53 bd
       0.10263356 -0.15296628 0.13742225 -0.05161725
000120 e9 41 5e 3d 59 4b 5d be 1f f5 1b 3d c2 0f 1a be
       0.054262076 -0.21610774 0.038075563 -0.15045074
000130 94 a8 1c be b9 9e e7 3d ac 00 61 3d eb 5e b6 3d
       -0.15298682 0.11309571 0.05493228 0.08904823
000140 7f 7e 0e 3d d4 fd e8 bd 40 6b db bd 07 95 5d 3d
       0.034788605 -0.11376539 -0.10713816 0.0540972
000150 16 3c 9b bd c3 6b 2b be 07 83 6a bd 62 50 25 be
       -0.0757982 -0.16740327 -0.057253864 -0.16143945
000160 5e b2 61 3d e8 d5 1f bd 67 dc b8 bd d7 cc f5 bd
       0.055101745 -0.039022356 -0.090264134 -0.12001961
000170 08 f8 0d be e1 d6 fa 3d 91 e4 32 be b8 1c b6 bd
       -0.13864148 0.12248016 -0.17470004 -0.088921964
000180 bc 78 ad 3d c0 2b 5f be e4 1b 0e be 19 f4 56 bd
       0.08470294 -0.21794033 -0.13877827 -0.052478883
000190 96 94 62 be 32 e5 20 3e 7f d9 d0 bb 69 c0 df bd
       -0.22126994 0.15712431 -0.006373584 -0.10925371
0001a0 ad cb 78 3e fd 9d d7 bd 0e 42 23 be f1 99 cb 3c
       0.24296446 -0.10528181 -0.15943167 0.024853678
0001b0 ae 2d a8 be 5d 12 25 be 61 d3 98 3b 11 9d 3f 3e
       -0.3284735 -0.16120286 0.00466387 0.1871226
0001c0 74 38 ce bd 1f 75 05 be 43 96 6f be 24 b3 ee 3d
       -0.10069361 -0.1303296 -0.23397164 0.11655262
0001d0 31 d0 63 bd e9 e1 8b be ce 4b ee bd a2 54 84 3d
       -0.05561847 -0.27320793 -0.11635552 0.06461455
0001e0 35 7e 8a 3d 79 31 4a 3e 5c ba b7 bc ba da 23 be
       0.06762353 0.19745435 -0.02242773 -0.16001406
0001f0 ea 94 ab bb 09 f8 8f be 83 1e 8b 3c 97 61 23 bd
       -0.005236258 -0.28118923 0.016982323 -0.03988799
000200 27 c5 8d bd 8d b0 b0 bd 8c ba 58 3d 17 03 4b 3d
       -0.069223695 -0.086274244 0.05291228 0.049563494
000210 d0 86 49 be a5 55 53 bd 3c 5f 4f 3e c3 2d 34 bd
       -0.19680333 -0.05159535 0.20251173 -0.043988954
000220 a1 3f 89 bd 7c ab ac 3d 76 f5 60 3e 94 e7 7f 3d
       -0.067015894 0.084311455 0.21968636 0.06247671
000230 ce fc 2d 3c 37 4f 9c bd cb 17 e3 bd a9 0b 45 3c
       0.010619355 -0.076322965 -0.110885225 0.012026706
000240 48 26 34 3d 72 b8 2a be c2 37 bd 3d b6 96 97 3d
       0.04398182 -0.16671923 0.092391506 0.07401793
000250 0a 26 c1 bd dc 5e fe bd a6 47 77 be df a6 c5 3d
       -0.094310835 -0.12420437 -0.24148425 0.09650969
000260 ec 73 c6 3c 8e 84 75 3e 94 74 c3 3d 11 7f 3f 3e
       0.024225198 0.23976347 0.0954372 0.18700816
000270 d2 a2 37 be 87 9d 4a be f0 f8 10 3e f3 18 0f bd
       -0.17933205 -0.19786654 0.14157462 -0.034935903
000280 1d 9b 9a 3d 82 0a da bd 63 ae 3c bd 6f 2d 27 3e
       0.07549117 -0.106465355 -0.046064746 0.16325925
000290 ac 8a 06 3d de e6 17 be 4b 3f 02 be 1b fa 0d bc
       0.03284709 -0.14834163 -0.12719457 -0.008665587
0002a0 1c c7 c8 3c ab c6 54 3e 2a 27 c9 3b b2 eb a2 bd
       0.024509005 0.20778911 0.006138702 -0.079551116
0002b0 58 30 1d be 0c f1 a5 3c 70 d6 50 bd bc 90 97 be
       -0.15350473 0.020256542 -0.050985754 -0.2960261
0002c0 43 13 39 3e 71 99 72 be ac e8 82 be 1f bc 8d bc
       0.18073754 -0.23691346 -0.2556814 -0.017301617
0002d0 e5 73 04 be b4 10 f5 3d a1 52 57 3d 6d af 19 3e
       -0.12934835 0.119660765 0.052569035 0.15008326
0002e0 19 15 e6 bc 88 80 ed bd 08 2a e4 3c d7 15 27 bd
       -0.028086232 -0.11596781 0.027852073 -0.040792312
0002f0 15 ac 22 3c 61 6f b8 bc 48 b2 78 be e4 35 b7 3d
       0.009928723 -0.022514047 -0.24286759 0.08945826
000300 67 30 91 3d 11 c8 d5 3c 30 aa dd 3d d0 2c 7c 3c
       0.0708931 0.026096376 0.10823476 0.0153915435
000310 f7 74 0b bd 35 97 37 bc f0 45 58 be 82 0c b3 3c
       -0.034047093 -0.011205484 -0.21120429 0.02185655
000320 af a6 18 be fa 22 a2 3e db 98 97 3e 78 73 b3 be
       -0.14907335 0.3166731 0.29608807 -0.35049033
000330 b1 14 d4 3e 31 f2 55 be 83 ed 55 be 69 81 31 3e
       0.41422036 -0.2089317 -0.20891385 0.17334522
000340 cf d6 01 3e 9d 62 c8 bd d2 1c 46 bc 5f cd 4a 3e
       0.12679599 -0.09784434 -0.012091832 0.19804905
000350 a4 b2 8a bd c4 7a de 3c 12 02 02 3e e9 7f c6 3d
       -0.06772354 0.027158149 0.12696102 0.09692366
000360 41 e0 4c be 79 ec 58 be 5b 02 ec bd 36 99 7a 3e
       -0.20007421 -0.21183957 -0.11523887 0.24472508
000370 65 e6 3b 3e 08 06 17 bd 58 16 ce bd 75 d2 85 be
       0.18349607 -0.036870986 -0.100628555 -0.26137128
000380 f8 4c 23 3e ab 8c 17 be 6c d7 a6 bc 30 ec d2 3c
       0.1594733 -0.14799754 -0.020366393 0.025747389
000390 2a ab be bc 19 77 17 3d 7e 9e 6c 3e 9e 44 b5 bd
       -0.023274977 0.036978815 0.23107335 -0.08850978
0003a0 ae 29 92 bc 48 e9 10 3e 9b 65 8e 3c 1a 29 f4 3d
       -0.01784214 0.1415149 0.017382434 0.11921902
0003b0 f4 72 ab 3d 0e 0e da bc 90 8a 6a 3e 08 45 45 bc
       0.08371535 -0.02661803 0.2290442 -0.012040384
0003c0 35 41 4b 3d df c2 07 bd 3a fd 3e 3c fa 26 20 bd
       0.049622733 -0.033144828 0.011657054 -0.03909967
0003d0 be 40 ba 3e 01 10 d4 bd 19 60 a5 3e a9 92 d5 3d
       0.3637752 -0.10354615 0.3229988 0.10428364
0003e0 0d df 10 bd d3 2f 73 be e9 58 d6 bd ca f1 79 bc
       -0.035368968 -0.23748712 -0.10466177 -0.015255401
0003f0 9e fc 66 3e 10 95 95 3e 77 f2 74 3d 54 77 8b 3e
       0.22557303 0.29215288 0.059801545 0.27239478

layers.0.fc.bias f4 [100]
000000 42 7f 34 be 9f be af 3d 9c 13 37 3e 16 f9 11 3e
       -0.1762667 0.0858128 0.17878574 0.14255175
000010 83 22 25 be b9 47 46 3e d2 4c 47 be b8 5e ce 3d
       -0.16126446 0.19363298 -0.19462898 0.1007666
000020 df b7 40 3d 94 14 28 3e 3b f1 0e 3e 1f d5 d2 3d
       0.047050353 0.164141 0.1395921 0.10294556
000030 be 4d 39 bd 26 4f a5 3c a6 76 20 3e d1 8c 33 3e
       -0.045240156 0.020179342 0.15670261 0.17534186
000040 c4 e8 a2 3d 2a 89 2e 3d f4 dc 1b 3d 51 64 7b 3e
       0.07954553 0.04261128 0.038052514 0.24549986
000050 7a 57 05 3e 68 d6 38 3e ff b4 98 be a1 d5 fb 3d
       0.13021651 0.1805054 -0.2982559 0.12296606
000060 00 1d 32 3e d5 4c d4 ba 25 4f 08 3e 98 28 0e 3d
       0.17393875 -0.0016197214 0.13311441 0.034706682
000070 cb 7d 84 bc 66 f8 16 bd 3a 42 47 bd 91 89 09 be
       -0.016173264 -0.036857985 -0.048647143 -0.13431384
000080 47 92 b1 3d 58 64 b2 3d 5b 5e 7c 3e 09 da 64 bd
       0.08670478 0.08710545 0.24645369 -0.055871997
000090 4e 57 2a 3e 18 ff 56 bc c1 68 7f bd 92 b4 52 bc
       0.16634867 -0.0131223425 -0.06235576 -0.012860434
0000a0 14 e6 37 bd 57 33 0e 3e 8f 09 89 3e 13 9f ac 3c
       -0.044897154 0.13886772 0.26765105 0.021071946
0000b0 6d 37 9c 3d 45 90 b5 3d 09 5f f8 bc ce 36 40 3d
       0.07627759 0.08865408 -0.030318754 0.046927266
0000c0 01 58 ac bd c1 45 68 3e dc 21 c5 3d 2c 5c 91 3d
       -0.08415223 0.22682859 0.09625599 0.070976585
0000d0 a8 8f 05 be 61 f4 c6 bd de ff df 3d 11 db 03 3e
       -0.13043082 -0.0971458 0.10937475 0.12876536
0000e0 72 12 8f 3d 4a 26 a3 3d ad 31 51 be 89 e0 83 bd
       0.0698594 0.079662874 -0.20429106 -0.06439311
0000f0 a7 3d 8a bc 4e 4f 12 bd 55 92 52 be d5 86 82 3d
       -0.016875101 -0.035720162 -0.20563634 0.063733734
000100 36 c3 53 3d 63 0a 56 3e 2b f4 d2 bb aa 5b 16 be
       0.05169984 0.209024 -0.0064377985 -0.14683405
000110 4a 2d bf bc 94 5a ff 3c 44 b0 b4 3b 6d 04 9e bd
       -0.023337025 0.03117112 0.0055141766 -0.07715688
000120 5e 6c 70 bc e2 54 2e 3e 09 77 09 be 6d 1d 0b 3e
       -0.014674274 0.17024568 -0.13424315 0.13585444
000130 86 59 4c 3e 34 f3 57 be 47 88 b8 bc 8d 75 2b 3e
       0.19956025 -0.21088868 -0.02252592 0.16744061
000140 63 54 0e 3c 5f 9c f3 3d 30 45 1a 3e 3d d3 d1 3c
       0.008687112 0.1189506 0.15065455 0.025613422
000150 dd 66 01 be 62 f2 14 bd c9 b6 08 3d 96 a8 3f be
       -0.12636895 -0.036363967 0.033377443 -0.18716654
000160 40 c2 cd 3d 72 ba 55 3e c9 3b 87 be 9e 71 84 bc
       0.10046816 0.20871904 -0.264128 -0.016167458
000170 65 f7 68 bd 24 a4 e1 b9 70 59 42 be e9 fe 76 3e
       -0.05687656 -0.00043037639 -0.1897943 0.24120678
000180 d8 a0 1e 3e 74 08 bc 3d e4 17 73 3d ae 54 3a bb
       0.15491045 0.091813 0.059348956 -0.002843182

out_cat.weight f4 [2, 100]
000000 59 cf 7f 3e 47 ea 85 bd be 25 35 be 17 23 19 be
       0.2498144 -0.065388255 -0.17690179 -0.14954792
000010 ed d2 53 3e 3b 13 5a be c7 7f 1f 3e 41 55 67 3e
       0.2068593 -0.21296398 0.15576087 0.22591116
000020 ef 37 8e bd e2 4a 13 bd 6c 5e 72 be 35 55 66 3e
       -0.06944262 -0.035960086 -0.23668832 0.22493441
000030 8e de 06 3e e6 83 2c be 64 4a f3 bd d0 5e 1e be
       0.13170835 -0.1684719 -0.11879423 -0.15465856
000040 08 fc 19 be 8a bb ee bd 39 27 e1 3d 43 44 2d be
       -0.15037549 -0.11656864 0.10993809 -0.16920571
000050 89 39 c4 bd 3a a4 38 be 1b 9b 98 3e e8 0f d1 bd
       -0.095812865 -0.18031397 0.29805836 -0.10208112
000060 ad 4d fb bd 6b 42 5c 3e 02 5a 52 3e f4 36 8b bd
       -0.12270675 0.21509711 0.20542148 -0.06797591
000070 54 c7 f8 bd 69 0e 3f 3e 78 d5 7e 3e f7 e9 6a bd
       -0.12147394 0.18657841 0.2488612 -0.057352033
000080 98 0e 5c bd 4b c2 3e 3e 17 16 89 bd be 9e 23 3e
       -0.053724855 0.18628804 -0.066936664 0.15978524
000090 57 e3 34 be ba b2 8a bc a7 6b 1d 3e 22 29 0f 3e
       -0.17664848 -0.016930927 0.15373097 0.13980535
0000a0 61 ff ad 3d 92 e0 58 be ae d8 87 be a9 51 97 bd
       0.08495975 -0.21179417 -0.265325 -0.07388622
0000b0 45 83 44 be 1d 68 6f be 16 39 2c 3e 07 79 f1 bd
       -0.191907 -0.2337956 0.16818652 -0.11790662
0000c0 8c b3 1e 3c 89 99 7d bd 8b cb 39 be 00 a0 84 3e
       0.009686362 -0.061914 -0.18144052 0.2590332
0000d0 bb f4 7c 3e e0 eb 45 3e f1 05 12 be aa 2e 04 be
       0.24702732 0.1932826 -0.14260079 -0.12908426
0000e0 36 86 41 3e 53 dc be 3d 3f ae f4 3d d9 9c 44 3e
       0.18898854 0.09319367 0.11947297 0.19200458
0000f0 47 1c 46 bd 41 f6 d4 3d 27 94 b3 3d f5 2e 8f bd
       -0.04836681 0.10398532 0.08768492 -0.06991378
000100 b0 f1 09 be 02 3e 05 be 8a e7 d4 3d f8 86 50 3e
       -0.13471103 -0.13011935 0.10395725 0.20363986
000110 37 2c 47 3e ee 98 ca 3e d7 e2 5c bd de 14 8f 3e
       0.1945046 0.395698 -0.05392727 0.27945608
000120 72 b8 b6 3d 3e 9e ba bd c8 6c 1b 3e dc f2 cb bd
       0.08921899 -0.091122136 0.15178216 -0.09958431
000130 48 10 47 be f4 e1 9f bd 35 0a 69 3e 9f 6e b4 bd
       -0.19439805 -0.07806769 0.227578 -0.08810162
000140 01 da 8a bd b5 c7 e8 bd 77 87 93 3e ed 6f 22 3e
       -0.06779862 -0.11366216 0.2881429 0.15863009
000150 43 68 19 3e 0f 83 3e be d6 a6 fc 3d f3 fb 1c bc
       0.14981179 -0.18604682 0.12336509 -0.009581554
000160 91 55 b8 3d 41 0a 56 be 30 95 20 3e 61 b7 29 3e
       0.090006955 -0.20902349 0.1568191 0.1657386
000170 25 46 4e 3e 12 e7 6f 3e 14 05 fb 3d 6b 01 55 be
       0.20143946 0.2342799 0.12256828 -0.20801322
000180 70 b6 c2 bd 05 60 31 3e 27 68 5b 3e 52 e2 2f 3e
       -0.095074534 0.17321785 0.2142645 0.17176178
000190 4a e6 56 be 82 56 21 3d b8 ea 4f 3e 05 68 23 3e
       -0.20986286 0.03938914 0.20304382 0.15957649
0001a0 2b 37 34 be d4 0a 4e 3e d0 b1 59 be 60 47 52 be
       -0.1759917 0.20121318 -0.21259236 -0.2053504
0001b0 77 b7 38 3d 77 17 97 3d 61 de 5d 3e 00 87 6f be
       0.04509684 0.073775224 0.21666862 -0.23391342
0001c0 c1 ec 02 be d3 ab 2b 3e 2a 78 a8 3d 44 30 43 3e
       -0.12785627 0.16764764 0.082260445 0.1906138
0001d0 16 52 39 3e fa e2 fb 3d 3d 94 05 be 1d a6 11 3e
       0.1809772 0.12299152 -0.1304483 0.14223523
0001e0 c3 e8 18 3e 54 4c 10 3e 13 4b 9b be 0f bb 0b 3e
       0.14932542 0.14091617 -0.30330715 0.13645576
0001f0 46 c6 0d 3e c7 a9 5b be f7 96 15 be 6f 86 a9 3d
       0.13845167 -0.21451484 -0.1460837 0.08277594
000200 e7 8e 15 3e e4 ba 05 be 94 bd 82 be 29 dd 63 bd
       0.14605294 -0.13059574 -0.25535262 -0.055630837
000210 f6 7e cd 3d 4e 18 1a be 53 b1 ed 3d b4 d7 f3 bd
       0.100339815 -0.15048334 0.116060875 -0.119063765
000220 f9 a8 16 3e 67 a8 df 3b c3 d9 1e be b6 d1 05 be
       0.14712895 0.006825495 -0.15512757 -0.1306828
000230 1b 9f 0c be 45 7a 43 3e a7 a5 7b 3e 22 f1 7f 3d
       -0.13732569 0.19089611 0.2457491 0.06248582
000240 d4 ec 68 3e b7 15 7f 3e 2f 51 29 be 2f 08 f9 3d
       0.22746593 0.24910627 -0.16534875 0.12159764
000250 ae 51 46 bd 1a d7 ba 3d 37 74 46 3e c5 01 83 be
       -0.04841774 0.091230586 0.1938027 -0.25587288
000260 8e e5 50 be bb dd 53 be 20 22 27 3e 39 4e fc 3d
       -0.20400068 -0.20690052 0.16321611 0.12319607
000270 28 25 14 be 56 aa b5 bd 3d df 17 be e1 28 23 be
       -0.14467299 -0.088703796 -0.14831252 -0.15933563
000280 26 cb a3 3d 72 25 53 bd d4 54 9a 3d 09 ba ef 3d
       0.07997732 -0.051549383 0.07535711 0.11705405
000290 fb d1 1e 3e bf 54 e0 3d ce af 83 bd d9 50 22 be
       0.15509789 0.10953664 -0.064300165 -0.15851153
0002a0 86 b8 29 be 78 a1 bf be b5 af 85 3d 86 5d 98 be
       -0.16574296 -0.37427878 0.06527654 -0.29758853
0002b0 b7 a3 b9 bd b9 f0 c0 3d 10 a5 40 be db b0 b0 3d
       -0.09064429 0.09420914 -0.18812966 0.086274825
0002c0 71 8f 3e 3e dd c8 3a bd fa 4d 67 be fa f9 c1 3d
       0.18609406 -0.045601714 -0.2258834 0.09471507
0002d0 a0 c7 b6 3c 5c 88 15 3e 57 c6 72 be a8 29 31 be
       0.022311985 0.14602798 -0.23708473 -0.17301047
0002e0 76 fe 0c be d8 16 4c 3e c2 66 34 be cb 15 73 3c
       -0.13768944 0.19930589 -0.17617324 0.014836739
0002f0 3e 69 b0 bd 39 13 48 3e 46 61 13 be ac c3 32 be
       -0.08613823 0.19538583 -0.14392576 -0.17457455
000300 71 02 57 be d6 71 6c be 8c 5a 9d bd 0a e3 53 3e
       -0.20997025 -0.230903 -0.07683286 0.20692077
000310 ad 18 bd 3d 50 b6 1b be 9d 5b 80 be 6a 30 46 be
       0.09233222 -0.15206265 -0.25069895 -0.19354406

out_cat.bias f4 [2]
000000 a1 5f 4a be 52 5b c9 3d
       -0.19763042 0.09831871
