models/ncls2-dex100/scenario3_epoch75.pt (torch, 183595 bytes, 6 tensors)

inp.fc.weight f4 [300, 49]
000000 26 95 ce bc 89 95 41 3d 5a f4 c6 bd 03 d7 46 3e
       -0.025217604 0.04726175 -0.09714575 0.19417958
000010 7d d7 80 be 87 e2 a1 bb ab b2 23 bd ed 2e 1a 3d
       -0.25164405 -0.0049403342 -0.039965313 0.03764241
000020 fb 9e 3b 3d d9 d6 a6 bd eb ff 80 be 84 8b 5a be
       0.045805912 -0.08146448 -0.2519525 -0.21342283
000030 aa 1f 97 be 74 f3 71 3c 12 c7 5b 3e db 94 e5 bd
       -0.29516345 0.014767516 0.21462658 -0.112100326
000040 d5 ad 23 bd 98 95 86 bd cb e5 12 be 14 7d 5e bd
       -0.0399607 -0.065715015 -0.14345472 -0.054318503
000050 b4 b0 9e 3e d8 12 76 be 35 b8 56 be 32 b9 9b bd
       0.3099419 -0.24030626 -0.20968707 -0.076036826
000060 ca 6e 2d be 32 ab 9d bc c9 b5 9f bd f7 7f 3c 3e
       -0.16936794 -0.019246671 -0.07798345 0.1840819
000070 08 ec 61 3e 86 8d 21 3e 12 bd 0a be 70 05 e9 bd
       0.22062695 0.15776643 -0.13548687 -0.1137799
000080 76 3f 12 ba 98 6d 4e 3e f7 c8 92 bd b0 d8 2f bd
       -0.00055789144 0.20158994 -0.07167237 -0.04293126
000090 b0 f1 39 3d 4e 31 3e bd f2 b6 97 bd ed b2 f4 bc
       0.045396507 -0.04643374 -0.07407941 -0.029870475
0000a0 74 af 61 be fe 54 ff bd 2f 13 14 be a1 92 20 3d
       -0.22039586 -0.12467383 -0.14460443 0.039202336
0000b0 38 11 70 be 90 2e 42 3d 28 28 73 3e f2 48 91 bc
       -0.23444068 0.047407687 0.23745787 -0.017734978
0000c0 8d 1e 1f be d9 28 59 bd 80 3f 94 be f2 86 4e bd
       -0.15538998 -0.05301747 -0.28954697 -0.050421663
0000d0 bb ba 2f be 9d 93 16 bd 67 6e fe 3d ce c4 65 be
       -0.17161076 -0.03676187 0.12423401 -0.22438356
0000e0 85 f6 0a be a2 f8 4a be cc d7 71 3d 8b ee 39 3d
       -0.13570602 -0.19821408 0.05904369 0.045393508
0000f0 af cd c4 bc 3f 42 43 3e d3 68 13 bd f7 6c 00 be
       -0.024023859 0.1906824 -0.03598864 -0.12541567
000100 48 a0 06 3e 13 dd bd bd 3b 41 47 3e 56 f5 74 bd
       0.1314708 -0.09270682 0.19458477 -0.059804283
000110 26 d4 73 3d b5 6e c4 bc dc af b2 bc 72 d2 8e 3d
       0.059528492 -0.02397857 -0.021812372 0.06973733
000120 47 c3 09 bc c1 c6 49 bc f4 7c 2e 3d d1 11 73 3e
       -0.008408374 -0.012315453 0.042599633 0.23737265
000130 5f 11 f8 bc 5d 00 7d 3e f8 9a 21 bc 86 82 c8 3d
       -0.03028172 0.2470717 -0.009863608 0.0979052
000140 0d 81 54 3d ad 89 33 be ba c4 c7 3c 40 47 cf ba
       0.051880885 -0.17532988 0.024385799 -0.0015814081
000150 b3 03 00 bd e1 71 02 3d 72 af 47 3d dc a7 17 3d
       -0.031253528 0.031846885 0.048751302 0.037025318
000160 9b a7 f7 bd 0a e0 10 3d b8 e6 76 3d 88 02 d7 bd
       -0.12092515 0.03536991 0.060278624 -0.1049853
000170 f2 4c 00 be 1c dc da 3b db 3b e4 bc e6 04 27 3e
       -0.12529352 0.006679071 -0.027860573 0.16310462
000180 f1 3c 0a be 1a 91 a9 bc e5 25 24 be 63 7e f9 bd
       -0.1349981 -0.020699073 -0.1603008 -0.121823095
000190 fc 76 a9 bd ea 97 4d be 83 28 38 3e 27 79 43 3e
       -0.082746476 -0.20077482 0.17984204 0.19089185
0001a0 85 78 f3 bd 0d dc ec 3d 91 01 ef 3d 16 cc 08 be
       -0.11888222 0.11565409 0.11670221 -0.13359103
0001b0 8c bd 2d be fd 61 c8 3d 02 91 57 be a2 0c 87 be
       -0.16966838 0.09784315 -0.2105141 -0.26376826
0001c0 36 54 b8 bd 37 ca ef bd b1 12 e1 3d 8e 9d 85 3d
       -0.09000437 -0.11708491 0.10989893 0.06524192
0001d0 4b ce 02 3e 4b 45 37 3e 83 1d 24 be ee 02 7c bb
       0.12774007 0.17897527 -0.16026883 -0.0038453895
0001e0 6b f3 16 3b 44 11 b8 3d ea 56 b0 bd c2 37 89 3e
       0.0023033272 0.08987668 -0.086103275 0.26800352
0001f0 77 7f 1f 3e 81 b7 24 3c 1e fe 0c be 17 8a 70 3e
       0.15575968 0.010053516 -0.13768813 0.23490177
000200 c4 a6 7f 3e 10 7e a4 3d 56 5e 4f 3d 67 e6 2f 3e
       0.2496596 0.08031857 0.050627075 0.17177735
000210 31 98 09 be f6 4e f6 bd 5f 60 ca bc 9e d3 0b be
       -0.13436963 -0.12026779 -0.024704156 -0.13654944
000220 45 36 0f be be f8 6c 3e fd de e4 bd 33 9f 2b be
       -0.13985546 0.23141763 -0.11175344 -0.16759948
000230 1e 20 ef 3d 31 f5 64 bc ec af 60 3d 94 4f b3 3d
       0.11676048 -0.013974474 0.054855272 0.08755413
000240 f8 87 03 3d b7 0f 09 bd 9d 02 4f 3b 17 12 dd 3d
       0.03211209 -0.033462252 0.003158725 0.10794466
000250 52 65 df 3e ba aa e4 3d a4 0f eb 3d f1 b6 52 3e
       0.4363199 0.11165376 0.114775926 0.20577599
000260 ca 5f 31 3e a3 d5 b1 bd d9 ef f7 bd 0f a6 20 be
       0.17321697 -0.08683326 -0.12106294 -0.15688346
000270 1b 37 84 3e 7b 85 d9 3d 34 05 e5 bd 9e 41 1c be
       0.25823292 0.106211625 -0.11182633 -0.15259406
000280 bd 97 00 be 4a 2e 92 3e fa f3 e7 bd b0 f9 08 be
       -0.12557884 0.2855094 -0.11325832 -0.13376498
000290 38 2c e1 bb 4f 15 12 be 09 a7 ae 3d e2 10 8d 3e
       -0.0068717264 -0.14265941 0.08527953 0.27551943
0002a0 0e 18 fa 3c a2 e9 93 3a 4b f2 26 be 45 ba 05 be
       0.030529048 0.0011284838 -0.16303365 -0.13059337
0002b0 61 14 61 3d 01 67 ad bd 18 f4 ac 3e 21 73 13 be
       0.054951075 -0.08466912 0.3377998 -0.14399387
0002c0 dd dc 63 3e d5 88 be 3e 77 5c e0 3d d9 07 63 be
       0.22252221 0.3721377 0.10955136 -0.22170962
0002d0 68 51 8e bc 2f 2e 20 3e 07 b5 fb 3d 54 cd 98 3d
       -0.017372802 0.15642618 0.122903876 0.07461038
0002e0 b5 29 47 be 84 6c 83 3d 2f 55 58 bd b1 83 e2 3d
       -0.19449504 0.06417182 -0.052815612 0.110602744
0002f0 d1 10 52 3e 5c 50 69 be 83 54 81 3b d2 41 7c bd
       0.20514227 -0.22784561 0.003946842 -0.06158621
000300 2f 88 a7 3d 5c 28 8d be 4a 47 39 be 94 36 00 3e
       0.08180272 -0.27569854 -0.18093601 0.1252082
000310 26 a9 58 3d 63 30 1f 3d a1 56 19 3e ed 18 c4 bd
       0.052895688 0.038864505 0.14974453 -0.09575067
000320 09 44 a5 3d a1 f3 32 bd 52 ae c8 3d cb ce 93 3c
       0.08069617 -0.043689374 0.09798874 0.018042943
000330 a4 48 5d 3e 2d b5 97 bd de 1c 5e be 31 aa 78 3d
       0.21609741 -0.074076034 -0.216907 0.060709182
000340 45 d2 82 3d bb 4a 50 be 79 c1 12 3d f5 25 43 be
       0.06387762 -0.20341007 0.03582904 -0.19057448
000350 b7 e3 10 3e 7b 54 c0 3c 86 e0 a0 bd 0d 86 86 3c
       0.14149366 0.023477783 -0.078553244 0.016421342
000360 2f 3c 7a 3e 91 04 84 bc 10 80 a5 3e 11 a0 e8 3d
       0.2443702 -0.016115459 0.32324266 0.11358655
000370 3e 8e 8a 3e 37 1a b3 bd 20 05 ab bd 8b 76 ac bc
       0.27061647 -0.087452345 -0.08350587 -0.02105262
000380 54 8a f8 bc f3 51 63 be 83 f8 5b 3e b4 f2 a7 bd
       -0.030339397 -0.2219923 0.21481518 -0.08200589
000390 b2 d0 7b be 5d db d0 3e c0 d4 e6 3c 31 ee 37 bc
       -0.2459133 0.4079236 0.028177619 -0.011226223
0003a0 38 d9 c4 bd a6 93 99 3d 4f d6 cc 3d e8 d0 e7 bd
       -0.09611744 0.07498865 0.100018136 -0.113191426
0003b0 cc 8d b1 bc fa 70 93 3d 77 52 81 be 70 53 9b bd
       -0.02167406 0.07199283 -0.25258228 -0.07584274
0003c0 e3 3e 2f 3d a4 d2 51 be f1 26 a4 bd 32 1f ba 3d
       0.042784583 -0.2049051 -0.0801524 0.09087981
0003d0 4c 67 12 3e 12 ca 10 bc 3c 2a 97 be a3 10 9d be
       0.14297217 -0.00883724 -0.2952441 -0.30676755
0003e0 d2 05 a9 bd e9 fd 10 bd 01 e8 1d 3e 25 fd 23 3e
       -0.08253063 -0.035398398 0.15420534 0.16014536
0003f0 cf 5c 8a 3d bc c6 71 3e 3f 0f 0a be f5 47 29 be
       0.06755983 0.23610967 -0.13482378 -0.16531356

inp.fc.bias f4 [300]
000000 b3 fd 61 bd 62 94 bb bc 51 e3 40 bd 58 4c 90 bd
       -0.055173587 -0.022897903 -0.047091786 -0.070458114
000010 06 8f 87 be d6 65 5d be c0 ee 61 be 53 cc ac bd
       -0.26476306 -0.21620879 -0.22063732 -0.08437409
000020 3d 33 b7 3c 4e 48 40 be 62 57 96 be 67 64 8b be
       0.0223633 -0.18777582 -0.29363543 -0.27225038
000030 4b cc 8a bd ed fc 8d be 07 bb d9 bd 61 78 d4 be
       -0.06777247 -0.2773203 -0.10631376 -0.41498092
000040 b2 61 92 be 05 2f 59 be 5d a1 f0 bd a2 15 ec be
       -0.2859016 -0.21209343 -0.117495276 -0.46110255
000050 ea f1 95 be 50 3c 02 3e 23 3b 27 be 72 97 a1 be
       -0.29286128 0.1271832 -0.16331153 -0.31560856
000060 36 6b dc bd 71 49 7e be 57 aa 7a be 2c 57 1d be
       -0.10762636 -0.24832703 -0.24479042 -0.15365285
000070 3d 76 2e 3d 2c 0f 38 be 8c 54 c5 bd f3 5e 9f bd
       0.04259323 -0.17974538 -0.09635267 -0.07781782
000080 bf ef d7 be 3d e9 41 be 48 92 f7 bd ce 43 b7 be
       -0.421751 -0.1893663 -0.12088448 -0.35793918
000090 50 0e 5c be b8 ff a6 bd 6d 0e 99 be 90 a3 d3 3d
       -0.21489835 -0.08154243 -0.29893818 0.103339314
0000a0 d0 01 29 be 38 67 8e bd 9d 00 4e be d3 9f d3 bc
       -0.16504598 -0.06953281 -0.20117421 -0.025833046
0000b0 a4 e3 6b be d1 c8 3f be 73 dc ee bd d7 a4 49 be
       -0.23036057 -0.18728949 -0.11663141 -0.19691788
0000c0 17 0e 29 be 8f 00 a0 3c 69 c9 1a bd 5e ed 9a be
       -0.16509281 0.019531516 -0.037789736 -0.30259222
0000d0 f5 3f f6 bd 90 a5 b5 be 73 a5 06 be a9 f3 5d be
       -0.120239176 -0.35477877 -0.13149051 -0.2167498
0000e0 a3 7b 73 be 96 66 e8 be 77 b6 a8 be b1 4a af bd
       -0.23777632 -0.45390767 -0.3295171 -0.08559168
0000f0 49 cc b1 be b8 d1 e3 3d 1e 0d b5 be c4 f8 c8 bc
       -0.3472617 0.11123985 -0.3536157 -0.024532683
000100 69 9c bd bd 53 12 39 be a8 6f 89 3d 17 16 29 be
       -0.092583485 -0.18073396 0.0671075 -0.16512333
000110 71 c6 d1 be 98 1b ff bd 9d 51 78 be 5e d6 d1 bc
       -0.4097171 -0.12456435 -0.24249883 -0.025614914
000120 f2 2e 48 bd e5 75 7a be 61 70 93 3d 56 d8 b4 be
       -0.048872896 -0.24459036 0.07199169 -0.353213
000130 ae 27 d7 bd 0f 16 7f be 8d cf 00 be a3 47 a5 bd
       -0.10505615 -0.24910758 -0.12579174 -0.08070304
000140 b9 47 8b be 2d 1b 6f be e3 af 80 be e0 4d ed bd
       -0.27203158 -0.2335021 -0.2513419 -0.11587119
000150 f7 d9 69 bd 6e 26 82 be f3 2c 01 be 8e 3b 45 be
       -0.057092633 -0.25419945 -0.12614803 -0.19261
000160 19 19 d4 bd e7 42 27 3d 0b f8 83 be ac a6 98 be
       -0.103563495 0.040835287 -0.2577518 -0.2981466
000170 18 70 5d be 8a c1 a3 bd 78 7f a9 be bc b1 06 be
       -0.21624792 -0.07995899 -0.33105063 -0.13153738
000180 1d 52 56 be e4 e2 85 3d 3f a5 0a be 81 0a 9e be
       -0.20929761 0.065374166 -0.13539599 -0.3086739
000190 af 0d d3 be a0 c6 af be 4a 3f db bd c9 76 c3 be
       -0.41221377 -0.34331226 -0.10705431 -0.38176563
0001a0 2e 3a 32 be e4 af ae be 3d 33 46 be 04 b0 9b bd
       -0.17405006 -0.3411857 -0.19355483 -0.07601932
0001b0 da bb be bd 76 cf 31 be 51 c4 77 bc b1 c7 13 be
       -0.093131736 -0.17364296 -0.015122489 -0.14431645
0001c0 35 16 a6 be 52 d9 94 be 90 10 e9 bd e4 47 99 bd
       -0.32438818 -0.29072052 -0.11380112 -0.07484415
0001d0 58 87 d7 bd cb 32 a2 be 2e 9a 9f be 72 f4 61 be
       -0.10523862 -0.31679377 -0.31172317 -0.22065905
0001e0 b1 32 43 be 45 09 61 be 65 3d d4 bd 4d 74 95 be
       -0.19062306 -0.21976192 -0.103632726 -0.29190293
0001f0 dd be 38 bd b0 ac 83 bc bf 95 0a bd 05 2c 48 be
       -0.045103896 -0.016073555 -0.033834215 -0.19548042
000200 25 e7 8a bc 66 99 a6 bc fe c6 32 be 8f 30 3b be
       -0.016955921 -0.020336818 -0.17458722 -0.18280242
000210 bb df 79 be 0a 5c 98 be 8b b4 76 be 1d 7f ad bd
       -0.24401753 -0.2975772 -0.24092309 -0.084715106
000220 c9 17 1a be 0d 74 bf bd 68 70 02 be e8 58 45 be
       -0.15048136 -0.09348307 -0.12738192 -0.19272196
000230 0c 2c c6 bd 17 de a4 be f8 55 25 3c 4a d0 87 be
       -0.0967637 -0.3220069 0.010091297 -0.265261
000240 1f 96 10 be 2a 5b c3 be 12 89 b3 be 5b 94 c0 be
       -0.14119767 -0.3815549 -0.35065514 -0.37613186
000250 a1 c6 09 3d ac ee 75 bd 59 26 42 be 92 0a 9f be
       0.033636693 -0.06004207 -0.18959941 -0.31062752
000260 85 a6 1d be 9c 02 8e bc 02 1d 63 be 6a d3 97 bd
       -0.15395553 -0.017335229 -0.22179034 -0.07413371
000270 63 0e a5 be 6b 4f 81 be af 1e b4 be cb d0 35 3b
       -0.3223754 -0.25255904 -0.3517966 0.0027742859
000280 37 62 53 be dd e5 69 be 8c de 92 be f3 68 b4 be
       -0.20642935 -0.22841592 -0.28685415 -0.3523632
000290 53 bb d0 be 59 a6 73 be 3e ef 75 be c7 5c d0 bc
       -0.40767917 -0.23793925 -0.24017045 -0.025434865
0002a0 02 f9 29 ba 0c 66 bf be 60 57 0a bd 38 57 3f be
       -0.00064839434 -0.37382543 -0.033774734 -0.18685615
0002b0 5e e4 ad bd 3b 38 5c be 62 d1 80 be 15 e5 a5 be
       -0.08490823 -0.21505825 -0.25159746 -0.32401338
0002c0 12 4c 91 be ad 5b 8c be 5a a2 7b be fe 01 ad be
       -0.2837835 -0.27413693 -0.24573651 -0.33790582
0002d0 ac 2a 86 be 24 b8 0f be ff b3 b8 bd d4 e3 ae be
       -0.2620443 -0.14035088 -0.090187065 -0.34158194
0002e0 0c da 8f be eb 98 74 be e3 02 57 be 63 ae e6 be
       -0.28096044 -0.23886459 -0.20997195 -0.45054922
0002f0 db 27 02 be 72 48 66 bd ca 5f c5 be 50 f3 1f be
       -0.12710516 -0.056221433 -0.38549644 -0.1562016
000300 b4 64 88 be b3 d8 97 be 0a 24 1f be 5e 8d b3 be
       -0.2663933 -0.29657516 -0.15541092 -0.35068792
000310 06 38 3e be 93 5f c1 bd 23 f1 3b be 8c d9 4e be
       -0.18576059 -0.094420575 -0.18353705 -0.20200175
000320 cc 6c a3 bd 4d 93 bd bc 35 e4 4c be cb 8a 1c be
       -0.07979736 -0.023141528 -0.20008929 -0.1528732
000330 96 b6 35 be e2 12 81 be 6e 62 13 bd 53 ad 99 be
       -0.17745432 -0.2520972 -0.03598254 -0.30015048
000340 8b 92 34 be dd 0b 6f bd 69 a0 49 bc c3 5b 80 3d
       -0.17634027 -0.058360923 -0.012306311 0.06267502
000350 bc d3 d1 be c4 02 33 be 39 3d b3 bd 6a 9b 0c be
       -0.40981853 -0.17481524 -0.08751912 -0.13731161
000360 24 20 44 bd ac 1f 67 be de a2 87 be 5f 5e c3 be
       -0.047882214 -0.22570676 -0.26491445 -0.38157937
000370 2b ff 36 be 86 27 54 be 49 80 35 3c d1 36 7f bc
       -0.17870776 -0.20718202 0.011077949 -0.015577034
000380 eb f2 3b be 3e f7 2b be 39 b0 fd bd ce d3 f2 bd
       -0.18354385 -0.16793534 -0.123871274 -0.11856805
000390 96 8f 08 be e5 bc 70 be b0 9a 46 be fa 6a 09 be
       -0.13336024 -0.23509558 -0.19394946 -0.13419715
0003a0 b4 4e 2e be e2 79 03 bf a6 93 bd bd 5e 7b 8a be
       -0.1702221 -0.51357853 -0.09256677 -0.27047247
0003b0 7e 81 44 be 46 95 bf be 94 57 74 be 61 1a df bd
       -0.19190022 -0.37418574 -0.23861533 -0.10893703
0003c0 67 f9 fc bc 81 c4 5e be 91 a4 3d bd 82 ac 67 be
       -0.030880643 -0.21754648 -0.04629952 -0.226244
0003d0 d7 ea 3c bd de 96 3d bc 11 45 0d be 91 ad c1 be
       -0.0461224 -0.011571614 -0.13795878 -0.37827733
0003e0 88 42 20 be c1 f7 2d be c1 e5 3d be 49 74 86 be
       -0.1565038 -0.16989042 -0.18544675 -0.26260594
0003f0 18 01 b3 bd ad a3 9f bd bf 4b 0b bf c4 b4 4e be
       -0.08740443 -0.077948906 -0.54412454 -0.20186144

layers.0.fc.weight f4 [100, 300]
000000 0d 06 1a be 1f 7c 2a bd 7a 3a 01 be e3 70 40 3e
       -0.1504137 -0.041622277 -0.12619963 0.18793063
000010 7e 4b 88 3e 1e c2 fe 3c f2 ee 0d 3d d2 b8 53 3c
       0.26620096 0.031098422 0.034651704 0.012922483
000020 9b 63 b7 bd 94 45 b9 3d 6f 1d d9 bb 14 a4 8f 3d
       -0.08954545 0.09046474 -0.006625823 0.07013717
000030 f0 1d 33 bd 52 91 86 bc ee 67 20 bd f7 6e 97 3d
       -0.043729722 -0.016426716 -0.039161615 0.07394212
000040 ca 6e 98 3d db dd 96 bc 13 74 74 bd bf 53 41 3d
       0.07443006 -0.018416336 -0.05968101 0.047199007
000050 0d dd 30 3d 08 e9 37 be f8 c3 cb 3d 8f 9b 85 3d
       0.04317956 -0.17959988 0.099494874 0.06523811
000060 2a 3a 90 3d c7 f9 80 3b ce e7 6e be b5 a0 84 3d
       0.07042344 0.003936026 -0.23330614 0.06475965
000070 32 b9 07 3e e5 3c f8 3d 1b 55 86 3c db 74 f9 3d
       0.1325424 0.1212099 0.016398003 0.121804915
000080 a4 da ca 3e 39 92 07 3d 5e 5c 6f bd b2 e1 aa bd
       0.39619935 0.033098433 -0.058437698 -0.08343829
000090 8c 85 ed bd 3c a2 bf bd e2 e3 9b 3d bf 59 32 be
       -0.11597738 -0.093571156 0.076118246 -0.17417048
0000a0 49 79 e8 3c 81 11 34 bd e9 7c 54 3e 43 df 49 3e
       0.028378146 -0.043962006 0.20750774 0.19714074
0000b0 d7 55 e9 bd 4c 79 5f bb a1 c7 94 3d 2c eb 05 3e
       -0.11393326 -0.0034099398 0.07264639 0.13077992
0000c0 de 74 4c 3e dd 6a 0f 3c 73 88 97 bd 55 90 49 3d
       0.19966456 0.008753506 -0.073990725 0.04920991
0000d0 21 2f 49 3c 54 3e 2d 3d 92 6b 74 3d 20 30 bd 3c
       0.012279303 0.04229577 0.0596729 0.023094237
0000e0 8c 7e ac bd 22 5d ca bd 6e 36 40 be c7 27 12 bc
       -0.084225744 -0.09881045 -0.18770763 -0.0089206165
0000f0 4c d5 c7 bc 0b 64 db 3d 1f 80 25 bd b5 c0 2c be
       -0.0243937 0.10712441 -0.04040539 -0.16870387
000100 ac 26 ab 3d f2 10 31 be db ab 92 3d c0 7c 04 bc
       0.083569854 -0.1729162 0.07161685 -0.008086383
000110 13 8a ef 38 ed 4a 92 3c d3 31 bd bc b5 28 99 3d
       0.000114221264 0.017857993 -0.023095047 0.074784674
000120 52 70 1c be a8 fc 01 3e 3e 31 88 3d e0 a0 87 be
       -0.15277222 0.12694037 0.06650017 -0.26489925
000130 69 7c 2b bd b5 fb 3b 3e b8 28 3a 3e c8 5c 64 be
       -0.041866694 0.18357737 0.18179595 -0.22301018
000140 35 c6 7c bd a8 ba af 3c 6a 14 3f be a2 bd 6f be
       -0.061712462 0.02145131 -0.18660131 -0.23412183
000150 4f eb 35 3d 21 81 ad bc d1 3d 07 3e 50 b4 a6 ba
       0.04441386 -0.021179738 0.13207175 -0.0012718532
000160 49 33 14 be a5 71 b8 3e 8c 1e 22 bd eb 42 50 bd
       -0.14472689 0.36024204 -0.039579913 -0.050845068
000170 31 da 6b 3b 67 b0 35 bd d3 e9 2e 3c 3c 2a 29 bd
       0.0035988207 -0.044357684 0.010675865 -0.041300043
000180 db 7c f1 ba 66 36 03 3e 9a 2d a1 bd 01 2f e0 bd
       -0.0018424051 0.1281372 -0.07870026 -0.10946465
000190 c4 90 8c be 36 e1 20 bd a6 96 ce 3d 9d 5b 75 bd
       -0.27454197 -0.039277278 0.10087328 -0.059901822
0001a0 4b ef 38 3e 68 37 81 3d 11 03 20 be 99 34 9d 3d
       0.18060033 0.06309396 -0.1562617 0.07676048
0001b0 bb 02 f8 bd 93 2d b2 3d e8 54 c2 bd 49 58 e8 bd
       -0.12109896 0.08700099 -0.09488851 -0.11344964
0001c0 3e 0c 3a 3d b8 5d ad 3c 81 c3 8d bc fc 82 5a 3e
       0.04542183 0.021162853 -0.017305138 0.21339029
0001d0 c8 70 8f bd 03 41 a1 3d db a9 23 3e d8 34 53 3e
       -0.07003933 0.07873728 0.15982763 0.20625627
0001e0 75 1f 37 be 40 d1 7b 3e 5d 08 9f bd db ca 93 3d
       -0.17883094 0.24591541 -0.07765267 0.07216426
0001f0 86 7e 14 be 46 78 3d 3e d9 24 b5 3d bc 4d 1f be
       -0.1450139 0.18502912 0.08844919 -0.15556997
000200 01 8d bf bd 03 81 35 be 4e 4e 58 3e 72 4c d2 bd
       -0.09353066 -0.17724995 0.21123621 -0.10268487
000210 90 2b c1 bd 5b a2 c1 3d eb fd 9f 3b 3d fe 1a 3c
       -0.09432137 0.09454795 0.0048825643 0.009460029
000220 3d 09 05 be b6 29 52 be b7 bc 90 bc c5 6f eb 3d
       -0.12991805 -0.20523724 -0.017668111 0.11495928
000230 d2 2e 86 bb b0 5f 5b be bc 53 a8 3d 56 42 2e bd
       -0.004094937 -0.2142322 0.08219096 -0.04254373
000240 37 2d 9b bd f1 da 3f be e8 6b 73 3d 64 5e 44 bd
       -0.075769834 -0.18735863 0.05942908 -0.04794158
000250 ae 1b 4a 3e 7a df be bd fe 1a df bd 90 3f 46 bd
       0.19737121 -0.093199685 -0.1089382 -0.04840046
000260 21 1c b5 bc 8b 77 43 be b1 85 d7 bc 53 1c 90 3d
       -0.02210814 -0.19088571 -0.026308866 0.070366524
000270 8d 37 58 bd 7c f2 cc 3d 3c fd c9 bd 1b eb 02 3d
       -0.052787352 0.10007188 -0.09862754 0.031962495
000280 49 dd 69 3e 9e 59 02 bd ea 2a 89 bd b1 a8 9e be
       0.2283832 -0.031823747 -0.06697638 -0.30988076
000290 e9 38 ae 3d 87 6d 67 be ef 8e 95 3c 36 4d af 3d
       0.085069485 -0.22600375 0.018256633 0.08559649
0002a0 c0 ee 50 bd cc 16 07 be dc 81 85 bd b1 99 ea bc
       -0.05100894 -0.1319229 -0.06518909 -0.028637739
0002b0 78 f6 99 3d 8b db 0f be 78 80 1d 3e e6 6f ab 3d
       0.07517713 -0.14048593 0.15381038 0.08370952
0002c0 6c 7e d4 3d e8 7b f2 bd 47 13 dd bd f4 ad d9 3d
       0.103756756 -0.118400395 -0.107946925 0.10628882
0002d0 ed 96 fa 3c 10 3f ef 3c a4 71 09 bd 83 65 27 3e
       0.030589545 0.029204875 -0.03355564 0.16347317
0002e0 ae 8d 07 be bb e2 07 3e 4b a7 c3 bd 63 a5 4c bd
       -0.1323764 0.13270085 -0.09553393 -0.049962413
0002f0 04 62 85 bc 67 5f 0e be 0c f1 8b 3d 68 d2 9f 3d
       -0.016282089 -0.1390358 0.068330854 0.07803804
000300 1f c6 ab bd 8b f5 74 3d 9d 90 6c be b6 e9 1c 3e
       -0.08387398 0.05980448 -0.2310204 0.15323529
000310 c2 64 ee 3c c7 13 87 3d e6 c4 51 bc 54 25 5b be
       0.02910078 0.06595569 -0.012803292 -0.21400958
000320 2d 17 50 3e 9e b9 1b be d3 cf 1a bd e6 b7 54 3e
       0.20321341 -0.15207526 -0.037795853 0.20773277
000330 b1 fb 63 3d 2a 55 53 be a7 e8 de bd e2 5e 89 be
       0.055659954 -0.20637956 -0.10884219 -0.26830202
000340 53 f4 b8 3d d5 40 71 be 86 b2 9c 3e b3 f8 e6 bb
       0.09030976 -0.23559888 0.30604953 -0.00704869
000350 2c 81 4e 3e 1f 35 31 be 9f 8e eb bd 4b 6f 3b 3e
       0.20166463 -0.1730542 -0.11501812 0.18304174
000360 c3 4d 34 3d bb 3a 16 be 14 00 87 be 0f 2a a3 3c
       0.04401947 -0.14670841 -0.26367247 0.019917516
000370 ce 32 05 be 8f a2 cf 3d 73 96 0e be b6 7f 9a 3e
       -0.13007662 0.101384275 -0.1392458 0.3017556
000380 cd e6 99 bd a6 69 09 3d a8 91 45 3e 62 ba 1b 3e
       -0.07514725 0.03354802 0.19293845 0.15207818
000390 5f 4b 8f 3b b4 47 92 bd 16 48 97 3e c3 95 71 bd
       0.0043729986 -0.071425825 0.29547185 -0.058980715
0003a0 88 25 40 3e 89 da 2f bd 3e 7e 93 3e 56 73 38 3e
       0.18764317 -0.04293302 0.28807253 0.18012747
0003b0 59 cc 2a be 18 7b 36 3d 78 bc c8 3d dd 5f 15 bd
       -0.16679515 0.044550985 0.098015726 -0.036468375
0003c0 96 47 f5 3d 63 d0 85 3e 65 80 9f be 61 b8 a0 bd
       0.119765446 0.2613555 -0.31152645 -0.078476675
0003d0 56 57 cf 3d 79 7d 7d 3e 6d 90 f3 3c a8 8e a3 bd
       0.1012408 0.24754895 0.029731954 -0.07986194
0003e0 a1 aa c1 3d 83 39 b8 3d 28 5d e3 bd 3a e1 3a be
       0.09456373 0.089953445 -0.111017525 -0.1824998
0003f0 e9 60 21 be de 45 80 3c ba 80 f1 3d b4 c3 b5 3e
       -0.15759625 0.015658315 0.11792131 0.35500872

layers.0.fc.bias f4 [100]
000000 ec da 8b 3d f3 1f 49 3d 96 9f cf ba 81 23 1f bd
       0.068288654 0.049102735 -0.0015840407 -0.03885222
000010 f2 51 35 bc 50 76 0e bd 08 25 38 3d b3 fc 26 3d
       -0.011066901 -0.0347808 0.04495719 0.040768337
000020 1c 05 51 bd 54 ad 29 bd 77 48 db bd e1 8f 97 3d
       -0.051030263 -0.041425064 -0.10707181 0.074004896
000030 cc fa c5 3d 34 7e 5e bd 58 67 50 3c 6a 85 b7 bd
       0.09666976 -0.054319575 0.012719952 -0.089609936
000040 dc 14 e8 bc c5 c2 bb bd a0 4e 0d 3d f4 15 30 3d
       -0.028330259 -0.09168009 0.03449881 0.042989686
000050 c6 a7 3d bd b4 16 e8 3c 04 be e4 bd 54 95 ff bc
       -0.04630258 0.028331138 -0.11169055 -0.031199135
000060 c6 ab 59 bd 59 73 59 bd 2b 3e 9b 3d 9f a9 9d bc
       -0.05314233 -0.05308852 0.07580217 -0.01924592
000070 af 68 67 bc f8 15 12 3c 33 17 14 3d 8b 16 22 3d
       -0.01412408 0.008916371 0.036154937 0.03957228
000080 52 70 f5 3d 74 1f 2c bd 99 f5 f1 3d 46 98 a1 3d
       0.11984314 -0.042022184 0.11814422 0.07890372
000090 fb ce 27 bd 4a e7 d7 3c fb e5 3d 3d 90 99 04 be
       -0.040968876 0.026355404 0.046361905 -0.12949204
0000a0 d7 ae 55 bc 26 b5 e3 3a ff de 08 3d 35 a0 4a bd
       -0.013042173 0.0017372712 0.03341579 -0.04946919
0000b0 8b 14 2f 3c 2d 4a 74 bd d2 8f b6 bb 11 74 2c bd
       0.01068605 -0.059641052 -0.005571344 -0.042102877
0000c0 33 24 50 3d 80 90 c8 bd 60 84 63 bd 28 a9 32 bc
       0.050815772 -0.09793186 -0.055546165 -0.010904588
0000d0 f8 dd 9a bb 23 63 bc bb 72 94 cd 3d 4c 4c 0b bc
       -0.004726168 -0.0057491227 0.10038079 -0.008502077
0000e0 96 c6 10 3e 6d 1d de bd 91 80 2e bd d2 f4 1b be
       0.14138255 -0.10845456 -0.04260308 -0.1523011
0000f0 5a 68 16 bd 23 33 ee bd fc 1a cd bd 12 fa 27 bd
       -0.03672061 -0.11630847 -0.100149125 -0.04100997
000100 e9 bd 09 3e a6 6e 8c 3d 60 93 e9 3c 2e 21 63 bd
       0.13451351 0.06857042 0.028512657 -0.055451564
000110 6d 35 fa 3c d0 a0 6a bd 02 f4 9b 3d f6 d8 46 bd
       0.030543054 -0.05728227 0.076149 -0.048546754
000120 10 44 10 bd 6b d7 a7 3d de 0d e1 3b 49 ea f4 3d
       -0.03522116 0.081953846 0.006868108 0.11958749
000130 7c c0 45 bc ed 35 92 3c 22 b6 01 bc f5 10 bc bd
       -0.012069818 0.01784798 -0.007916959 -0.09182922
000140 c0 6b 8a bc 18 50 07 3d b9 47 e6 bd fd 1c ca 3d
       -0.016897082 0.033035368 -0.11244149 0.0986881
000150 15 30 01 3e 32 97 85 3a eb fa 45 3c 74 87 6e bd
       0.12615998 0.0010192154 0.012083749 -0.058234647
000160 cf 26 61 bd e2 a6 58 3d 0c 7f 47 bd a5 b1 2f be
       -0.05496865 0.052893527 -0.048705146 -0.1715761
000170 34 fe dd bb 51 68 eb bd 07 d9 3c bc 49 be d8 bd
       -0.006774688 -0.11494506 -0.011526353 -0.10583169
000180 8d 51 b4 3d 72 73 35 bd 3b 58 1f 3e 7d 71 85 3a
       0.08804617 -0.04429955 0.15561001 0.0010180917

out_cat.weight f4 [2, 100]
000000 08 31 9f bd 21 89 f7 3d 37 c0 03 be aa 5f a6 bc
       -0.07773024 0.12086702 -0.12866293 -0.020309288
000010 29 0b d1 3d 08 29 bc bd c1 a7 04 be 9c a9 02 be
       0.10207207 -0.091875136 -0.12954618 -0.12760013
000020 09 8f 67 bd ee b2 c1 3c ff 2c 97 3e 32 3d 0d be
       -0.056532893 0.02364489 0.29526517 -0.13792875
000030 38 85 d1 3d 16 57 e2 bb 50 f1 9f bd d2 d7 0c 3c
       0.102304876 -0.006907354 -0.078096986 0.008596377
000040 64 64 a0 bd 30 35 f0 3d 91 a8 20 bd c6 e3 f2 3d
       -0.07831648 0.11728895 -0.039223257 0.118598506
000050 8c c7 3f be f6 a2 ed 3d 1f e2 1e 3d e6 38 1c 3e
       -0.18728465 0.11603348 0.038789865 0.1525608
000060 85 fd 95 bd 45 a6 5f bd dd 76 2b 3e 12 57 56 bd
       -0.07323746 -0.054601926 0.16744561 -0.05232913
000070 79 87 77 bd 8f 11 9f 3e 07 09 35 3e 1e 1c 24 3e
       -0.06043193 0.31068084 0.17679225 0.16026351
000080 76 fb 3b be 8d 5b 66 3e af 0d c3 bd 18 9b 2b bd
       -0.18357643 0.22495861 -0.09524094 -0.041895956
000090 d1 b0 25 be 03 26 1b bd f9 c1 4d bd 96 2b e2 3d
       -0.16180731 -0.037878048 -0.050233815 0.110434696
0000a0 e4 04 40 bd b1 bb 1b 3e 63 28 33 bd aa 9c 0f 3e
       -0.046879664 0.15208317 -0.043739688 0.14024606
0000b0 2e 87 ff bd 5e 3e 7d 3e ee 5e 61 3d 26 ae 89 3b
       -0.12476955 0.24730822 0.055022173 0.0042016683
0000c0 68 e4 c0 bd b5 c6 52 bd 67 cb 1a 3e 2e 50 b0 3d
       -0.09418565 -0.051459033 0.15116654 0.08609043
0000d0 2d 06 1b 3e ac e1 bb bd c3 71 f8 3d 11 fe 99 bd
       0.15139075 -0.09173903 0.12131073 -0.075191624
0000e0 81 1d 3f be e4 5c 50 3e a9 31 4c bd 07 37 81 3d
       -0.18663599 0.20347935 -0.049852047 0.06309324
0000f0 04 2c b9 3d 05 6f 9c 3d 9f f8 27 3e c4 18 05 3e
       0.090415984 0.07638363 0.16403435 0.12997729
000100 54 a8 06 bd 7c 86 ad 3d 68 06 f8 3d 51 29 0e bd
       -0.032875374 0.084729165 0.12110597 -0.03470737
000110 cc 01 7d 3d 2a 78 5f bd f4 1e 0a 3e f8 a3 97 3d
       0.06176929 -0.054557957 0.1348837 0.074043214
000120 4e 52 96 bd fc 3f 10 be 52 68 12 bd 37 d7 2e be
       -0.07339917 -0.14086908 -0.03574402 -0.17074285
000130 c5 6d 86 bd 7a aa c6 bd 5d d6 d8 3d b4 22 6b 3d
       -0.065639056 -0.097004846 0.105877616 0.057406142
000140 72 68 b3 bd 10 8a d0 bd bc 12 0a be 9a 28 2b 3d
       -0.08760156 -0.10182583 -0.13483709 0.041786768
000150 82 0e 0c be 9a 95 06 3d 34 40 b3 bd dd 39 18 3e
       -0.1367741 0.032857515 -0.0875248 0.14865823
000160 02 a8 9a 3c 08 86 13 3e 8c f8 05 be af f0 be 3c
       0.01887894 0.14406598 -0.13083094 0.023308126
000170 8c a8 9b bc 5d c6 05 be 8e 91 ee 3d 0b 6c 1c 3e
       -0.019001268 -0.13063951 0.11648856 0.1527559
000180 54 12 89 3e 19 e6 41 3e 7d dc 26 be 78 49 8b bd
       0.26771796 0.18935432 -0.16295047 -0.068011224
000190 55 6f 9d 3d d5 de f9 bd d0 6e 2e 3e 62 02 ae 3d
       0.076872505 -0.12200705 0.17034459 0.08496548
0001a0 ee d6 9e bd d8 b7 2b 3e d6 90 fd 3d a9 c8 02 3e
       -0.07755838 0.1676935 0.12381141 0.12771858
0001b0 72 32 89 bd 2c 03 54 3d 0f cb 86 be fa 8d 08 3e
       -0.06699075 0.051760837 -0.26326796 0.1333541
0001c0 eb 48 02 be ce c5 41 3d 52 af b1 3d bd 39 9f bc
       -0.12723128 0.047307782 0.08676018 -0.019436711
0001d0 2a 8c 4c 3d 43 36 bf bd 64 08 06 3d fe 4f ff bd
       0.04993836 -0.093365215 0.032722846 -0.12466429
0001e0 5b c3 09 3e 32 5d d9 bd 34 76 fe bc 18 11 11 be
       0.13453428 -0.10613479 -0.031062223 -0.14166677
0001f0 da 19 17 3e e2 d4 09 bc d5 4c 07 be 72 48 22 3d
       0.14755955 -0.008412572 -0.13212903 0.03961987
000200 41 c7 6f bd 21 0a 99 be 14 71 32 be 07 23 e8 bd
       -0.058539633 -0.2989054 -0.17425948 -0.11334806
000210 9e 6b 36 3e 21 7d 73 be 75 78 6c 3d 55 22 36 3d
       0.1781449 -0.23778202 0.057732064 0.044466335
000220 d1 9d f0 3d 39 84 f6 3c 90 65 7e 3d 74 29 07 be
       0.11748851 0.030092346 0.062108576 -0.13199407
000230 46 4d 9b 3c 3b e0 0c be ed be d3 3c 7b 97 24 be
       0.018957745 -0.13757412 0.025847876 -0.1607341
000240 1c 36 9a 3d bc ec 59 be 2e d7 38 bd b4 ea 68 3d
       0.07529852 -0.21281713 -0.045127086 0.056864455
000250 79 87 bd 3d 9b 9d 67 bc 4a 3f 2c be e5 53 8b bd
       0.09254355 -0.014136697 -0.16821018 -0.06803111
000260 ca 2b 06 be aa 0e dd 3d 9e 58 8b bd c8 50 31 3d
       -0.13102642 0.107938126 -0.06804012 0.04328993
000270 50 2f 3c 3e 63 55 5c be 48 93 c0 bd 4b df cc bd
       0.18377423 -0.21516947 -0.09403092 -0.10003527
000280 95 ff 94 bd b1 ba e7 bd 07 ac 41 be 30 9c 14 be
       -0.07275311 -0.113149054 -0.1891328 -0.14512706
000290 41 c7 87 3d 68 9b cf bd 95 e3 c9 bd 81 82 4b bc
       0.066298015 -0.10137063 -0.09857861 -0.012421251
0002a0 af 1c a4 bd 72 7b e3 bd 67 6e 1e be 5e 2c ea bc
       -0.080132835 -0.1110753 -0.15471803 -0.028585609
0002b0 64 7a da 3d 01 05 11 3e db be 81 3d 09 11 36 3e
       0.106678754 0.14162065 0.06335231 0.17779936
0002c0 04 50 67 bd 28 13 2f bd 03 78 b6 bd 1b 9f 42 bd
       -0.056472793 -0.04274288 -0.08909609 -0.047515016
0002d0 fa 97 e9 3d b5 79 16 3e c3 06 b5 3d 6b f1 a4 bd
       0.1140594 0.14694865 0.0883918 -0.08053859
0002e0 82 d0 40 3e bc 7a fa 3c fb 00 ea 3d a2 2c 11 be
       0.1882954 0.030576102 0.11425968 -0.14177182
0002f0 4c 7f 2a 3d 9c 6f 00 be 7c 57 0e 3e 73 cc d9 bd
       0.041625306 -0.12542576 0.1390056 -0.10634699
000300 1a c4 33 3d 67 76 3d 3d 1d 31 15 be 1e ac 4c be
       0.04388819 0.046255495 -0.14569516 -0.19987532
000310 a2 38 84 be 5b 58 15 be 92 15 20 3e ca d9 0a 3d
       -0.25824457 -0.14584486 0.15633228 0.033899106

out_cat.bias f4 [2]
000000 75 c6 13 be b0 64 1d 3d
       -0.14431174 0.0384261
