models/ncls2-dex100/scenario0_epoch70.pt (torch, 104875 bytes, 6 tensors)

inp.fc.weight f4 [100, 49]
00000000: 21ba 093e 98a0 e93c a228 5fbe d23c 94bd
00000010: 40a8 d9bd 2226 80be 2fdd 8cbc 4235 a33e
00000020: b215 3abe 6a42 593d 1410 b23d 4631 beba
00000030: 4049 d2bb 56c6 c4bd c27b ab3e bf5f 15be
00000040: ad6d 47be f30b a1be 8a4b 5dbe b2f6 d5bb
00000050: b260 323d 496d 063e 8ac7 e63e 8dd7 43bd
00000060: 6610 d8bc 0cdc 703e a049 aa3e 899c c6bd
00000070: fcb0 64be 19e8 443e 15d0 f13d 65e1 8dbd
00000080: 8532 6f3e f7bb bdbe e9c2 28bc 98f8 0abe
00000090: 7016 2e3e c98f 07be 1c4a fd3d ae25 aa3e
000000a0: 9539 433d 806b c1b9 5f6b a83e 28d3 ed3d
000000b0: ebc2 0d3e e719 d6bc 9324 af3d 5b20 4cbc
000000c0: 726b a1bc 8372 90bd 9986 4bbd 8493 bd3d
000000d0: 5ccc 00be 3519 3f3d 24c1 3abc 1a39 8c3d
000000e0: af55 7bbe 704e a93d 76bb 0c3d 722d 133d
000000f0: 565f 243e 2486 b2bc a279 63bd 625c da3e
00000100: eb0e fcbd 267a 3bbe f238 b53d 0016 0e3d
00000110: b508 c93d dcd0 183d e6dc 8bbd e7a2 6dbe
00000120: 009a 723d db0f 1d3c 8345 ba3e 34e0 26be
00000130: 0351 303e 5ac9 063c 6cc9 6e3e ca7f 0a3c
00000140: 5f1c 10be 1c47 b03e d167 25bd a1c1 443d
00000150: 37ff b8bd 372a 953d b2c8 74be d292 213e
00000160: edfd b2bd 28b2 823d f529 86be edbc 733e
00000170: b975 babd 4e6c 2abe 18ad 933e 8026 32be
00000180: 82c8 98bd 3b86 583c 4664 00bd 76e3 fb3e
00000190: 068c 0b3e e7f9 bd3d 2b56 f43d e648 29be
000001a0: ff70 7f3c 5afc 97bd f806 03be 55a9 04be
000001b0: 0b63 f23d b56a 603e d25f 103d 5f37 41bb
000001c0: 72dc 1a3e ae8d d03d c0be f13d d238 d5bd
000001d0: 19fa a63e 026d 823d 0dae 973e 75d6 1cbe
000001e0: 6b6c b43d 9d5b 033e f0b2 7b3e d254 1dbd
000001f0: f9b9 00be b8e2 ca3c 5cbf 343e 09aa 5cbd
00000200: 2497 70be 6552 283e 2478 63be 91f4 503e
00000210: 8ec1 72be ce6f 84bb 709b 10be fe5d 71be
00000220: b5c1 d4bd 0bed a1bd 5687 a7bd 1b99 b43d
00000230: d490 b8bc 70ed 143e c138 a33c f056 b83c
00000240: 1fa1 93bd 070d 213e 8eaa 0e3e 5284 4fbd
00000250: 9ae9 4dbe 9da0 5d3d 73ba b83d d10f 3ebc
00000260: dde8 30bc dc1e cd3c c7b9 c63d 7e55 a0bd
00000270: d74f ffbd 2d41 73be 78e1 303e 32ee 39be
00000280: 2069 efbd 20a0 a73c 9709 0e3d 643c e339
00000290: 1e95 2bbe 7153 ba3d a8ca 103d d64f 57be
000002a0: 2325 40bb c398 04be 6bb9 2e3e 3712 e8bd
000002b0: b828 573e 187f 4f3e baeb 143e 73cd bebd
000002c0: 35d8 ad3e 4e29 bdbb f76c 90be 12ff 59be
000002d0: 2288 bd3c d795 17be 7538 74be e6de 0bbe
000002e0: 1ac3 81be 166c 5dbe 66ef 963c ac10 2cbe
000002f0: 4152 43be 508e 03be 1450 f13d 9eef 86bd
00000300: 0620 3a3d 14dc ca3d 7585 2ebd 15d1 1ebe
00000310: a96b 903d 5de0 04be 5983 bfbc c978 0fbe
00000320: 7175 d73d c703 56bd 0cff f2bd ed61 a9bd
00000330: 1039 833b fd3d 9cbe e7c4 65be 8aba 0d3c
00000340: 60d3 cabe f2b8 b7be aaf2 963d 7f6f ad3c
00000350: 62e6 72bd 6c4a 47bd b5df a43c f8ec 943e
00000360: d560 783e bb7e 413e 0489 0ebe 9992 fcbb
00000370: 91e3 ff3d ffa4 aa3e 1ec5 9d3e f582 9c3e
00000380: b2d5 333c 313c 46be e6d8 ca3e 16cc 24bb
00000390: e653 85be f4b7 0c3f 6fab 2d3d 26ac 543e
000003a0: 99e8 013d d54f 533d ac24 70bd 3114 8abe
000003b0: a07f 5c3d 7e18 84bd 48bb 483b 4228 c33e
000003c0: bf5f a9be fdfc 9abe 9598 83be d8b8 fd3e
000003d0: 3fd7 6ebe 7a03 64bd b319 2dbc d515 21be
000003e0: 20fc c43d 629d 8dbd e6ea acbe 57d0 d03d
000003f0: 5d63 11be 73f2 6fbe 6bd1 38be 0770 f6be
0.13449909 0.02851896 -0.21792844 -0.07238163 -0.10627794 -0.25029093 -0.017195312 0.3187657
-0.18172339 0.053041853 0.08694473 -0.0014510534 -0.0064174235 -0.09608142 0.33492857 -0.14587305
-0.19475432 -0.3145443 -0.21610847 -0.0065296525 0.043549247 0.13127626 0.4507411 -0.047812987
-0.026375007 0.23521441 0.33259296 -0.096978255 -0.22333139 0.19229163 0.118072666 -0.06927756
0.23359115 -0.37057468 -0.010300376 -0.13571393 0.17000747 -0.13238443 0.12367651 0.33231872
0.047662336 -0.00036891922 0.32894418 0.116125405 0.13843887 -0.026135398 0.08551898 -0.012458886
-0.019704554 -0.070530914 -0.04968891 0.09256652 -0.12577957 0.0466549 -0.011398587 0.06846829
-0.24544404 0.08266914 0.034358464 0.035932012 0.16051993 -0.021792479 -0.05553592 0.42648607
-0.12307533 -0.18308315 0.08848752 0.03468895 0.09816114 0.03730856 -0.068292424 -0.23206674
0.059228897 0.0095863 0.36381158 -0.16296464 0.17218404 0.008226717 0.23319024 0.008453319
-0.14073323 0.34429252 -0.04038221 0.04803622 -0.09033053 0.072834425 -0.23904684 0.15778664
-0.08739839 0.06381637 -0.26203886 0.23802538 -0.09104485 -0.16642877 0.28842998 -0.17397499
-0.07460119 0.013215597 -0.03134563 0.49196976 0.13627633 0.09276181 0.11930498 -0.16531715
0.015590905 -0.07421179 -0.12795627 -0.1295522 0.11835297 0.21915706 0.03524763 -0.0029482467
0.15123156 0.10183273 0.11803961 -0.10411228 0.32612684 0.06368448 0.29624978 -0.15316184
0.088097416 0.12827916 0.24579978 -0.03841097 -0.12570943 0.024766311 0.17651123 -0.053873096
-0.23495156 0.16437681 -0.22213799 0.20405795 -0.23706648 -0.0040416485 -0.14121795 -0.23571011
-0.10388509 -0.079065405 -0.0818011 0.08818265 -0.022529997 0.145437 0.019924523 0.022502393
-0.07208466 0.15727626 0.13932249 -0.0506633 -0.20108643 0.05410825 0.09019937 -0.011600451
-0.010797706 0.025039129 0.09703403 -0.07828806 -0.124664 -0.23755331 0.1727351 -0.1815727
-0.11689973 0.020462096 0.034677114 0.00043341808 -0.16756102 0.090979464 0.035349518 -0.21026549
-0.002931901 -0.12948899 0.17062919 -0.11331599 0.21011627 0.20263326 0.14543048 -0.0931653
0.33954015 -0.005772746 -0.28208134 -0.21288708 0.023136202 -0.14803253 -0.23849662 -0.13659248
-0.25344163 -0.21623263 0.018424701 -0.16803235 -0.19074346 -0.12847257 0.11782852 -0.06588672
0.045440696 0.09905258 -0.042607743 -0.15509446 0.070517845 -0.12976213 -0.023378061 -0.1401092
0.10520447 -0.052249696 -0.118650526 -0.08270631 0.004004605 -0.30516043 -0.22438394 0.008650431
-0.3961439 -0.3588329 0.07370503 0.02117133 -0.05930174 -0.04865496 0.020126203 0.29087043
0.24255688 0.18896 -0.13919455 -0.0077079055 0.12494577 0.33329007 0.3081445 0.30568662
0.010976242 -0.19358899 0.39618605 -0.0025146059 -0.26040572 0.5496819 0.04239982 0.20768794
0.031715963 0.051589806 -0.058628723 -0.2696853 0.05383265 -0.06449984 0.0030629206 0.38116652
-0.3308086 -0.3027114 -0.25702348 0.49555087 -0.23324297 -0.055667378 -0.010565209 -0.15730985
0.096184015 -0.06914784 -0.33772963 0.10195988 -0.1419806 -0.23432331 -0.18048637 -0.48132345

inp.fc.bias f4 [100]
00000000: 5108 85bd 6431 52be 9fc8 27be 531b c7bd
00000010: 4d8e f7be 413a ecbe e36f 03bf cc95 b9bd
00000020: 487b 2cbe 2b94 5fbe f3de 3dbe e704 19be
00000030: fb8a 8ebe 2b88 07bf 09de 48be e954 29bd
00000040: cb96 8bbd d972 dcbd b9f0 adbe 2ade 7bbe
00000050: d71a c63d 764f 67be e788 0cbe bfda debe
00000060: baa5 ccbe 326d 7fbe 39db e6bd c1eb dabe
00000070: 4e7d 36bd 9594 84be e172 0ebd aee0 62be
00000080: 8334 37be bd80 dcbd 6462 23be a7c0 1dbe
00000090: 3d55 863b 8a3e 9dbe add6 d2be bb42 d2be
000000a0: 0481 c8be 7075 44be 5970 03bf 8108 86be
000000b0: 5174 8abe 8c7f 05be b8de a1bd d745 aebe
000000c0: 19e8 d4be fc0c dcbe 0da5 40be 6efe 8bbe
000000d0: 945a 1cbe cf71 ebbe 61e2 d6be c68f d3bd
000000e0: bd2c 5cbc ef82 52be 14a8 c6be bcdc 98be
000000f0: 0680 82be d229 acbe 623c 89bc 2eb2 bfbd
00000100: 6eec 0abe 7d6b c4bd c893 65be cacc c9be
00000110: fa21 75be 6f20 56be 5ac4 3cbe 0906 80be
00000120: d5da 9abe c6a5 1bbe db41 cdbe 8a35 f1bc
00000130: a20e bcbe 7e8b f7be 6e5e 26be a6e9 7dbe
00000140: 1ca4 c3bd ae71 a7be b3ff 7dbe 6acb a4be
00000150: 4376 26be 0937 dfbe 5d74 0ebf a4d4 d1bd
00000160: 7778 b7be 1c02 febd 8730 ddbe 4ee9 97be
00000170: edf8 72be 3d0c bbbc cdc0 86be 19ba 8dbe
00000180: df25 2fbf 6366 d4be 847b 31be 99e5 41be
-0.06495727 -0.20526654 -0.16385125 -0.097220086 -0.48350754 -0.46138194 -0.513426 -0.090617746
-0.16843903 -0.21833865 -0.1854208 -0.14943276 -0.2784041 -0.5294215 -0.1961595 -0.041340742
-0.06815871 -0.10764093 -0.3397272 -0.24596468 0.09673088 -0.22588906 -0.13724099 -0.43526265
-0.3997019 -0.24943998 -0.11272282 -0.4275799 -0.044553094 -0.2589461 -0.034777526 -0.22156021
-0.17891125 -0.107667424 -0.15955502 -0.15405522 0.0040995167 -0.30711776 -0.4117941 -0.41066536
-0.3916093 -0.19185424 -0.51343304 -0.26178363 -0.27041867 -0.13036937 -0.07903808 -0.3403766
-0.41583326 -0.42978656 -0.18812962 -0.27342552 -0.15268928 -0.45985267 -0.41969588 -0.10330157
-0.013438401 -0.2055776 -0.38800108 -0.29855907 -0.254883 -0.33625656 -0.016752426 -0.09360157
-0.13566753 -0.09590814 -0.22419655 -0.39414054 -0.23938742 -0.2091081 -0.18434277 -0.25004604
-0.3024508 -0.15199956 -0.40089306 -0.029444475 -0.36729914 -0.48348612 -0.1624696 -0.24796161
-0.09552786 -0.32703918 -0.24804573 -0.32186443 -0.16256051 -0.43596676 -0.55646306 -0.10245636
-0.35834095 -0.12402746 -0.43201086 -0.29670185 -0.2372777 -0.022832984 -0.2631897 -0.27681044
-0.6841716 -0.41484365 -0.17332274 -0.18935241

layers.0.fc.weight f4 [200, 100]
00000000: f70c e8be acc4 22be e2f5 1cbd d6a1 84be
00000010: 0e37 15be 101f 863c 903d c3bd c686 bcbe
00000020: 769a 8bbd 4749 eabc 128f fd3e fb29 bfbe
00000030: 7e83 a2be d4a4 8ebd 94d8 dfbd b95f 1bbe
00000040: 6963 3a3d 8b46 6bbd 35e7 113d 4a5a 4cbe
00000050: d38c 7ebe 6f61 3a3d e1fe c63d 641a 9b3d
00000060: 4c71 4dbe 9ae3 f83d 508d 23be 0f73 133e
00000070: 6619 673e 9376 d0be c5f8 9bbe a88d dbba
00000080: 7fec 263c 0dce 41be 620f c1bd f77e 3ebe
00000090: 9f8d b63d ea4d 3f3e 5a9a c63e 6502 5db9
000000a0: 4993 cebe 99e2 e8bd 01cb 74be 6009 a8be
000000b0: 19fa dbbe 900c 8bbe 9470 0fbf 2dcc d1be
000000c0: 4596 5a3e f306 723e 0888 583e eed2 9fbe
000000d0: cfce 7cbe 7b81 813e 76ff 05bf af0f 0bbf
000000e0: e7b8 eb3d cfdd cfbc 283e 6bbd d1b4 99bb
000000f0: b5f3 69be c35e 0abe 9220 a6be 0508 edbe
00000100: acfb 8dbd 3ff1 b03e 61f6 923d 760c 893c
00000110: d5d4 85be 1e9e 81be 2d65 413d 0dd7 9bbe
00000120: b37f aebe 8e89 03bf f9aa 35be 52fc 5bbd
00000130: 1442 5dbd 7244 7e3e e8d8 cdbc 926e 4fbe
00000140: e9f2 303e b4a2 c4be 4622 18be ba2e 33be
00000150: af87 dabe 9819 7a3e f6a9 2dbe fb77 77be
00000160: 515c 73be 3c05 34be 97b6 35bd a10f 9d3c
00000170: 306b 83bd 9654 50be 736e a2be 5e70 e0bc
00000180: 5f9d 82bd 0a6f 363d 3232 b9be 5c9a a83e
00000190: 2cd2 e23c 5ad2 943e 3854 743e e8dc 13be
000001a0: 3afc c8bd 5032 4ebd 99f5 48be 53fd 263d
000001b0: 53bc a7bd cb96 e1bd cd8f ba3d 1880 db3d
000001c0: b74f 0cbd a641 63bd 30f0 8d3b 6f3e b63d
000001d0: f7ce 2b3e 4504 31be b857 273e 5483 48be
000001e0: 0057 e0bd fe68 653e c70f d0be a057 19bd
000001f0: 93db c73d c1f2 7fbd 2f0d 643d 976c 39be
00000200: 2712 adbe 2fb6 abbd cd37 e7bc 3633 ebbd
00000210: fff3 09be 58f2 723e 1c11 49be 20d9 733d
00000220: 20c2 14bd f338 333e f985 17be 2b0e f6bd
00000230: daaf 613e 332d 23be 9ca4 82bc 44c3 4d3e
00000240: a18d bf3d 5bd9 0fbe 755e fc3e ffc7 60be
00000250: 8c8a 12be 44c6 f23b bac6 a63d e68a 3a3e
00000260: 7dbc 96bb d6de 0e3d 8e99 d2bb 0433 1b3d
00000270: 6035 f73d d9ea 47be 093e c43b cb2c f73e
00000280: 8aba a8be 8a52 40be 986e a1bd 7013 98bd
00000290: d814 fe3c 9833 8f3d 5261 b13c dc12 013d
000002a0: e5a9 2ebe c7c2 17be 604e cf3d da39 a53a
000002b0: 7dfb c03b cdd0 2bbe 5a2a 5abe ebda 413e
000002c0: f36a febd 533e 08be 4d27 53bd 8777 1fba
000002d0: 2021 27be b8c9 fe3d 44cd b6be 2809 39bd
000002e0: dcd5 13bd 7198 13be ee16 233e 8c05 5e3c
000002f0: 255f 183d 8562 ac3d 0369 9dbe 3a08 31be
00000300: 3a4b 8d3e ea1b 6b3d 833e c0bc 6e7f dabd
00000310: 1970 afbc 64da 8b3d 73e1 163e 5b90 69be
00000320: 2a71 7a3d edd6 eebd b050 1fbe 3fcd 03be
00000330: 8e32 7c3e fccc c63e 4e3c 1b3e 73f1 e93c
00000340: 7857 95bb fd4d 5e3d 1e9e 8f3e 1925 a4bd
00000350: 3a44 d6bd f73c 16be fbf5 233e 905c 09be
00000360: 8339 9fbc 29fa 9abc 9dd5 1a3e 8456 173e
00000370: c628 aebd 8740 683d 5d21 f33d 8976 2bbe
00000380: 3c93 423d 5fbc a53c 796b 93bc c841 8f3e
00000390: d468 4fbd eca8 2abe 9a2a b1bc 9709 ab3c
000003a0: bafb c3bb 116b 17be dfe8 e7bd 5bc4 9cbe
000003b0: 7973 943b 3ddc 41bd 43f8 353c 19e2 86bd
000003c0: e5aa 5cbe 8d80 883d efa1 9c3d 5702 0b3e
000003d0: dc90 b2bc d1fe 27be 2c42 0a3e 51d6 d03c
000003e0: 3a9e 893d aef4 1abe 0374 183e 1dbe 06be
000003f0: b3b7 68be 8439 9a3e a841 883e 018f cc3d
-0.4532239 -0.15895337 -0.03832043 -0.2590472 -0.14571783 0.016372234 -0.095332265 -0.36821574
-0.068165705 -0.028599394 0.49523216 -0.37336716 -0.31740946 -0.06965032 -0.10929981 -0.15173234
0.04550496 -0.057440322 0.035620887 -0.19956318 -0.24858408 0.045503076 0.09716583 0.07573393
-0.2006275 0.121527866 -0.15971875 0.1439936 0.22568282 -0.40715465 -0.30463234 -0.0016750591
0.010188221 -0.18926258 -0.09426762 -0.1860312 0.08913731 0.18682066 0.38789636 -0.00021077094
-0.40346745 -0.11371345 -0.23905565 -0.32819653 -0.42964247 -0.27158022 -0.56031156 -0.40976086
0.21346386 0.23635463 0.21145642 -0.31215614 -0.24688266 0.25294098 -0.5234293 -0.54320806
0.11509877 -0.025374321 -0.057432324 -0.0046907444 -0.22846873 -0.13512711 -0.32446724 -0.4629518
-0.06932768 0.34559056 0.07175899 0.016729575 -0.2613894 -0.25315946 0.04721563 -0.30437508
-0.34081802 -0.51381767 -0.17741002 -0.05370743 -0.054018095 0.24830797 -0.025127843 -0.20257023
0.17280163 -0.38405383 -0.14856824 -0.17498294 -0.42681643 0.24423826 -0.16959366 -0.24166863
-0.23765685 -0.17580122 -0.044363584 0.019172492 -0.06416929 -0.20344767 -0.3172489 -0.02739733
-0.063776724 0.04453949 -0.36171108 0.32930267 0.027688108 0.29066736 0.23860252 -0.14439738
-0.098137334 -0.05034095 -0.19624938 0.040768933 -0.08190217 -0.110150896 0.09109459 0.10717791
-0.03425571 -0.05548253 0.004331611 0.08898627 0.1677817 -0.17286785 0.16342056 -0.19581348
-0.10954094 0.22403333 -0.40637037 -0.03743708 0.09758677 -0.062487368 0.055676635 -0.1810783
-0.33802912 -0.08384358 -0.02822485 -0.11484377 -0.13471983 0.2372526 -0.19635433 0.05953324
-0.036317945 0.17502193 -0.147972 -0.12014421 0.22039738 -0.15935211 -0.015947632 0.20094019
0.093531854 -0.14047758 0.49290815 -0.21951292 -0.14310664 0.007408889 0.08143373 0.18217048
-0.0046001063 0.03488048 -0.0064269966 0.03789045 0.12070727 -0.19523181 0.0059888405 0.48276362
-0.32954818 -0.18781486 -0.07882422 -0.074255824 0.031015798 0.069922626 0.021652851 0.031512126
-0.17056997 -0.14820395 0.10122371 0.0012605742 0.0058893547 -0.1677887 -0.21305218 0.18931167
-0.12422743 -0.13305025 -0.051551152 -0.00060831796 -0.1632123 0.124408185 -0.3570348 -0.045174748
-0.036092624 -0.1441362 0.15926716 0.013551127 0.037200112 0.084172286 -0.3074418 -0.17288294
0.27596456 0.057399668 -0.023467308 -0.106688365 -0.021415757 0.06828764 0.1473444 -0.22808973
0.061143078 -0.116620876 -0.15558124 -0.12871264 0.2462866 0.38828266 0.15159723 0.028557515
-0.004557546 0.054273594 0.2805032 -0.08014888 -0.10462232 -0.14671694 0.16011803 -0.13414216
-0.019436603 -0.018918114 0.1512055 0.14779097 -0.08503871 0.056702163 0.11871598 -0.16744436
0.047503695 0.020231424 -0.017995583 0.27979875 -0.05063708 -0.16666001 -0.02162676 0.020878596
-0.005980936 -0.14786936 -0.113237135 -0.30618557 0.004530367 -0.047329176 0.0111065535 -0.065860935
-0.21549566 0.06665144 0.07648074 0.13575111 -0.02179759 -0.16405798 0.13501805 0.025492819
0.067196324 -0.151324 0.14888005 -0.1315846 -0.22726326 0.30122006 0.26612592 0.09988213

layers.0.fc.bias f4 [200]
00000000: af3e 3bbe 238f d13d ff49 bdbd b254 1c3d
00000010: 4c40 01be f016 f43b 3a08 48bd f02f 503b
00000020: 129a a23d 1d77 253d 7f4f 71bd 712f 053e
00000030: 070e 653e ed66 a13c 43f3 2b3e 5b2e ffbc
00000040: 195c 10bd c17d bd3d d130 35be 06e1 74bd
00000050: bf0a 13be 3a9d ba3d 33f3 8bbd 146a 973d
00000060: 9c24 34bc e4a0 fb3e 1bc9 42be a0d2 663d
00000070: b064 df3d b9d5 873d 6769 3bbc bca1 fcbc
00000080: 3f80 c4bd 5cdd e9bc 7c44 99bd 38df 41be
00000090: 068c c63e 8440 0dbd d5ad f9bc de66 79bd
000000a0: ea14 1a3e e462 ddbc 0cc1 6ebc 1475 46bd
000000b0: 0f85 3d3c 20df 323e def4 a13d defb 263e
000000c0: a2a6 9dbd ed68 f9bd 8a85 abbe f046 853d
000000d0: 6f05 8c3d a7e8 0a3e 6faa c83d abae 8dbe
000000e0: 9c76 adbd e2af 0fbe 0421 d63d ebe3 e8bd
000000f0: a09c 393d 1f97 b13d 2226 a73c 599b c23c
00000100: 5904 e8bc 0d21 11bd 4942 093e ac2c a53d
00000110: 9b52 d23d 5dd4 c2bd 8a86 433d 769b 9fbd
00000120: 4e67 663d 530c b4bd c1ff 353c 3c7d 113e
00000130: 3b66 493c 3031 c13d 526d 12be 7e1f c53d
00000140: 0a2e 32be a51a 0c3e 0dfb 233d ea38 12bd
00000150: 966f 20be 1bc2 aebb 654f c33d a716 733d
00000160: 7a14 87be c28c 683d 4236 5ebe e529 c63d
00000170: 5f6f 4abe 06fd 073d 7d60 303d 69de 9fbe
00000180: d592 48bd 8d7f b83d c23a b2bd fe6f 23bc
00000190: 88fb f1bd 9773 5dbe 96e6 023e 3b50 86bd
000001a0: 16ec 76be ac15 b6bc a858 8d3d c191 983d
000001b0: 9d63 7abd d4ed 0cbe df90 fb3c bebc b03d
000001c0: d583 d9bd a0a3 a6be 4d4a cebd 7ad4 b7bc
000001d0: d379 a83d f22f 7abd e58e 0cbe 3693 f73d
000001e0: 4a23 83bd 7c6a d13b 1aa7 823d e8fb d0bc
000001f0: d5be 25be efdb 13be 43b0 1ebe b057 793d
00000200: 71ed cbbb 44f1 133d f54c af3d 0e6d febb
00000210: 2028 e5bd beb0 f3bd 44f5 1fbd bf36 39be
00000220: 2250 99bd ff53 943d 1ace 40be 5873 cf3d
00000230: aaac dc3d 1e8e 523c c28f 113c 3bff 863d
00000240: a2a9 4c3c d468 b3bd 9efb 4a3e cd26 4bbd
00000250: 826a 743d a241 52bd 62b2 17be 88f4 3bbd
00000260: e1a9 07be 4d63 1abe eddb 24be cb1d c3bd
00000270: 33cc b4bd 4d92 913d 479c b2bc 5bad 0c3c
00000280: 6545 1d3d fc6f d93d 91c7 ec3d 9368 13bd
00000290: e76d 11bd 35de 90bd 86df 973e 7af0 6d3c
000002a0: 523d ed3d 9ede 82bd 147c 80bd 3886 13be
000002b0: cbee ee3d c90d f7bd 79a7 813d 2ebd c83d
000002c0: e187 8c3d 080f 6c3d a046 ce3d a15d 16be
000002d0: 3165 2b3e 7c4c a23d fb6b b23d fde7 e9bc
000002e0: 04d9 2ebc 2cd9 313a 9c1b 1d3e 3fe4 dcbd
000002f0: 479e bcbc 368d 76bd 5f57 943d cf21 4cbe
00000300: 9e28 fcbd c4b2 3dbe dfc6 663d 2118 01bd
00000310: d345 98be cb3c d1bd eb16 b2bd f3c5 89be
-0.1828563 0.10232379 -0.09242629 0.03816671 -0.12622184 0.0074490234 -0.04883597 0.0031766854
0.07939543 0.0403968 -0.058913704 0.13006379 0.22368632 0.0197024 0.16792016 -0.031150034
-0.03524408 0.09252501 -0.17694403 -0.05978491 -0.14359568 0.0911202 -0.06833496 0.0739328
-0.0109950565 0.49146187 -0.19022028 0.05635321 0.109078765 0.06632561 -0.011438704 -0.03083884
-0.095947735 -0.028547935 -0.074837655 -0.18932807 0.38778704 -0.034485355 -0.030478397 -0.060889117
0.1504704 -0.027024694 -0.014572393 -0.0484515 0.011567368 0.17467928 0.07908033 0.16307017
-0.07697798 -0.12178216 -0.3350032 0.06507671 0.06836974 0.13565312 0.09798133 -0.27672324
-0.084698886 -0.14031938 0.10455516 -0.11371597 0.045315385 0.08671402 0.020403925 0.023755716
-0.028322386 -0.03543191 0.13404192 0.08065161 0.10269662 -0.09513161 0.04773573 -0.07793324
0.056250863 -0.08791413 0.01110834 0.1420793 0.01229244 0.0943321 -0.14299515 0.09625147
-0.17400375 0.13682039 0.040034343 -0.03569881 -0.15667567 -0.005333198 0.09536628 0.059347775
-0.2638281 0.056774862 -0.21700385 0.096759595 -0.19769047 0.033200286 0.04306077 -0.31224373
-0.048968155 0.090087034 -0.087026134 -0.0099754315 -0.11815554 -0.21626125 0.12783274 -0.065582715
-0.24113497 -0.02222713 0.069016755 0.07449675 -0.061130155 -0.13762599 0.030708728 0.0862975
-0.10620848 -0.3254671 -0.100727655 -0.022440184 0.08226361 -0.06108088 -0.13726385 0.12088625
-0.06403215 0.0063908678 0.06379528 -0.025510743 -0.16186078 -0.14439367 -0.15496926 0.06087464
-0.0062233736 0.03611876 0.085596 -0.007764465 -0.11189294 -0.11898945 -0.039052263 -0.1808729
-0.07485987 0.072425835 -0.18828622 0.10129422 0.107751206 0.012851266 0.008884372 0.0659165
0.0124916155 -0.08760229 0.19822547 -0.04959755 0.059671886 -0.051332124 -0.14814141 -0.0458875
-0.13248397 -0.15076943 -0.1609952 -0.09527167 -0.088280104 0.07107983 -0.021803034 0.008586253
0.038396258 0.106170624 0.11561502 -0.0359884 -0.0355052 -0.07073633 0.29662722 0.014522666
0.115839615 -0.06390117 -0.06273666 -0.14406669 0.1166664 -0.12063176 0.06330771 0.09801708
0.06861854 0.057631522 0.100720644 -0.14684154 0.1673782 0.079247445 0.08712002 -0.028553003
-0.010671858 0.00067843753 0.15342563 -0.10785722 -0.023024691 -0.060193263 0.07243227 -0.19934772
-0.123124346 -0.18525225 0.056342002 -0.03151715 -0.29740772 -0.102166735 -0.086957775 -0.26908836

out_cat.weight f4 [2, 200]
00000000: b8b6 763e 484c 31be 8299 1d3e df40 86bc
00000010: e63f e53d 56ad 4cbc f019 253e 45d5 343e
00000020: efe6 8e3d d436 013e 1282 0f3e f625 1d3e
00000030: f559 1b3e d4ea 953d 40f4 e4bd d8e5 a23c
00000040: de94 c73d 734e 103e 8032 62bd a687 a6bd
00000050: 043a 2f3e 5325 d1bd 52c4 9a3d e118 473e
00000060: 82a0 8fbd 06d4 fe3e c51b ae3d ea50 1c3e
00000070: e473 f5bd 03e7 8f3d fbb3 363d 9b23 973d
00000080: 462f f1bd c0fc 913d 6a80 123d cd95 883c
00000090: 2f6e d13e 37d3 173e b5e3 903c 07b6 46bc
000000a0: 3057 fcbc 12e2 e03d 9289 f4bc a00c 81bc
000000b0: b36d 5b3c 70c7 883e b071 98bc 521d d53d
000000c0: c713 ca3d 5f61 92bd 2671 a23c 5a55 7a3d
000000d0: 7d92 e9bd 3b47 a7bd e0b5 5abe 8d78 b5bd
000000e0: abb0 c53d 1200 df3d 883f 03be 1714 5e3e
000000f0: 909c 4d3c 0d99 a8bd cd16 0bbd 39a1 4f3d
00000100: 55c0 44bd 81ee b83d 3a3a f93d f1a0 08bd
00000110: 324e d5bd b47c bfbc 61c2 ba3d 6d03 48bd
00000120: bf4f acbd eb33 c63d 4180 d03c f720 6dbd
00000130: f6a5 9e3b de0f 00be 974b 023e cd2f b6bd
00000140: 13b4 fe3d 4143 f83d 7808 803e 0ffb 993d
00000150: b346 0b3e 604b 3c3e 336f b7bd d629 9e3d
00000160: c595 9b3e 4a57 06bc 6bd5 1a3e 399d 1d3e
00000170: 97fd 183d 7ff2 56bc 2f4d 633e ac0c 0dbe
00000180: 7cb2 9c3d c66b 45be 80d2 063e 9db1 283e
00000190: 6f9d 2fbd 19c1 8f3e e06a 323e 54b0 7d3e
000001a0: 440e d4bd e970 7dbc 5afa a5bd c0cc 4d3d
000001b0: 7af2 3e3d 16f4 d1bd 9f33 8bbd 4876 0bbc
000001c0: a1b3 843d 2187 c5bd a87e ed3c 9898 cdbd
000001d0: 98c4 cabc 2d89 043d 2c36 7c3b 331d 8dbd
000001e0: 61c7 6cbd dd52 2b3d 7671 ad3d 7248 203d
000001f0: c2d3 5ebd 3352 fbbb a046 5639 3078 9a3d
00000200: f016 f23c 3577 b3bd 7229 653e 27cf 143e
00000210: 8d68 ed3d a186 143e cc92 223d 4191 f33d
00000220: edb6 813d a229 343d 361f 893e 6cd9 ebbd
00000230: 94d6 cabd aca8 063e 47dd b93d ed58 9dbd
00000240: 0967 8e3d c2c5 883c 69cb d7bd f5b5 94bd
00000250: c7f0 75be e9aa f03a ec45 973d 4ddb a23d
00000260: dc1c 2c3c 8617 3fbd 8a44 ca3d 0ed2 fcbc
00000270: 731f 853c ce6f 00bd 7fdd 213d 20a0 953d
00000280: bab0 edbc 7379 94bd 67d6 1f3e fefb 1ebd
00000290: 1cd7 823e 0f64 3a3e 8f7c 763e e564 693d
000002a0: 447a ce3d b869 30bd 8e1a e63c f3b4 eabc
000002b0: 164f 03be ebaf 4d3b 1895 4bbe 608f 3d3e
000002c0: 2b4b 2fbe 0b57 023d 2ce7 b5bd b09c 76bb
000002d0: 4cef 48be 784b 92bd ad37 04be f69f c93c
000002e0: 2444 6dbd 7133 77bd 4575 38bd 3daf 453d
000002f0: 791e 393d b15b e03a 5c58 283d 0c0b 6c3d
00000300: df72 ce3d 8ee3 b03d bec2 05be 6105 023c
00000310: a2e0 723d 3927 c2bc 2385 953d bdde c9bb
00000320: 16e2 85be ff79 363e f441 0cbe b3ff 283c
00000330: 26d2 30be e3b1 853c 26f7 3abe 886b 3dbe
00000340: 120c d2bc 0a34 47be 088f 14be a89a c8bd
00000350: 1e52 21be 8072 36bd 1d5e f43d 99be 71bd
00000360: fa9b bdbd a38a 27be e781 6dba 6992 4a3d
00000370: 6684 fabd 33da b23d ab85 03be 3b98 3abe
00000380: bcda a13d 9781 05bf f4db 953c 1df4 35be
00000390: 3cc1 363e ec5e aabd bd31 49bd a82b 91bb
000003a0: 57a2 f93d 186e 82bd d0e2 a8bd 1d9b 64bd
000003b0: c4da aabe 052a b0bd c7b4 553c ddde 5ebd
000003c0: 3bcc 533c 1661 f2bd dd14 77bd 5cef 823c
000003d0: 17fd 3dbc 9819 65be 5d24 febc c893 1fbe
000003e0: af7f 16be cd9b bc3d ba6f 8ebd 4fa6 6bbb
000003f0: 87e8 1b3e 14eb b13d 0552 753e a4cf 953d
0.24093139 -0.17314255 0.1539059 -0.016388355 0.11193828 -0.012492498 0.16123176 0.17659481
0.06977641 0.12618572 0.14014462 0.15346512 0.15171035 0.073201805 -0.111793995 0.019884989
0.09745191 0.14092426 -0.05522394 -0.08131342 0.17111975 -0.10212197 0.075569764 0.19443084
-0.07013036 0.49771136 0.0850139 0.15265241 -0.11984995 0.07026484 0.044605237 0.07379838
-0.11776595 0.07128286 0.035766996 0.016672993 0.40904376 0.14826666 0.017686704 -0.01212836
-0.030803293 0.109806195 -0.029850755 -0.01575309 0.013392854 0.2671466 -0.018608898 0.10405983
0.098670535 -0.07147478 0.019829344 0.061116554 -0.114048935 -0.08167883 -0.21358442 -0.08860884
0.09652837 0.10888685 -0.12817204 0.21687351 0.012549534 -0.08232317 -0.03395729 0.050690863
-0.048034985 0.09029866 0.12169309 -0.03335661 -0.10415305 -0.023374893 0.09119106 -0.048831392
-0.08413648 0.09677871 0.025451781 -0.057892766 0.0048415614 -0.12506053 0.12724148 -0.08895836
0.1243669 0.12122203 0.2500646 0.07518589 0.13601188 0.18388128 -0.089567564 0.07722823
0.30387703 -0.008199522 0.15120475 0.15392007 0.037351217 -0.013119339 0.22197412 -0.13774365
0.07651231 -0.19279394 0.13166237 0.16474004 -0.04287475 0.2807701 0.17423582 0.24774295
-0.103542835 -0.015468814 -0.081043914 0.050244093 0.046617962 -0.10251634 -0.06796955 -0.008512087
0.06479574 -0.096449144 0.028991058 -0.100388706 -0.024751946 0.032357384 0.0038484437 -0.06890335
-0.05780733 0.04182707 0.084689066 0.03913159 -0.054401167 -0.007669711 0.0002043494 0.07542455
0.029551953 -0.08762971 0.22379091 0.14532147 0.11592207 0.14504482 0.039690778 0.11892939
0.063337184 0.043985017 0.26781625 -0.11516079 -0.09904209 0.1315028 0.090754084 -0.07682977
0.06953246 0.01669586 -0.10536844 -0.07261268 -0.2401763 0.0018361482 0.073863834 0.079519846
0.0105049275 -0.046653293 0.09876354 -0.03086188 0.016250348 -0.031356625 0.039517876 0.07305932
-0.029014934 -0.07249727 0.15609132 -0.038814537 0.2555474 0.18202232 0.24070953 0.056980986
0.10081914 -0.04306957 0.028088834 -0.028650736 -0.12823138 0.0031385373 -0.19881094 0.18511724
-0.17118518 0.031821292 -0.08881983 -0.0037630014 -0.19622535 -0.07143301 -0.12911864 0.024612408
-0.057926312 -0.060351793 -0.045033712 0.048262823 0.045195077 0.001711717 0.04109989 0.057627723
0.10080504 0.086371526 -0.1306257 0.007935853 0.059296258 -0.023700343 0.073007844 -0.0061605857
-0.26149052 0.17819975 -0.13697034 0.01031487 -0.17267665 0.016320175 -0.18258342 -0.18498051
-0.025640521 -0.19453445 -0.14507687 -0.09795123 -0.15753981 -0.04454279 0.11932013 -0.05901966
-0.09258266 -0.1636148 -0.00090601895 0.049456034 -0.12232284 0.087330244 -0.12843959 -0.18222134
0.079030484 -0.52150863 0.018293358 -0.17768903 0.1784715 -0.08318886 -0.0491197 -0.004430253
0.12189167 -0.06368655 -0.08246386 -0.05581199 -0.3337003 -0.086017646 0.013043589 -0.054411758
0.01292711 -0.11834924 -0.06032263 0.015983276 -0.011595986 -0.22373044 -0.031023199 -0.15583718
-0.14697145 0.09209404 -0.06954904 -0.0035957282 0.15225421 0.08687416 0.23957069 0.07314995

out_cat.bias f4 [2]
00000000: 08c7 49bd 5c11 883d
-0.049262077 0.06643936
