models/ncls2-dex100/scenario1_epoch18.pt (torch, 706027 bytes, 6 tensors)

inp.fc.weight f4 [500, 49]
0	0xbe297057	-0.1654676
1	0xbda359ff	-0.0797615
2	0x3e13194d	0.1436512
3	0xbe01ed09	-0.12688078
4	0x3dd510aa	0.10403569
5	0xbd13f7f2	-0.03612513
6	0xbded7eb3	-0.115964316
7	0x3dc8a866	0.097977445
8	0xbcab29b2	-0.020893905
9	0xbe0e43ef	-0.13893102
10	0x3de4e22a	0.1117595
11	0x3e00dce2	0.1258426
12	0xbd5fea3c	-0.054666743
13	0xbcfb29f0	-0.030659646
14	0xbcbb58fa	-0.022869576
15	0x3e0949a6	0.13407001
16	0x3dd5900e	0.10427867
17	0xb9ae276c	-0.00033217238
18	0x3d7a52e5	0.06111421
19	0xbd9fcc96	-0.078026935
20	0x3e0b88a9	0.1362635
21	0x3bd5adc5	0.006520959
22	0xbda1ead9	-0.07906122
23	0x3d48826e	0.048952512
24	0x3c81ed18	0.015860125
25	0xbdfdb81d	-0.123886324
26	0xbdf0bc12	-0.117546216
27	0xbda3518d	-0.07974539
28	0xbe39c250	-0.1814053
29	0xbda41647	-0.080120616
30	0x3db433d1	0.08798946
31	0xbceee229	-0.029160576
32	0xba6522d7	-0.0008740848
33	0xbcf54c9e	-0.02994376
34	0xbdc5a918	-0.09651393
35	0x3daf233a	0.08551641
36	0xba85a16a	-0.00101952
37	0x3d8c4287	0.068486266
38	0xbdd46a32	-0.10371818
39	0xbd23d884	-0.040001407
40	0xbdb4e664	-0.08833006
41	0xbe26f929	-0.16305985
42	0x3c4f3982	0.012647988
43	0x3ca14e22	0.019690577
44	0x3d2d501e	0.042312734
45	0xbde49b9d	-0.111624934
46	0xbd395ad2	-0.04525263
47	0xbdc633d8	-0.09677857
48	0xbd80cb30	-0.06288755
49	0xbe0f927e	-0.14020726
50	0xbdce52fc	-0.10074422
51	0x3b851876	0.004061754
52	0x3de298a7	0.110642724
53	0xbd894bf6	-0.067039415
54	0xbd8fdb8a	-0.07024296
55	0x3d8c2a0f	0.068439595
56	0xbdda5d96	-0.10662381
57	0xbcb3fcbc	-0.0219711
58	0xbe0d4086	-0.13794145
59	0x3d231aa7	0.03982034
60	0xbe18f275	-0.1493624
61	0xbd4eb13b	-0.05046199
62	0xbd823f5e	-0.063597426
63	0x3d97328b	0.07382687
64	0x3dce6744	0.1007829
65	0x3de251cf	0.1105076
66	0x3e050ed6	0.1299394
67	0xbb9e9ab7	-0.004840221
68	0x3e0e0e4d	0.13872643
69	0x3de34c3d	0.11098526
70	0x3e0a2ee1	0.13494445
71	0x3e20d4fa	0.15706244
72	0x3da62840	0.08113146
73	0x3d8d9347	0.069128565
74	0x3cc799b0	0.024365276
75	0xbd8b5483	-0.06803229
76	0x3e6d84d7	0.23195206
77	0x3e32cd1b	0.17461054
78	0xbdc5ec72	-0.09664239
79	0xbddbb9b2	-0.10728778
80	0x3d166a5d	0.03672253
81	0xbaf39c51	-0.0018586015
82	0xbc2f50e1	-0.010700435
83	0xbdab8da1	-0.08376623
84	0xbd452641	-0.048132185
85	0xbcf7ed26	-0.030264448
86	0x3c29de9c	0.010368016
87	0xbe31b01c	-0.17352337
88	0x3decf284	0.11569694
89	0xbcd31583	-0.025767094
90	0x3d38064e	0.044927888
91	0xbd3b30fa	-0.045701005
92	0x3d42a4c1	0.047520403
93	0xbd8fb526	-0.07016973
94	0xbe205fda	-0.15661564
95	0xbe224a7f	-0.1584873
96	0x3db087d6	0.08619659
97	0xbd9a2ca0	-0.07528043
98	0xbd68b779	-0.0568156
99	0xbe012b2b	-0.12614124
100	0x3dd04a98	0.10170478
101	0x3d851d12	0.06499685
102	0xbd618efe	-0.05506801
103	0xbcbc6e68	-0.023001865
104	0x3d063c96	0.032772623
105	0xbc622dd9	-0.013804876
106	0x3ddb53ef	0.107093684
107	0xbc336a30	-0.01095061
108	0xbdbc4a97	-0.091939144
109	0xbd7b85ff	-0.061407086
110	0xbccab127	-0.024742676
111	0x3d783d66	0.06060543
112	0x3dd3ccfe	0.103418335
113	0xbd35b666	-0.0443634
114	0x3e2ba851	0.16763426
115	0xbcc6753b	-0.024225822
116	0xbc8d4bf1	-0.017248126
117	0x3dddae3a	0.10824247
118	0x3ce4ee35	0.027945617
119	0xbd8f0c08	-0.06984717
120	0x3dd876a3	0.10569503
121	0x3cd03eee	0.025420632
122	0xbcfc50d4	-0.03080026
123	0x3cb57411	0.022150071
124	0x3ba15ead	0.0049246163
125	0x3d13b2f8	0.03605935
126	0x3e671ae4	0.22568852
127	0xbd0e1038	-0.034683436
128	0xbdf88410	-0.12134564
129	0xbd6d5d29	-0.057950173
130	0xbd2c13b5	-0.04201098
131	0x3d5c2845	0.05374934
132	0x3e16cafc	0.1472587
133	0x3ddddf70	0.10833633
134	0xbdb9afd3	-0.09066739
135	0xbdda4c6f	-0.1065911
136	0x3e0ef47f	0.13960455
137	0xbdf340fa	-0.11877628
138	0x3e1f0797	0.15530239
139	0xbde7e152	-0.11322273
140	0xbe0a0a59	-0.1348051
141	0x3dc23750	0.09483206
142	0x3a70e62f	0.00091895735
143	0x3c9e86fa	0.019351471
144	0x3dde2336	0.1084656
145	0x3d86a91b	0.06575223
146	0xbde7fe82	-0.113278404
147	0x3dc340b4	0.095338255
148	0xbd4cf54e	-0.05003863
149	0x3ccda08d	0.02510097
150	0xbd1e8e2f	-0.038709816
151	0x3c12a0a2	0.008949431
152	0x3e88625c	0.26637542
153	0xbd9aaab6	-0.07552092
154	0xbd4d18f7	-0.050072636
155	0xbad347ce	-0.0016119422
156	0xbe07225a	-0.13196698
157	0xbe286efe	-0.1644859
158	0xbdce7070	-0.100800395
159	0xbb39ac5f	-0.00283315
160	0xbdec956b	-0.11551937
161	0x3e262c7e	0.1622791
162	0x3d8aed6f	0.06783568
163	0xbc427733	-0.01186924
164	0xbdc207ec	-0.09474167
165	0x3dd8fc13	0.10594954
166	0x3e1233a3	0.1427751
167	0x3d7eb5f3	0.06218524
168	0x3ddd89a9	0.10817272
169	0xbd7618ba	-0.060082175
170	0x3dc243a7	0.0948556
171	0x3d90d253	0.07071366
172	0xbdb62df8	-0.088954866
173	0x3db7b4ee	0.089700565
174	0xbaf224d7	-0.0018474114
175	0x3d06484d	0.032783795
176	0x3dbb147c	0.091347665
177	0x3e02eac9	0.12784876
178	0x3b4dd3fc	0.003140687
179	0x3d9457d7	0.072433166
180	0xbd3b1113	-0.04567058
181	0x3dd8a2f8	0.10577959
182	0xbd59b919	-0.05315504
183	0x3db9fc5b	0.09081336
184	0x3ce983fa	0.028505314
185	0x3d067c25	0.032833237
186	0xbe262eb2	-0.1622875
187	0xbc45aa0c	-0.012064468
188	0x3d7f5eb0	0.06234616
189	0xbd275a99	-0.040857885
190	0x3e08d131	0.1336105
191	0x3d07fe6c	0.03320162
192	0xbd7c8af0	-0.06165594
193	0x3dcc639d	0.09979937
194	0x3cce3ded	0.025176013
195	0x3e113267	0.14179383
196	0x3def2b1b	0.116781436
197	0x3d621783	0.055198204
198	0x3dd67daa	0.10473187
199	0x3d2c1d99	0.042020414
200	0xbd8f1b02	-0.06987573
201	0xbdfd6d8c	-0.1237441
202	0xbd57e128	-0.05270496
203	0xbdde1007	-0.10842901
204	0xbdb18167	-0.0866726
205	0xbd898871	-0.06715477
206	0xbd82fd29	-0.06395943
207	0xbd97835a	-0.073981
208	0xbbb67e26	-0.0055692373
209	0x3db5bb2b	0.0887359
210	0x3e134c07	0.14384471
211	0x3d477fa0	0.048705697
212	0x3c12c113	0.008957165
213	0xbd9cf882	-0.076645866
214	0xbd3c2964	-0.04593791
215	0x3deeaab5	0.116536535
216	0xbd48746a	-0.048939146
217	0xbdc5715b	-0.096407615
218	0x3e12c7fd	0.14334102
219	0xbe050ae5	-0.12992437
220	0xbc2edf46	-0.01067335
221	0xbdf335c0	-0.118754864
222	0x3b05171a	0.002030796
223	0xbde41d46	-0.11138396
224	0xbdd21b94	-0.10259166
225	0x3cc928c5	0.024555573
226	0xbbe86d3c	-0.0070931
227	0xbcca20a0	-0.02467376
228	0xbdfce91c	-0.123491496
229	0x3e0b24ca	0.13588253
230	0x3d8a277f	0.067458145
231	0xbcc94a01	-0.02457142
232	0x3e21c81f	0.15798996
233	0x3e120b71	0.14262177
234	0xbda29827	-0.07939177
235	0xbe31c207	-0.17359172
236	0xbd964c36	-0.07338755
237	0x3dc7e337	0.09760135
238	0xbd70ca53	-0.0587867
239	0x3e288519	0.16457023
240	0xbd4f8a0d	-0.050668765
241	0xbdbb843f	-0.09156083
242	0xbd4bcce6	-0.049755953
243	0xbd6c991a	-0.057763197
244	0xbd499dce	-0.04922276
245	0xbe01a620	-0.12661028
246	0x3dcae44d	0.09906826
247	0x3e029874	0.12753469
248	0xbdd1d866	-0.10246353
249	0x3b04bb78	0.0020253342
250	0x3d07d553	0.033162426
251	0xbd9ef886	-0.07762246
252	0x3db1e4ad	0.086861946
253	0x3d1e9c14	0.038723066
254	0x3d33047c	0.04370545
255	0x3ca31500	0.019907475

inp.fc.bias f4 [500]
0	0xbe24605e	-0.16052386
1	0x3d9735db	0.07383319
2	0x3cffb680	0.031214952
3	0xbe263735	-0.16231997
4	0x3dc5d284	0.09659293
5	0x3d161725	0.036643166
6	0xbd7e1f1e	-0.062041394
7	0xbd3ddd01	-0.046353344
8	0xbd205973	-0.039147805
9	0xbe034aa0	-0.12821436
10	0x3d8f8266	0.070072934
11	0xb8fe2133	-0.00012117848
12	0xbe25dfa4	-0.16198593
13	0xbdf88a45	-0.12135748
14	0x3da9b75c	0.08286926
15	0x3dd2f61f	0.1030085
16	0xbe180bb9	-0.14848222
17	0xbd1ed018	-0.038772672
18	0x39e2da8a	0.00043268903
19	0xbdb003f3	-0.08594503
20	0xbdadd84f	-0.08488523
21	0xbd9334c3	-0.07187798
22	0xbcbfa685	-0.023394832
23	0xbd1ab2ef	-0.0377683
24	0x3d292c3e	0.04130196
25	0xbc781217	-0.015141032
26	0xbcfb21e7	-0.030655814
27	0x3ca92c73	0.020651078
28	0xbc94c609	-0.018160837
29	0x3b9842c2	0.00464663
30	0xbd78e9d0	-0.060769856
31	0x3e07fc82	0.13279918
32	0xbe038592	-0.12843922
33	0x3ce23316	0.02761225
34	0xbe2d96e3	-0.1695209
35	0x3db1b305	0.086767234
36	0x3dd9231f	0.10602402
37	0xbb05c1c6	-0.0020409687
38	0xbd1983c2	-0.03747917
39	0xbd17dc4b	-0.037075322
40	0xbdf8dbcb	-0.12151297
41	0xbdb5c65a	-0.08875723
42	0x3dca2a97	0.098714046
43	0xbe53729c	-0.20649189
44	0xbdeca600	-0.115550995
45	0xbd0fe1ae	-0.035127334
46	0xbd108eec	-0.03529255
47	0x3c91e34f	0.017808584
48	0x3d7a5829	0.061119232
49	0x3e0e2da3	0.13884597
50	0xbd56a243	-0.05240084
51	0xbd49c45b	-0.049259525
52	0xbdfd83a0	-0.12378621
53	0xbd336333	-0.043795776
54	0x3cae535a	0.02127998
55	0x3be914a3	0.007113056
56	0x3cf99711	0.030467542
57	0xbd89df16	-0.067320034
58	0xbd3930f6	-0.04521271
59	0xbe2ce5a5	-0.16884477
60	0xbd836773	-0.06416216
61	0xbc80578c	-0.015666746
62	0xbd3d4851	-0.046211544
63	0x3d07a78d	0.033118773
64	0x3d8778d7	0.06614845
65	0xbccaea92	-0.024770055
66	0xbdcabb40	-0.09898996
67	0xbce1ba9e	-0.027554806
68	0xbd2e1404	-0.042499557
69	0xbd2fee50	-0.042951882
70	0x3ddd3b14	0.10802284
71	0x3db41f55	0.087950386
72	0x3dbab036	0.09115641
73	0x3dc41a48	0.09575325
74	0x3ddc9168	0.107699215
75	0xbc3129c7	-0.010813183
76	0xbddcc482	-0.107796684
77	0xbd85fb81	-0.06542111
78	0xbc8247f5	-0.015903452
79	0xbd89f763	-0.067366384
80	0xbc061bc7	-0.008185334
81	0xbd956573	-0.072947405
82	0xbde979d0	-0.11400187
83	0xba0173e6	-0.00049382297
84	0x3cec7662	0.028865043
85	0xbc159250	-0.009129122
86	0xbe157776	-0.14596352
87	0x3de56531	0.11200941
88	0xbdfd6a2c	-0.12373766
89	0x3d5edd98	0.054410547
90	0xbe0a10b3	-0.13482933
91	0x3d44cb3b	0.04804538
92	0xbe21c0f1	-0.15796258
93	0xbdf83530	-0.1211952
94	0xbcad138b	-0.021127483
95	0x3c391661	0.011296839
96	0x3d425719	0.047446344
97	0x3c9829f5	0.018574694
98	0x3ca053e1	0.019571247
99	0x3d1c2922	0.038125165
100	0xbcb7249d	-0.022356326
101	0xbd0d4a37	-0.034494605
102	0x3de2817a	0.11059852
103	0x3cf4e4e1	0.029894294
104	0x3de36d5b	0.11104842
105	0xbde2b964	-0.11070517
106	0xbd628094	-0.055298403
107	0xbe01dce5	-0.12681921
108	0x3d9ac5cc	0.07557258
109	0xbe0266fa	-0.12734595
110	0x3d8c8f70	0.06863296
111	0xba914473	-0.0011083022
112	0xbdda035a	-0.106451705
113	0x3c7e172c	0.015508454
114	0xbc2213ca	-0.009892413
115	0x3dbcb501	0.09214211
116	0xbdf70471	-0.12061394
117	0xbdfcf161	-0.12350727
118	0xbbf48266	-0.007461834
119	0x3d4e5c04	0.05038072
120	0x3c3a1c3a	0.011359269
121	0x3d8e5236	0.06949274
122	0x3e099fe2	0.13439897
123	0xbdfe9be5	-0.12432078
124	0x3d4099ff	0.047021862
125	0xbb8b2805	-0.004246714
126	0x3dd373e4	0.10324839
127	0xbd8aeca3	-0.06783416
128	0xbd823d35	-0.063593306
129	0xbde8d1c7	-0.11368137
130	0xbdf48e70	-0.1194123
131	0x3dad8e50	0.084744096
132	0xbd2824ea	-0.04105083
133	0xbe1f70a9	-0.1557032
134	0xbd936ed2	-0.07198872
135	0xbe04c4b5	-0.12965663
136	0x3da8a06b	0.08233722
137	0xbd95bbf3	-0.07311239
138	0xbcdf8b21	-0.027288022
139	0x3ded809a	0.115967944
140	0x3c8a02ff	0.016847132
141	0xbd84b106	-0.06479077
142	0xbda9c8c7	-0.08290248
143	0xbdfa5b50	-0.12224448
144	0xbc85fe71	-0.016356679
145	0xbe02c602	-0.12770846
146	0x3d4a90e0	0.04945457
147	0x3dd91faf	0.10601746
148	0x3a9d3e16	0.0011996652
149	0x3bdcae88	0.006734673
150	0x3de025a8	0.10944682
151	0x3da39389	0.079871245
152	0x3c1f9742	0.0097406525
153	0xbcd1437b	-0.025544873
154	0x3dbebfe2	0.093139425
155	0xbd7cbeb3	-0.061705302
156	0xbc09dd06	-0.0084145125
157	0x3cdeb141	0.02718413
158	0xbdb7472a	-0.0894912
159	0xbd9d3ee1	-0.07678009
160	0x3dd615dc	0.10453388
161	0xbe2e4db1	-0.17021824
162	0xbbb59cb9	-0.0055423644
163	0x3d9c23cd	0.07624016
164	0x3d89505d	0.06704781
165	0xbd3e00fe	-0.046387665
166	0xbd8db0c1	-0.06918479
167	0x3debb9e6	0.11510067
168	0xbde3bcc6	-0.1111999
169	0xbd82fb21	-0.06395555
170	0x3dcf9272	0.10135354
171	0xbdde7ef9	-0.10864062
172	0xbe1941e0	-0.14966536
173	0x3c355e0a	0.011069784
174	0xbdc8a622	-0.09797312
175	0xbd1b8296	-0.037966333
176	0xbe2b1141	-0.167058
177	0x3d517ec3	0.05114628
178	0x3d875d47	0.06609588
179	0xbb0180dc	-0.0019760644
180	0xbdd7ec58	-0.10543126
181	0xbce93597	-0.028467936
182	0x3b6f9027	0.0036554427
183	0xbd075363	-0.03303851
184	0x3d7047d9	0.05866227
185	0x3e0dad98	0.13835752
186	0xbd1d468a	-0.03839735
187	0xbe16dec7	-0.1473342
188	0xbe13d497	-0.14436565
189	0xbdbb98e9	-0.09160025
190	0x3be02b32	0.006841087
191	0x3d409f20	0.047026753
192	0x3d3a573f	0.04549336
193	0xbdab362a	-0.0835994
194	0xbdb8327c	-0.08994004
195	0xbe063bf7	-0.13108812
196	0xbdc1a6e5	-0.09455661
197	0xbbc8a82d	-0.0061235637
198	0xbd9456c1	-0.072431095
199	0xbd9c66ce	-0.07636796
200	0xbdada3ca	-0.08478506
201	0xbd9f5303	-0.07779505
202	0xbcae5367	-0.021280004
203	0x3c0ba716	0.008523723
204	0xbdd28b75	-0.102805056
205	0x3d6209c4	0.055185094
206	0x3d8cfa5e	0.06883691
207	0x3db1574b	0.08659228
208	0x3d64ec5e	0.05588948
209	0x3decaa75	0.115559496
210	0xbe134e50	-0.14385343
211	0x3ce6700f	0.028129606
212	0xbd3e4e68	-0.046461493
213	0xbd9416ad	-0.072308876
214	0x3dea14fa	0.11429782
215	0x3dcf3865	0.10118178
216	0x3cad9046	0.021186959
217	0xbdb2ff0f	-0.08740055
218	0xbd1237a5	-0.035697598
219	0xbdc1c11a	-0.09460659
220	0xbb5d0768	-0.0033726338
221	0x3d6ba881	0.057533745
222	0x3d9d54dc	0.07682201
223	0xbc1b2c26	-0.009470975
224	0xbe23ef1d	-0.16009183
225	0xbd7776a3	-0.060415875
226	0xbd83f4c0	-0.06443167
227	0xbdb3a62c	-0.08771929
228	0x3b9fb519	0.0048738834
229	0x3d749a8b	0.059717696
230	0x3dcca3e2	0.09992196
231	0xbd74cd08	-0.059765846
232	0xbda5be8a	-0.08092983
233	0x3e5487f2	0.20754984
234	0xbd2e27cb	-0.04251842
235	0xbd82d0d0	-0.06387484
236	0xbdb30b89	-0.087424345
237	0xbc6ba1e3	-0.0143818585
238	0xbcd9817b	-0.026550999
239	0xbcd9357d	-0.026514763
240	0x3dabd88d	0.08390913
241	0x3df23555	0.118265785
242	0x3d964026	0.07336454
243	0x3e10369f	0.14083336
244	0xbd915a2c	-0.07097277
245	0x3ddd9bed	0.10820756
246	0x3ccbfbb9	0.024900304
247	0x3c156ac2	0.009119691
248	0xbce75794	-0.028240003
249	0xbdb8f6fb	-0.09031483
250	0xbdc2e9be	-0.09517239
251	0x3d49b0ca	0.049240865
252	0x3d27641a	0.04086695
253	0x3dd8db4c	0.105887026
254	0xbcba7229	-0.022759514
255	0xbc33b4d2	-0.010968404

layers.0.fc.weight f4 [300, 500]
0	0xbd79426f	-0.06085437
1	0xbcc8d22b	-0.024514278
2	0xbd7e0cb9	-0.062023852
3	0xbcb25ed4	-0.021773733
4	0x3c384515	0.011246939
5	0xbbaa80e3	-0.005203353
6	0x3c92f705	0.017940054
7	0x3d1649f1	0.03669161
8	0x3d2202f1	0.039553586
9	0xbdea61ce	-0.11444436
10	0x3cc9da98	0.024640366
11	0x3d2bc1ae	0.041932754
12	0xbd026190	-0.031831324
13	0xbdc03107	-0.09384351
14	0x3c9a7d26	0.018858504
15	0xbcc745d0	-0.024325281
16	0xbd466444	-0.048435465
17	0x3aa7aaa1	0.001279194
18	0xbc19861f	-0.009370356
19	0xbdaa4aab	-0.08315023
20	0xbd3f907e	-0.046768658
21	0x3ccb7205	0.024834642
22	0x3d4ae573	0.049535226
23	0x3d12c074	0.03582807
24	0x3c8d8b2f	0.017278282
25	0xbd8ac833	-0.06776466
26	0xbb1add25	-0.0023630348
27	0x3d9df776	0.07713215
28	0x3d182bdb	0.0371512
29	0x3d6490b0	0.055802047
30	0x3c84b24a	0.016198296
31	0xbd81d80c	-0.06340036
32	0x3d060963	0.032723796
33	0x3c233617	0.0099616265
34	0x3c9aa1d5	0.018875996
35	0x3d16bd4e	0.03680163
36	0xbd243396	-0.04008826
37	0x3c37d9f7	0.0112214
38	0x3a43500e	0.0007450589
39	0x3ca44a0c	0.02005484
40	0xbba5ef29	-0.0050639105
41	0x3c8db5ad	0.017298544
42	0x3c6364e2	0.013879033
43	0xbd2ae005	-0.041717548
44	0xbd660857	-0.056160297
45	0xbd0ea3ce	-0.034824185
46	0x3ccf1d2b	0.025282463
47	0x3d2aacb3	0.041668605
48	0xbc59af45	-0.013286416
49	0x3d9b8a2b	0.07594713
50	0xbcb801a6	-0.022461724
51	0x3d5adc35	0.053432662
52	0xbbe34787	-0.006936017
53	0xbcfc98c7	-0.030834569
54	0xbab4c596	-0.0013791795
55	0x3da566de	0.08076261
56	0x3d998f81	0.07498074
57	0x3cc7aee0	0.02437538
58	0x3c4f5613	0.012654799
59	0xbcf6f0df	-0.030144153
60	0xbd56baf4	-0.052424386
61	0x3d1f3207	0.03886607
62	0x3bf73c78	0.0075450502
63	0x3c853fa0	0.01626569
64	0xbd248f36	-0.04017564
65	0x3d14051a	0.036137678
66	0xbbd890f5	-0.006609077
67	0xbd0852ea	-0.033282198
68	0x3d5c2b6f	0.05375236
69	0xbda8f62d	-0.08250079
70	0x3c37b0e1	0.011211605
71	0xbb8a7948	-0.0042258836
72	0x3c1d2d47	0.0095933145
73	0x3cf887fd	0.030338282
74	0x3d788ba3	0.060680043
75	0xbd1b445a	-0.037906982
76	0xbce64aa6	-0.028111767
77	0x3cc0a167	0.023514463
78	0x3b1fa756	0.0024361215
79	0x3dc3f753	0.09568658
80	0x3da1ce6b	0.07900699
81	0xbc4e4804	-0.012590412
82	0xbd2b330f	-0.04179674
83	0x3d1afbfe	0.037837975
84	0xbdb0313f	-0.08603143
85	0xbbdfc2c3	-0.0068286373
86	0xba0d7d46	-0.00053973903
87	0x3d9d903b	0.076935254
88	0xbcc9e9c6	-0.024647605
89	0x3d846cba	0.064660504
90	0xbc3655b8	-0.011128835
91	0x3b7f2035	0.003892911
92	0xbdbfe758	-0.09370297
93	0xbd490ae6	-0.04908266
94	0x3cecacb5	0.028890947
95	0xbd10375f	-0.035209056
96	0x3c85a111	0.016312154
97	0xbca49315	-0.020089665
98	0xbd4d8d4d	-0.050183583
99	0xbd07d512	-0.033162184
100	0x3d87f22c	0.066379875
101	0x3d4b1a5c	0.049585685
102	0xbd0b9b19	-0.03408346
103	0xbd1322e2	-0.03592194
104	0x3d31bb2a	0.043391384
105	0x3d593ed9	0.05303845
106	0x3d80af60	0.0628345
107	0xbd38949a	-0.045063592
108	0xbca4f16d	-0.020134652
109	0xbcdcb8d8	-0.02694361
110	0x3b579f46	0.003290133
111	0xbd3f2ef9	-0.046675656
112	0x3d874fab	0.06606992
113	0xbc0f6a43	-0.008753362
114	0x3d2bb23d	0.04191803
115	0x3ca0776e	0.019588199
116	0xbcec90b1	-0.028877588
117	0xbd8fc515	-0.07020012
118	0x3bd97f14	0.0066374633
119	0xbd7eef28	-0.062239796
120	0xbd29fef4	-0.041502908
121	0xbd9c336b	-0.07626995
122	0x3d583d40	0.052792788
123	0xbc7263a6	-0.014794266
124	0xbd24a405	-0.040195484
125	0xbcadfa9e	-0.021237668
126	0x3d3df95a	0.04638038
127	0xbcae7006	-0.021293651
128	0xbcb6c479	-0.022310482
129	0x3d04bcb5	0.032406528
130	0xbc3e6799	-0.011621379
131	0x3d84805e	0.064697966
132	0xbd4d2c16	-0.05009087
133	0xbd2970f8	-0.0413675
134	0x3cb0ac3e	0.021566506
135	0xbcb75c93	-0.02238301
136	0xbdd537f0	-0.1041106
137	0xbd3d3d82	-0.046201237
138	0x3c234f17	0.009967587
139	0xbc7afba1	-0.015318782
140	0x3d1df64e	0.038564973
141	0x3cff8624	0.031191893
142	0xbd893048	-0.06698662
143	0x3c5a6ce4	0.013331626
144	0x3d15a7bf	0.03653693
145	0x39ccf018	0.00039088796
146	0xbce2dadd	-0.027692253
147	0xbd4b3637	-0.04961225
148	0x3c1f328c	0.009716641
149	0xbd08c058	-0.03338656
150	0xbcc1320a	-0.02358343
151	0xbd42cd74	-0.047559217
152	0x3cf338ba	0.029690135
153	0xbcd28e1b	-0.025702527
154	0xb9c2cad5	-0.00037153685
155	0xbd93404b	-0.07189997
156	0x3c8a9132	0.016914938
157	0xbc489c84	-0.0122443475
158	0x3c53d731	0.012929724
159	0x3c812a51	0.015767248
160	0x3d9260fc	0.071474046
161	0xbd016a17	-0.031595316
162	0xbc92a7bb	-0.017902246
163	0x3c6f7aca	0.014616678
164	0x3d0ac62f	0.03388041
165	0x3af17600	0.0018422008
166	0x3dbab38a	0.091162756
167	0x3d35ada3	0.044355046
168	0xbb7f6f84	-0.003897638
169	0x3d7a14ab	0.061054867
170	0x3bc5d28a	0.006037061
171	0xbd43afe4	-0.047775164
172	0xbb7495d7	-0.0037320757
173	0x3d79e846	0.06101253
174	0xba91bb40	-0.0011118427
175	0x3d379abe	0.044825308
176	0xbbc7d6f9	-0.006098625
177	0xbba08a34	-0.0048992876
178	0x3d175fa0	0.03695643
179	0xbd12fbb2	-0.035884567
180	0x3caa0d51	0.020758303
181	0x3d8401aa	0.0644563
182	0xbd831c18	-0.06401843
183	0xbb5998d2	-0.003320266
184	0x3d69ac13	0.05704887
185	0x3b479bcc	0.0030457852
186	0xbd2e9a7a	-0.04262779
187	0x3d4620e9	0.04837123
188	0x3cadf01d	0.021232659
189	0x3a4caae0	0.0007807445
190	0xbd8429ba	-0.06453271
191	0x3c3e75aa	0.011624733
192	0x3acfd069	0.0015854958
193	0xbd0d4273	-0.0344872
194	0x3cb44231	0.022004219
195	0x3d7f4470	0.062321126
196	0x3cda332f	0.026635734
197	0x3cfea780	0.03108573
198	0x3b93c382	0.0045093903
199	0x3c4c33b4	0.012463499
200	0x3d3d9945	0.046288747
201	0xbd78c93a	-0.06073878
202	0x3aa2b92e	0.0012414807
203	0xbcca3914	-0.02468542
204	0x3d065979	0.03280017
205	0xbbb2b01c	-0.005453123
206	0xbc2292ef	-0.009922727
207	0x3d07444a	0.03302411
208	0xbcfa7be7	-0.03057666
209	0x3d86b2c5	0.06577066
210	0xbc6288a0	-0.013826519
211	0xbd8222a5	-0.06354264
212	0xbd20e072	-0.039276548
213	0xba6717fe	-0.0008815526
214	0xbcb48e74	-0.022040583
215	0x3ce01326	0.02735288
216	0x3c9edeb8	0.01939331
217	0x3c77dbea	0.015128115
218	0xbd70847b	-0.058720093
219	0x3aec5d6e	0.0018033215
220	0x3bb322ca	0.0054667937
221	0xbd8ec8e7	-0.06971913
222	0xbcdb8569	-0.026797013
223	0xbc8c5a6e	-0.017132964
224	0xbc9b5b3e	-0.018964406
225	0x3a776dd0	0.00094386656
226	0xbd327679	-0.043570016
227	0x3da5ec0b	0.08101662
228	0xbd03f798	-0.032218546
229	0x3d2d401c	0.042297468
230	0x3dd92ce0	0.10604262
231	0x399131ab	0.0002769356
232	0xbc92ba11	-0.017910989
233	0x3c93cb50	0.018041283
234	0x3cc4cd82	0.024023775
235	0xbc4a7a26	-0.012358224
236	0x3b410da3	0.002945759
237	0xbb254d52	-0.0025223088
238	0xbcc777ea	-0.024349172
239	0x3b9d9df2	0.0048100883
240	0x3dafe72c	0.085890144
241	0x3c6a782d	0.014310879
242	0x3d12815e	0.035767905
243	0xbbafdccf	-0.0053668986
244	0xbd0670c8	-0.0328224
245	0x3d3f58b7	0.046715464
246	0xbd0ee0f7	-0.034882512
247	0x3d96cafb	0.07362934
248	0xbcfc1cc8	-0.030775443
249	0xbd676e5e	-0.05650174
250	0x3da68886	0.081315085
251	0xbca1f739	-0.019771205
252	0xbbed981e	-0.0072508
253	0x3d822240	0.06354189
254	0x3b9e4141	0.004829556
255	0x3b7cd869	0.003858114

layers.0.fc.bias f4 [300]
0	0x3c5282b4	0.012848545
1	0x3b435005	0.0029802334
2	0xbbcc4d9f	-0.006234839
3	0x3d83ba22	0.064319864
4	0xbd1721e0	-0.03689754
5	0xbc0d8ef4	-0.00864004
6	0x3c6949ae	0.014238758
7	0x3ca1ee96	0.019767087
8	0x3d9fa1d9	0.07794542
9	0x3c9e163f	0.019297717
10	0x3cb88079	0.022522198
11	0xbd54313a	-0.05180476
12	0xbbfbf7bf	-0.0076894457
13	0x3d29bdae	0.04144066
14	0xbaea31ca	-0.0017867622
15	0xba8f3310	-0.0010925252
16	0xbc8baf26	-0.01705129
17	0xbac382d6	-0.0014916311
18	0xbcb9fb48	-0.022702828
19	0xbd476148	-0.04867676
20	0xbcbab9fa	-0.022793759
21	0xbd45cf43	-0.048293363
22	0xbcd24a7d	-0.025670284
23	0xbb935885	-0.0044966363
24	0x3cc1ab0b	0.02364113
25	0xbc5e2e7c	-0.013560887
26	0xbc9fab80	-0.019490957
27	0xbcd29dd8	-0.025710031
28	0xbd15aae1	-0.036539916
29	0xbb891b97	-0.004184197
30	0x3d321d9b	0.043485265
31	0x3cdbf432	0.02684984
32	0xbd2146b9	-0.039374087
33	0x3ca4e331	0.020127865
34	0xbc1be6e4	-0.009515498
35	0x3c9c712c	0.019096933
36	0x3c187c0c	0.009306919
37	0xbcca0dff	-0.024664877
38	0x3b0fac99	0.0021922945
39	0xbd520ed8	-0.051283687
40	0x3d0992ae	0.03358715
41	0xbd1a6b5a	-0.037700035
42	0xbc92b407	-0.01790811
43	0xbd02ba87	-0.031916168
44	0x3d01698d	0.0315948
45	0x3d1b9a9a	0.037989236
46	0xbcd16d61	-0.025564851
47	0x3d32106a	0.043472685
48	0xbcad49b4	-0.021153308
49	0x3cb98fa9	0.02265151
50	0xbb9f6705	-0.004864576
51	0x3c1fb383	0.009747389
52	0x3c1be23e	0.00951439
53	0xbd4be01b	-0.04977427
54	0xbc4e0033	-0.01257329
55	0xbd02eeef	-0.031966146
56	0x3995251f	0.00028447152
57	0x3c9850aa	0.018593151
58	0x3d1960d4	0.037445858
59	0x3d4ca324	0.04996027
60	0xbce468f8	-0.027882084
61	0xbc0eff0a	-0.008727798
62	0xbc4ba571	-0.012429581
63	0x3d3f52c7	0.046709802
64	0xbd0dc145	-0.034608144
65	0x3cb4b2d5	0.02205793
66	0x3c1995f2	0.009374129
67	0xbd8655fa	-0.065593675
68	0xbc245d5d	-0.010032025
69	0xbd8af12d	-0.06784282
70	0x3d7608ab	0.06006686
71	0xbd105c25	-0.035244126
72	0xbcaf8732	-0.02142677
73	0x3d463590	0.048390925
74	0xbaf47784	-0.0018651341
75	0x3c359115	0.0110819535
76	0xbd5b48b6	-0.05353614
77	0xbd0bf0d6	-0.034165226
78	0xbd592adc	-0.05301939
79	0x3c3da62a	0.011575261
80	0xbd4a90a9	-0.049454365
81	0x3d00983e	0.03139519
82	0x3d626cc6	0.055279516
83	0x3d439e10	0.047758162
84	0xbd118254	-0.03552468
85	0x3c511370	0.012760982
86	0x3c09e5ae	0.008416576
87	0x3d859a05	0.065235175
88	0xbce199db	-0.027539184
89	0xbc78d772	-0.015188085
90	0x3d1d46cd	0.0383976
91	0x3bee89ee	0.007279626
92	0xbce51a78	-0.027966723
93	0xbd349fa8	-0.044097573
94	0x3ca01980	0.01954341
95	0xbc35cb09	-0.011095771
96	0x3ceeeb92	0.029165063
97	0x3c9c8449	0.019106047
98	0xba053968	-0.00050821016
99	0x3d06a3c5	0.032871027
100	0x3c4ecbf5	0.012621869
101	0x3b6c0f18	0.0036019739
102	0xbd83fcc4	-0.064446956
103	0x3bcac858	0.0061884336
104	0xb9a2cd0b	-0.00031051817
105	0x3c80a116	0.015701812
106	0x3ba42f2c	0.005010506
107	0xbb23ba01	-0.0024982693
108	0xbd55f590	-0.05223614
109	0x3cd26d3d	0.025686854
110	0xbc8e9f0c	-0.017409824
111	0xbc05d4cd	-0.008168411
112	0x3bb43676	0.0054996563
113	0xbb3eb499	-0.0029099344
114	0xbd2d089c	-0.04224454
115	0x3b860d9d	0.0040909783
116	0xbd8f2e69	-0.06991274
117	0x3cbd4101	0.023102285
118	0x3c224e47	0.009906358
119	0x3d1fbbc9	0.038997445
120	0x3c1fe68e	0.009759558
121	0xbd7ba6e1	-0.061438445
122	0x3d17a868	0.03702584
123	0xbd9c9550	-0.076456666
124	0xbd24fef1	-0.040282194
125	0x3cfcc641	0.030856254
126	0x3a2da4f2	0.0006624005
127	0x3c8d0dca	0.01721849
128	0x3d317770	0.043326795
129	0x3d5d5b80	0.05404234
130	0x3d1f07c0	0.03882575
131	0x3c647658	0.013944231
132	0xbd0ba8fb	-0.0340967
133	0x3b96414c	0.0045854207
134	0xbd12b3d1	-0.035816018
135	0xbb0778b7	-0.0020671317
136	0x3beddb5f	0.007258817
137	0xbbc49ef2	-0.006000393
138	0xbd430f95	-0.047622282
139	0x3af9b9f1	0.0019052607
140	0xbbc6eedc	-0.0060709547
141	0xbd088a0b	-0.033334773
142	0x3caa2451	0.02076927
143	0x3cb88464	0.022524066
144	0x3cc213c2	0.023691062
145	0xbcb136ba	-0.021632541
146	0xbd6dd0da	-0.058060504
147	0xbc1824f7	-0.009286157
148	0x3bfab5e7	0.007651079
149	0xbcb8f416	-0.022577327
150	0xbd07babd	-0.033137072
151	0x3d6d1538	0.057881564
152	0xbcc8ebd5	-0.024526516
153	0xbc5d235c	-0.0134972
154	0x3d216087	0.039398696
155	0xbc1d5d4c	-0.009604763
156	0xbc1cb235	-0.009563972
157	0x3ccde7ea	0.025135
158	0x3c0f054b	0.008729289
159	0xbc996303	-0.01872397
160	0x3c86e3b6	0.016466003
161	0xbd672c7a	-0.0564389
162	0x3b232714	0.0024895119
163	0x3c43e53a	0.011956507
164	0x3adb802f	0.0016746576
165	0xbd16b2c9	-0.036791597
166	0x3c746126	0.01491574
167	0xbd02a34c	-0.031894013
168	0xbca7060a	-0.020388622
169	0x3d5ef9e1	0.05443752
170	0xbc79a84c	-0.015237879
171	0xbceed461	-0.029154005
172	0xbcaae004	-0.020858772
173	0xbd8a634f	-0.06757223
174	0xbc3b8706	-0.011445766
175	0x3b174fff	0.0023088453
176	0x3d402cfb	0.046917897
177	0x3d0bc573	0.03412385
178	0xbc742c48	-0.014903136
179	0x3d35e9ad	0.044412304
180	0x3c515c83	0.012778404
181	0x3d74e6d3	0.059790444
182	0x3c537de6	0.0129084345
183	0x3bb76044	0.0055961926
184	0x3d0478e7	0.032341864
185	0xbd0cb74c	-0.034354493
186	0x3cde5105	0.027138242
187	0x3d5a1ce0	0.053250194
188	0xbb389c05	-0.0028169167
189	0xbc0aa8d1	-0.0084631005
190	0x3d4b53e5	0.049640555
191	0x3cd10c4f	0.025518565
192	0x3cfdc26c	0.030976497
193	0xbcbed2e3	-0.023293918
194	0x3ad35d96	0.0016125913
195	0xbd2355dd	-0.039876807
196	0xbcc1a00b	-0.023635885
197	0x3cdcbf94	0.02694682
198	0x3d432e55	0.047651608
199	0xbbbba7f2	-0.0057268078
200	0xbd4eda81	-0.05050135
201	0x3ca3b1ef	0.019982306
202	0xbc5cf388	-0.013485797
203	0x3d65ce1c	0.056104764
204	0xbd3487dc	-0.044074878
205	0xbd11941c	-0.03554164
206	0xbb8aa4d7	-0.004231076
207	0xbd0415c6	-0.032247327
208	0xbca53b7f	-0.020169972
209	0xbcab9526	-0.020945143
210	0xbce9f476	-0.02855895
211	0x3c59e7b7	0.013299874
212	0x3d0d68b1	0.03452367
213	0xbb88a140	-0.004169613
214	0xbdb83f7a	-0.08996482
215	0x3be88654	0.0070960913
216	0xbcb93a4c	-0.022610806
217	0x3d158862	0.036507018
218	0xbd3f8eee	-0.046767168
219	0xbbb6f142	-0.0055829594
220	0x3d46e728	0.04856029
221	0xbcca9884	-0.024730928
222	0x3d02580c	0.03182225
223	0x3c588a67	0.013216591
224	0x3c8b95e1	0.017039241
225	0xbd240424	-0.04004301
226	0x3b6f6c1a	0.003653294
227	0x3c4aa328	0.012368001
228	0x3a1a2926	0.00058807654
229	0xbcca6399	-0.024705695
230	0xbd1e81ff	-0.038698193
231	0xbc445328	-0.011982717
232	0xbb5aa30a	-0.003336134
233	0xbb810012	-0.003936776
234	0x3ca40725	0.020022938
235	0xbc235de0	-0.009971112
236	0x3cc79faf	0.024368135
237	0xbcf815fc	-0.03028392
238	0xbca391fe	-0.019967075
239	0xbc962ff7	-0.018333418
240	0x3cfdc92e	0.030979719
241	0xbd0c0f5a	-0.034194328
242	0xbce7072a	-0.028201658
243	0xbca1546f	-0.019693581
244	0xbbb6f512	-0.005583414
245	0x3ce84869	0.02835484
246	0xbcf679a5	-0.030087302
247	0x3c963287	0.01833464
248	0x3cf282a6	0.029603314
249	0xbd65af2b	-0.056075256
250	0xbd07c1cf	-0.033143815
251	0xbbbd000d	-0.0057678283
252	0xbbdc0fec	-0.006715765
253	0xbc305364	-0.010762069
254	0x3d14a283	0.036287796
255	0xba9b718d	-0.0011859402

out_cat.weight f4 [2, 300]
0	0xbd65891f	-0.056038972
1	0xbcaccafd	-0.021092886
2	0xbc04374c	-0.008069824
3	0xbd94719f	-0.07248234
4	0x3ce6b5ac	0.0281628
5	0xbda80403	-0.0820389
6	0xbcdeccb9	-0.027197229
7	0xbca648ad	-0.020298326
8	0xbd6313c9	-0.05543879
9	0x3df07c99	0.11742515
10	0xbda2b6a8	-0.07944995
11	0x3dcebd1d	0.10094664
12	0xbd043924	-0.032281056
13	0xbd9d9713	-0.07694831
14	0xbd908967	-0.070574574
15	0xbcc340f5	-0.023834685
16	0x3dd5bb34	0.10436097
17	0x3d8837db	0.066512786
18	0x3df771be	0.120822415
19	0x3d789662	0.06069029
20	0x3dc1b304	0.09457973
21	0x3ca1efe2	0.019767705
22	0xbd796ae3	-0.06089295
23	0xbdb592cb	-0.08865889
24	0x3de8a78b	0.11360081
25	0xbab69aa6	-0.0013931587
26	0x3bb19dc4	0.0054204185
27	0x3c98753f	0.018610595
28	0x3dcf21fb	0.10113903
29	0x3da93e31	0.08263815
30	0x3d906090	0.07049668
31	0x3ddea910	0.1087209
32	0x3d5c21af	0.05374306
33	0x3d105232	0.035234638
34	0xbd73abed	-0.059490133
35	0x3e03b2e0	0.12861204
36	0x3dcec99d	0.100970484
37	0x3dc1051d	0.094248034
38	0xbd4819e0	-0.0488528
39	0x3d32ae42	0.043623216
40	0x3b2d919c	0.0026484495
41	0xbc30e81c	-0.010797527
42	0xbd8e3575	-0.0694379
43	0x3dcdcdac	0.100489944
44	0xbda5b1b8	-0.08090538
45	0x3dd5fa6e	0.10448156
46	0x3c9af9cb	0.018917939
47	0xbd588c6b	-0.052868288
48	0x3dff7367	0.12473183
49	0x3dd146b8	0.10218567
50	0x3c879867	0.016552163
51	0xbc968c7c	-0.018377535
52	0x3d80cae7	0.062887006
53	0x3db66d23	0.08907535
54	0x3d66733b	0.056262236
55	0x3cd2ce32	0.025733087
56	0x3ddfb4c8	0.10923153
57	0xbc8a5067	-0.016884042
58	0xbcb44875	-0.022007206
59	0xbc0dcf14	-0.008655328
60	0x3dabf3a4	0.0839608
61	0xbd8c9138	-0.06863636
62	0x3d7abf25	0.061217446
63	0x3c51482f	0.012773558
64	0x3c8bee63	0.017081445
65	0x3e11d7fd	0.14242549
66	0xbcbd0e77	-0.023078186
67	0xbd837491	-0.06418718
68	0x3dac7d2f	0.084223144
69	0xbcfd82ff	-0.030946253
70	0xbda2c9db	-0.07948657
71	0x3bef0aec	0.007295003
72	0x3d9bfbd4	0.07616392
73	0xbda8ef30	-0.082487464
74	0xbd122d25	-0.035687584
75	0xbda2a2a8	-0.079411805
76	0xbd51afb2	-0.051192947
77	0xbdf24cd6	-0.118310615
78	0x3d56c380	0.052432537
79	0xbcc54008	-0.024078384
80	0x3db59ea5	0.0886815
81	0x3d23c2b7	0.039980616
82	0x3e30c743	0.17263512
83	0xbd8c7334	-0.06857911
84	0xbd80a4dd	-0.06281445
85	0xbbc67b7f	-0.0060572024
86	0xbba7ab4b	-0.0051168553
87	0xbdcbb988	-0.09947497
88	0x3c9a27b0	0.018817753
89	0x3db9e0e5	0.09076098
90	0xbdbed64c	-0.09318218
91	0xbd65616a	-0.056001104
92	0x3e0a9412	0.13533047
93	0x3daa15bd	0.083049275
94	0xbd1120d6	-0.035431705
95	0x3d5a970c	0.053366706
96	0xbd097d0e	-0.033566527
97	0x3d173755	0.036918003
98	0x3cbe4312	0.023225341
99	0xbde9de96	-0.11419408
100	0x3d9ff022	0.078094736
101	0x3dd3d794	0.10343853
102	0x3ca25024	0.019813605
103	0x3db65c3f	0.08904313
104	0xbd3666bd	-0.044531573
105	0x3d3fa5e9	0.046789084
106	0xbcce04bd	-0.025148744
107	0x3d0bb2c5	0.034106035
108	0x3c6c550f	0.014424576
109	0x3db38fd6	0.08767669
110	0xbd020135	-0.031739432
111	0x3d5a397f	0.05327749
112	0xbd18aa39	-0.037271712
113	0x3d142b70	0.036174238
114	0x3da95b49	0.082693644
115	0xbdc91bdf	-0.09819769
116	0x3d39d24f	0.04536658
117	0x3da7085f	0.081558935
118	0x3dde5f2e	0.10857998
119	0x3dfb347a	0.122658685
120	0xbd4d4413	-0.05011375
121	0x3c113c66	0.008864498
122	0xbd68ec9f	-0.056866284
123	0x3d83d6d4	0.064374596
124	0x3d4417ab	0.047874134
125	0x3df95330	0.1217407
126	0x3c1c1158	0.009525619
127	0x3dc45c5f	0.09587931
128	0xbde8276f	-0.11335646
129	0x3dbff878	0.093735635
130	0x3db76160	0.0895412
131	0xbd042bbd	-0.032268275
132	0xbc43e932	-0.011957454
133	0xbcbc782b	-0.02300652
134	0x3cf4eb8c	0.029897474
135	0x3d5049fa	0.0508518
136	0xbd5060c6	-0.05087354
137	0x3d8c2af0	0.06844127
138	0xbc7251d7	-0.01479002
139	0x3dc72e75	0.09725658
140	0xbc325b7b	-0.010886068
141	0x3d68506e	0.05671733
142	0xbd8b38db	-0.06797954
143	0x3d89275a	0.06696959
144	0x3dc56a9a	0.09639473
145	0xbd81c368	-0.06336099
146	0x3ce971c9	0.02849664
147	0xbd95f4fa	-0.07322116
148	0x3d9e1732	0.07719268
149	0x3d551466	0.052021407
150	0xbd4f6824	-0.050636426
151	0xbd6a46a6	-0.05719628
152	0x3d928f55	0.07156245
153	0xbd24f12a	-0.040269054
154	0xbd9a3958	-0.07530469
155	0xbd4ecb30	-0.050486743
156	0xbd66551a	-0.056233503
157	0xbd8364e4	-0.06415728
158	0x3dad659c	0.08466646
159	0x3daa54b1	0.08316935
160	0x3d889e20	0.06670785
161	0xbcc6c5dc	-0.024264269
162	0xbc967f46	-0.018371236
163	0xbddb5e8b	-0.10711392
164	0x3debc0e6	0.11511402
165	0x3da6f711	0.08152593
166	0x3d94d75e	0.072676405
167	0x3d9bd286	0.076085135
168	0x3d8e37fd	0.06944273
169	0xbd973423	-0.07382991
170	0xbd8fb98c	-0.07017812
171	0x3da74dcf	0.08169138
172	0xbcfa283c	-0.030536763
173	0x3cd673b8	0.026178226
174	0xbd906371	-0.07050217
175	0x3da4f6ae	0.08054863
176	0xbd81fca1	-0.06347013
177	0xbdb7235e	-0.08942293
178	0xbda10c09	-0.07863624
179	0x3d99fa96	0.075184986
180	0x3d076cea	0.033062853
181	0xbd7897d6	-0.060691677
182	0x3bf99c91	0.007617541
183	0xbd2d0ba7	-0.04224744
184	0xbdb7383f	-0.08946275
185	0x3def3a5a	0.116810516
186	0xbd93cf78	-0.07217306
187	0xbd96e5e9	-0.07368071
188	0xbcdc1885	-0.02686716
189	0xbcf1fab1	-0.029538484
190	0xbd560bba	-0.052257277
191	0x3d18f67b	0.037344437
192	0xbd05624f	-0.032564458
193	0x3d260366	0.040530585
194	0xbd61c2fa	-0.055117585
195	0x3d3c6d63	0.046002757
196	0xbda92d03	-0.082605384
197	0xbd12b713	-0.035819124
198	0xbd81e7cf	-0.06343042
199	0x3b15025e	0.0022737007
200	0x3dfeec9b	0.12447473
201	0xbce9140e	-0.028451946
202	0x3d5cc980	0.053903103
203	0xbd160f50	-0.036635697
204	0x3d719b18	0.0589858
205	0x3d4dded9	0.050261352
206	0x3db3c533	0.08777847
207	0x3dafd781	0.08586026
208	0x3d7c345e	0.06157338
209	0xbd27562b	-0.04085366
210	0x3e0de751	0.13857771
211	0x3c82dbbe	0.015973922
212	0x3dd1f7a3	0.10252311
213	0x3d1cdb03	0.038294803
214	0x3c8ee505	0.01744319
215	0xbda93416	-0.08261888
216	0xbd650688	-0.05591443
217	0x3d9128ef	0.070878856
218	0x3d0da6d5	0.03458293
219	0x3d26ab33	0.040690612
220	0xbdae9820	-0.08525109
221	0x3db4b35a	0.08823271
222	0xbd07d03f	-0.033157583
223	0x3daaeb72	0.08345689
224	0xbc647762	-0.013944479
225	0x3d1913bb	0.037372332
226	0xbd8d0daf	-0.068873756
227	0x3de41e9f	0.11138653
228	0x3dd17197	0.10226744
229	0xbd8de281	-0.06927968
230	0x3d614159	0.05499396
231	0x3cd35bf9	0.025800692
232	0xbd83398b	-0.0640746
233	0xbd9e7277	-0.07736676
234	0xbdb0593a	-0.086107686
235	0xbb8958ca	-0.0041914927
236	0x3dd4c37a	0.10388847
237	0x3e002b89	0.12516607
238	0xbb5234ea	-0.0032074996
239	0x3cf53164	0.029930778
240	0xbd346737	-0.044043746
241	0xbc780ff8	-0.015140526
242	0x3da7a54d	0.081858255
243	0x3d6e1201	0.05812264
244	0xbd6e2104	-0.058136955
245	0xbdb15cf9	-0.08660311
246	0x3dc3614d	0.09540043
247	0xbda6cf92	-0.0814506
248	0xbdb07cc4	-0.08617547
249	0x3e070070	0.1318376
250	0xbc52c9ef	-0.0128655275
251	0x3dc9d272	0.098545924
252	0xbdc9e65d	-0.098583914
253	0x3da71697	0.081586055
254	0x3d899ad2	0.06718983
255	0xbdaf813f	-0.085695736

out_cat.bias f4 [2]
0	0x3d226c8e	0.039654307
1	0x3d6c6cd4	0.057720974
