models/alu/epoch-90.pt (torch, 288811 bytes, 6 tensors)

inp.fc.weight f4 [700, 51]
000000 bb 6f 68 be 5f 0f b0 be c8 7c 6a be dc b0 28 be
       -0.22698872 -0.34386727 -0.22899163 -0.16473716
000010 69 d5 e6 be 04 a4 e0 bc 88 4d a7 bc 37 78 04 bf
       -0.45084694 -0.027421959 -0.020422712 -0.51745933
000020 4e ed 13 bd d3 a6 04 bd d9 84 46 bd b2 df 4c 3e
       -0.036114983 -0.03238566 -0.048466537 0.20007208
000030 74 2e 19 3e c2 56 b5 3e 1a 6b f2 be 36 28 44 be
       0.14959127 0.35417753 -0.47347337 -0.19155964
000040 43 03 32 be 32 a0 9b be bd eb 9b be 58 3c 4c 3b
       -0.17384057 -0.30395657 -0.30453292 0.0031163897
000050 e4 46 43 bd 20 30 62 bd c1 78 8f bd ce 91 9a be
       -0.04767503 -0.055221677 -0.07005454 -0.30189365
000060 bb e6 46 be 6e 68 73 3c 68 77 14 3f da 8e 59 3d
       -0.19423954 0.014856441 0.579947 0.05311475
000070 36 36 a9 3b 19 aa 45 3d 33 00 ba 3d 1a 52 b7 3e
       0.005163933 0.04825792 0.09082069 0.35804826
000080 16 3c 93 3d 9e 4b 87 be 20 08 af bd 07 a9 56 be
       0.07189195 -0.2642488 -0.085464716 -0.20962916
000090 87 05 8e be ed 68 a0 3e 0c d1 a7 bb 0c f1 8f 3e
       -0.27738592 0.31330052 -0.005121356 0.28113592
0000a0 63 55 ae be 12 a0 54 3e 71 ed 25 be 0c ee 8d 3e
       -0.3404952 0.20764187 -0.16203858 0.27720678
0000b0 c6 88 08 be 63 7b f0 bd aa 67 0d be d3 b1 0b bf
       -0.13333425 -0.11742284 -0.13809076 -0.54568213
0000c0 bb 7c b7 3d d8 f3 13 3f b2 ba cc 3d f8 d6 98 3d
       0.08959337 0.5779395 0.09996547 0.07462877
0000d0 95 82 9a 3e 4b 36 21 3e 10 fa db 3c 17 18 98 3d
       0.3017775 0.15743367 0.026852638 0.0742647
0000e0 6d 1c 02 be e5 25 43 bc a8 80 7f be d9 58 89 be
       -0.12706156 -0.01191089 -0.24951422 -0.26825598
0000f0 df ee 29 3c 31 97 2a be 44 7f e3 be 26 9b a5 3c
       0.010371893 -0.16659237 -0.44433033 0.020215582
000100 ad ca 5f 3d 76 c4 cc be 15 59 d9 3e b8 8d fc bc
       0.054636646 -0.39993638 0.42450777 -0.030829296
000110 d3 87 b1 3e a7 ec f9 3d 86 d3 1a 3c cd a8 2b be
       0.34673938 0.12203341 0.009449845 -0.16763611
000120 11 46 3c 3d 8b 45 95 3e 1d a2 dc bd 76 13 76 3d
       0.045965258 0.2915462 -0.10773108 0.060077153
000130 fa ad 28 3e 86 90 cc 3d 83 9d 85 3d 16 bd 89 bd
       0.16472617 0.09988503 0.065241836 -0.067255184
000140 28 4c 86 3d 6b 5b db 3d 62 74 33 be a5 d9 2e be
       0.065574944 0.10710796 -0.17524865 -0.17075212
000150 57 8a 6c bd 71 7a 56 be e9 f9 01 be 7b 45 9c be
       -0.05774912 -0.20945145 -0.1269299 -0.3052176
000160 87 37 ec bc c4 44 29 be 63 4f 8b 3e 40 47 3b be
       -0.028835071 -0.16530138 0.27209005 -0.18288898
000170 f9 1a 06 be fd 0e 09 bd 1a 00 8d bc 22 cd 8e be
       -0.13096227 -0.03346156 -0.017211962 -0.2789088
000180 03 1d 39 3e 02 72 33 be 10 21 a9 3e 8c a9 b0 3e
       0.18077473 -0.1752396 0.33033037 0.34504354
000190 e7 14 0d 3d 4c 5d fd 3e a6 98 de be d1 4e 66 3e
       0.034443762 0.49485242 -0.43475837 0.22491004
0001a0 cb fe eb 3d ec 86 d3 be 1f ce 6a 3d 19 ee 36 be
       0.11523207 -0.41313875 0.05732548 -0.17864265
0001b0 d2 83 e5 be 0f b7 92 3d f8 f1 65 be 17 f8 1b be
       -0.44827133 0.07163822 -0.22455585 -0.15231358
0001c0 63 00 4f 3e 52 7a 25 3e 3c 2a 42 be 11 c3 84 3e
       0.20214991 0.16159943 -0.18961424 0.25930074
0001d0 36 2f 60 bc 8c 16 ad bd 08 df f3 3d b3 50 14 be
       -0.013683131 -0.08451566 0.11907774 -0.1448391
0001e0 5b 98 d6 bc 18 a1 f5 3c 46 e6 9c 3e 30 9c 98 bd
       -0.026195696 0.029984042 0.30644435 -0.074516654
0001f0 01 eb e4 3d 9f bb 6b be 61 74 9d 3b aa 3e 0b 3f
       0.11177636 -0.2302079 0.004805133 0.5439249
000200 7e 1e 80 3e ad e4 41 be 6f 81 e0 3e f7 af 92 3e
       0.25023264 -0.18934889 0.4384875 0.28649876
000210 d6 4c 9b 3e 40 fd c7 be 7b 15 31 be c6 2c a9 bd
       0.3033206 -0.39060402 -0.1729335 -0.08260493
000220 7c 6e af be 65 4b 2c bc ce 1f 91 be 36 6f 3f 3e
       -0.3426398 -0.010516022 -0.28344578 0.18694767
000230 97 5e 36 3e 6c 04 9e bd a1 ae 55 3e 18 72 28 be
       0.1780952 -0.07715687 0.20867397 -0.16449773
000240 b5 68 46 3d 0e 58 cd bd 6c 0a 43 be 09 88 4d be
       0.0484397 -0.10026561 -0.19046944 -0.20071425
000250 fc 7a 02 bf 83 22 c3 be cb 8a 1e 3e 0b 51 09 3e
       -0.5096891 -0.38112268 0.15482633 0.13409822
000260 d8 2a d9 bd 14 26 c3 be 99 4d 88 3d c5 ba 01 3d
       -0.10603875 -0.3811499 0.066554256 0.031672258
000270 0c 04 c9 be d9 45 72 be a1 66 d3 bc 47 4f 01 bf
       -0.392609 -0.23659457 -0.025805773 -0.5051159
000280 47 1f eb bd fd 2a 02 3e 38 67 d2 3e 7b 9a a7 be
       -0.11480575 0.12711711 0.41094375 -0.32735047
000290 ab f8 4f 3e 2a c2 63 3d 60 d9 3f 3d ce cf e8 bd
       0.20309703 0.05560509 0.046838164 -0.113677606
0002a0 46 f7 8b be 23 b6 23 bd 46 c4 9e bd 26 9e ac bd
       -0.27337092 -0.03996862 -0.0775228 -0.08428602
0002b0 38 e0 79 be 2d 79 96 bd 3c 71 8e be d6 dc 88 3e
       -0.24401939 -0.07347331 -0.27820766 0.26730984
0002c0 de 7f 75 be ba 50 41 be f2 d3 e1 3e 3f e9 52 bd
       -0.23974559 -0.18878451 0.44107014 -0.051491972
0002d0 10 0c 57 be ae 0f 47 bc 59 4f 72 3e e8 c2 a4 bd
       -0.21000695 -0.012149734 0.23663081 -0.08044988
0002e0 d3 94 4a bd 6a ec e0 3d 19 2e 8a 3c 8e c7 bc be
       -0.049458336 0.109825924 0.016867684 -0.36870998
0002f0 62 e1 65 bd 49 bb c7 be 8d e1 a3 3e 80 c3 d9 3d
       -0.056123145 -0.39010075 0.3200802 0.10632992
000300 30 1a 4a 3e d6 9d e7 bd 15 7a 52 bd 21 46 1b bd
       0.19736552 -0.11309402 -0.051385958 -0.037908677
000310 72 91 2a be 50 81 18 be ad 90 0e 3e 11 83 16 bf
       -0.16657045 -0.14893079 0.13922377 -0.5879374
000320 ca 3f 23 3e 7e 00 35 3e cb f4 67 be 58 fb 39 3e
       0.15942302 0.17675969 -0.22651975 0.18162286
000330 c5 42 97 bc 2c 8a f9 bd f8 f2 b0 be 2b 15 9f bd
       -0.018464455 -0.12184557 -0.3456037 -0.07767709
000340 ef 33 fb be 19 4b 34 3e a5 51 79 bd 7f 38 b3 bd
       -0.4906306 0.17606772 -0.060868878 -0.0875101
000350 08 0d 8d 3e 40 b7 e3 be 4e b6 f4 3d ab ea 97 3e
       0.27549005 -0.44475746 0.11948834 0.29671225
000360 46 3f 28 bd fa a1 e0 bc b7 74 b0 3d a5 06 6f 3e
       -0.041075967 -0.027420986 0.086160116 0.23342378
000370 e0 ca 82 3e c7 45 26 3e cb c0 9d 3e 56 45 00 3e
       0.25545406 0.16237555 0.30811152 0.1252645
000380 57 31 c7 3e aa 88 15 be bd 66 90 be 00 1e 8a be
       0.3890483 -0.14602914 -0.28203383 -0.26976013
000390 8d 41 e1 be 0d 89 d3 3e 81 be 6a bd a1 25 04 3b
       -0.43995324 0.413155 -0.057310585 0.002016403
0003a0 70 2f 7f bd 26 2e a8 3e 7d b2 e8 3e 15 9d 2e be
       -0.0623011 0.32847708 0.45448676 -0.1705211
0003b0 84 ec 25 be df a1 19 3e 9d 62 ba be fc f4 11 3e
       -0.16203505 0.15003155 -0.3640336 0.1425361
0003c0 51 5f 21 be ef 76 3c 3e f9 7b c8 bd 0d 19 48 3e
       -0.15759017 0.18404745 -0.09789271 0.19540806
0003d0 6e ae 48 be 95 71 19 3d 08 53 28 be ce bf d5 bd
       -0.1959779 0.037461836 -0.16437924 -0.104369745
0003e0 42 94 06 be d0 22 39 3d 9b 21 a9 be e5 e1 3a 3e
       -0.13142493 0.045199215 -0.3303345 0.18250234
0003f0 db e3 11 3f 40 2e 90 be 8c a3 09 3f ad 2d 55 be
       0.56988305 -0.28160286 0.5376518 -0.20818205

inp.fc.bias f4 [700]
000000 3c 94 1d bd ac 2e a1 be 19 f8 bc be d3 ae 9f be
       -0.038471445 -0.3148092 -0.36908033 -0.31188068
000010 bc 2e 70 be 4c e0 d0 be 1f 29 1f be 98 7b 83 be
       -0.23455328 -0.40796125 -0.1554303 -0.25680232
000020 5b 08 53 bd f9 1e df 3c ae e0 4e be ad a4 79 bd
       -0.05152164 0.027236449 -0.20202896 -0.060948063
000030 01 cb 59 bf 32 33 b4 be fb ff fb be 37 eb 35 be
       -0.85075384 -0.3519531 -0.49218735 -0.17765509
000040 28 85 44 be 85 06 a4 be 8a cd db be 99 ca 06 be
       -0.1919142 -0.32036224 -0.4293025 -0.13163222
000050 1c c6 ab be 34 aa d0 3c 7b 0d 0f be dc 20 2d be
       -0.33549583 0.025471784 -0.13969986 -0.16907066
000060 75 ae 46 be 64 fa 8f be 48 45 09 be b2 49 64 be
       -0.19402488 -0.2812072 -0.13405335 -0.22293738
000070 71 4f 28 be 64 89 af be 3e f3 a8 be f1 07 b2 be
       -0.16436554 -0.34284508 -0.3299808 -0.34771684
000080 69 62 55 be cc ad fb be 08 19 33 bf 2e 27 ac bd
       -0.20838322 -0.49156034 -0.6996007 -0.084059104
000090 19 35 77 be 49 9d 34 be d1 93 be bd 1f bc c2 be
       -0.24141349 -0.17638125 -0.093055375 -0.3803415
0000a0 fb 91 91 be de 25 8f be 5e 0a 1b bf 77 ea 6e be
       -0.28431687 -0.27958578 -0.60562694 -0.23331629
0000b0 44 7b 8a be 79 31 88 be b4 41 09 bf 8d 2a a8 3d
       -0.2704717 -0.26600245 -0.5361588 0.08211241
0000c0 fe 63 11 bf a8 02 96 be 66 51 6c be b6 f6 7c be
       -0.567932 -0.29298902 -0.23077926 -0.24703488
0000d0 af a5 a3 be 73 d4 ab bd 5c 59 a6 bd ae 75 87 be
       -0.31962344 -0.08390131 -0.08122513 -0.2645697
0000e0 f5 d5 0b be 0c 95 b2 be 26 a8 c4 be ce 76 63 be
       -0.13655837 -0.3487934 -0.38409537 -0.22213289
0000f0 ea 50 a2 3c 2c 60 a8 be 51 41 48 be 94 bb 12 be
       0.019813973 -0.32885873 -0.19556166 -0.14329368
000100 dc ac 82 bc 27 4f 31 be 17 da c0 be 97 4c 4a be
       -0.015951566 -0.1731535 -0.3766639 -0.19755779
000110 24 9e a2 bb 34 c6 e6 be ca 66 07 bf f3 d9 76 bd
       -0.0049626995 -0.45073092 -0.5289122 -0.060266446
000120 03 bf 20 be 55 86 f4 be 26 20 85 be f5 57 ae be
       -0.15697865 -0.47758737 -0.2600109 -0.3405148
000130 9a 40 09 be 9e 23 ee be e8 ac 9c bd 85 d5 2e be
       -0.1340355 -0.4651155 -0.07650167 -0.17073639
000140 70 bd 33 be cf 6b 31 be de 71 96 be 3d 23 0b bf
       -0.17552733 -0.17326282 -0.2938375 -0.54350644
000150 95 4a 2c be e1 7c c6 be bc 8a c1 3d 18 2f c7 bd
       -0.16825326 -0.3876715 0.094502896 -0.09725779
000160 1c 2a e8 3d 39 e9 01 3e 3d de 0b be d2 48 4c be
       0.11336157 0.12686624 -0.13658996 -0.19949654
000170 71 6d be bc ee 63 56 be 9c 81 a6 be dc 39 ce be
       -0.023245545 -0.20936558 -0.3252076 -0.40278518
000180 9c d6 8b be 22 8d 1c bc ad bc b7 3b 4f 1e 3f bc
       -0.2731217 -0.009555133 0.0056072087 -0.011664941
000190 96 01 c2 bd 34 b0 d2 be 0a 5a cd be 20 3f 85 be
       -0.09472959 -0.41150057 -0.40107757 -0.26024723
0001a0 84 e4 90 be 16 67 ef 3b 6c 83 dc bd 07 4a b1 be
       -0.28299344 0.00730599 -0.10767254 -0.3462679
0001b0 bc 54 e9 3b 33 00 62 be 1c 6a b0 be e5 7f c7 be
       0.007120697 -0.22070388 -0.34455955 -0.38964763
0001c0 fc 75 0b bf a9 54 28 bf bd 12 27 bf 1f fd a9 be
       -0.54476905 -0.6575418 -0.6526297 -0.3320093
0001d0 3b 05 f9 be 00 27 1a 3d aa 1b b0 be e1 86 e5 be
       -0.48636803 0.03763485 -0.34396106 -0.44829467
0001e0 c3 86 22 be 2e e2 4b be cb a2 af bd 0c c9 af bd
       -0.1587172 -0.199105 -0.08575972 -0.085832685
0001f0 2e 9a b5 be 78 cb 21 bd 09 02 40 be 01 77 2e 3c
       -0.35469192 -0.039500684 -0.18750776 0.01064849
000200 0a f6 c0 be 7e d1 1b bf 52 fc 33 be d1 f1 24 bd
       -0.37687713 -0.60866535 -0.17576721 -0.040269677
000210 a3 c5 a1 bc 21 a7 8e be 13 57 b1 be dc f5 89 be
       -0.01974756 -0.27861884 -0.34636745 -0.26945388
000220 e3 27 51 be 5a d0 ff bd 5d 90 c9 be c8 a7 9e be
       -0.20425372 -0.12490912 -0.39367953 -0.30987382
000230 f7 2e 94 be 98 01 0e be 49 be aa be 77 af f9 be
       -0.2894208 -0.13867795 -0.333483 -0.48766682
000240 96 be b2 be 3c 83 74 be 8a 73 ea be 5c ad be be
       -0.3491103 -0.23878187 -0.45791274 -0.37241638
000250 02 bd a4 be 39 01 20 be f0 ac 77 be 06 3b d2 be
       -0.32175452 -0.15625466 -0.24187064 -0.41060656
000260 b4 bd 58 be cd be c3 be 2b ad 41 bf 1d ba 16 be
       -0.21166116 -0.38231507 -0.7565486 -0.14719434
000270 0e 8a 75 be 26 80 10 3c 97 f4 2a be 9c a5 36 be
       -0.23978445 0.0088196155 -0.16694866 -0.17836612
000280 95 1c 6c be 9c 13 7d be 2a a5 9d be 80 94 fb be
       -0.23057778 -0.24714512 -0.30790073 -0.49136734
000290 ad 5b 26 be 23 c0 f6 bd da bf ae be 7b 50 98 be
       -0.16245909 -0.12048366 -0.34130746 -0.29748902
0002a0 2f 27 8a be fc 37 63 be 06 6a 0b be c8 45 8b be
       -0.2698302 -0.22189325 -0.13614663 -0.27201676
0002b0 f6 b0 48 be 2a 39 a3 be 3a 34 c5 be 4c 82 ac bd
       -0.19598755 -0.3187955 -0.38516408 -0.0842329
0002c0 3b 1a dd be d8 d7 1d bf b4 22 07 bf b5 9d e0 be
       -0.43184075 -0.61657476 -0.5278733 -0.4387032
0002d0 22 97 32 bf cd 85 f1 be 6c 83 d0 be ad 66 c1 be
       -0.6976186 -0.47172394 -0.40725267 -0.37773648
0002e0 6a f3 35 bf 83 02 c9 be 94 ae 0c be 0b 25 ba be
       -0.71074545 -0.3925973 -0.13738471 -0.36356387
0002f0 c6 fc 9c be 46 57 cf bd 60 45 2b be 44 b8 20 be
       -0.306616 -0.10124068 -0.16725683 -0.15695292
000300 f2 54 96 be 60 7d 82 be 08 29 ee be 6e c5 95 3e
       -0.29361683 -0.2548628 -0.4651568 0.2925219
000310 f4 c8 a5 be 92 74 ff bc 54 e1 99 be b9 15 83 be
       -0.32379878 -0.031183515 -0.30054724 -0.2560251
000320 8d c7 4e be a0 00 d4 be 75 1e a0 bd 60 ed 6f be
       -0.2019331 -0.41406727 -0.07818309 -0.23430395
000330 f0 dc e6 be 8e 62 57 be e1 5c 89 be c5 ea a1 be
       -0.45090437 -0.2103369 -0.26828673 -0.31624427
000340 3d 1f a0 bd 0e 31 67 be 5f 4f e8 be 6b 9c c0 be
       -0.07818458 -0.22577307 -0.45373055 -0.37619337
000350 03 17 c4 be 31 cf 92 be b9 ef 83 be ed a5 e9 bc
       -0.38298807 -0.286737 -0.2576883 -0.028521502
000360 c7 df 9b be eb b7 25 bf c6 1b ce bd bc af 6e be
       -0.30444166 -0.6473376 -0.10063891 -0.23309225
000370 fb cd f1 bd 0d 58 00 be cf 31 9f be 3f e9 17 be
       -0.11806866 -0.12533589 -0.31092688 -0.1483507
000380 b8 61 c9 be cf 89 03 be 12 29 1d be 57 2b c0 3e
       -0.39332366 -0.12845539 -0.15347698 0.37533066
000390 f2 9e ef be 2c 3e 19 be 7e 4d a9 be c8 de cd be
       -0.46800953 -0.14965123 -0.33066934 -0.4020903
0003a0 d9 f1 0f 3d de bf 8f be 95 c4 83 be 35 34 ba be
       0.035142753 -0.2807607 -0.25735918 -0.36367956
0003b0 c6 ea f5 be 1e 42 8c bd aa 51 d2 be f4 1f ce bd
       -0.4803068 -0.06848548 -0.4107793 -0.10064688
0003c0 ad 60 c9 be 8a fb 0e bf 56 a9 5d bd 69 a7 b1 be
       -0.3933157 -0.5585257 -0.05411657 -0.34698036
0003d0 6e 4e 0a bf d7 27 a2 bd 97 a2 bd be f9 17 08 bf
       -0.54025924 -0.07917755 -0.3703811 -0.5316158
0003e0 d8 09 c9 bd 14 2a dc be c3 bb 4e bd 1d 10 82 be
       -0.09816331 -0.43000853 -0.050472032 -0.25402918
0003f0 56 79 b1 be 88 4b a1 be ab 2e 14 be 3c 4a 08 bf
       -0.34662884 -0.31502938 -0.14470927 -0.5323827

layers.0.fc.weight f4 [50, 700]
000000 7f 88 e3 bc 8f 59 62 3e db cc 41 3e 62 a8 54 3e
       -0.027775047 0.22104476 0.18925802 0.20767358
000010 9a 67 1e be ee 16 08 3e 30 65 0a 3f 37 95 cc 3d
       -0.15469208 0.13289997 0.5406065 0.09989398
000020 d3 fc 68 be 03 c7 75 be 02 39 05 bc 7a 0c 2e 3d
       -0.22752695 -0.24001698 -0.0081312675 0.042492367
000030 72 61 9d bd 70 20 b7 3b 83 d2 37 3e 4c 71 e2 be
       -0.07684602 0.0055885836 0.17951398 -0.44227064
000040 4e a0 2e bd bb 3a ec bd b9 61 d5 3d b8 ae 47 3e
       -0.042633347 -0.115346394 0.1041903 0.19500244
000050 be 81 8f 3d ca 19 5b 3e a7 2c 04 3d 28 07 b1 bd
       0.07007168 0.21396556 0.032269146 -0.08643943
000060 25 3b 13 3d ea c5 1a bd bf ce 87 be 4d 78 8e 3e
       0.035945076 -0.0377864 -0.26524922 0.27826157
000070 4f 42 25 bd 28 67 cc bd 85 eb 53 be d4 b2 c5 3e
       -0.04034644 -0.09980613 -0.20695312 0.38612998
000080 d1 e9 a8 3e 01 25 07 bd 96 d3 37 3e 19 43 e5 3e
       0.32990888 -0.032994274 0.17951807 0.44777754
000090 d5 8f f6 3b 06 cf dd be 8c 90 f5 3d 15 5a 4b be
       0.0075244703 -0.4332201 0.11990461 -0.19858582
0000a0 2f 61 37 3d 49 44 8e 3d ff ef d6 3c 72 68 0c 3e
       0.044770416 0.06946618 0.026237486 0.13711718
0000b0 d3 60 41 3e a8 20 03 3d 17 ac b1 ba 1d 89 08 bf
       0.18884592 0.032013565 -0.0013555315 -0.5333422
0000c0 83 af 09 3f 6d 44 0f 3e 5b ee 36 3e 69 86 b2 3c
       0.53783435 0.13990946 0.17864363 0.021792607
0000d0 7c 90 22 be b8 65 80 bd 5c 2f 67 3d 03 de c8 bc
       -0.15875429 -0.06269401 0.05644165 -0.024519926
0000e0 1e f1 ba be 54 63 07 3e e5 f8 52 bd 58 e8 e8 3e
       -0.36512083 0.13221484 -0.051506896 0.45489764
0000f0 3d 72 0a 3d 8f a2 1d 3e e5 5c 31 bc ee dd b8 bc
       0.033800352 0.15394042 -0.01082537 -0.022566762
000100 2a 8b 85 bd 07 14 16 be cc 70 a1 be b4 c0 3a be
       -0.06520684 -0.14656077 -0.3153137 -0.18237573
000110 d6 6e 9a be 28 6e eb bd 7b 83 8a be 50 1d 09 3d
       -0.30162686 -0.1149562 -0.27053437 0.03347522
000120 29 01 95 3d b8 85 db 3a 11 0a 9a be c1 09 05 be
       0.07275612 0.0016748225 -0.30085805 -0.12992002
000130 f0 78 96 3d 12 20 06 bf 91 a9 41 bd 33 2a 95 be
       0.07347286 -0.52392685 -0.04728085 -0.29133758
000140 7c b3 0b 3e f6 14 b1 be e9 be 20 3e 48 0f 55 3e
       0.13642687 -0.34586304 0.15697826 0.2080661
000150 b5 8e 3c 3e 7c f7 2a 3e 38 23 7e 3e 57 0b 43 be
       0.18413813 0.1669597 0.24818122 -0.19047295
000160 cb 67 30 bd f1 03 be be 58 56 f5 be 7c ae d9 bd
       -0.043067735 -0.37112382 -0.47917438 -0.106289834
000170 df 8e 88 3e f2 30 a1 be c4 7c 2a 3c 18 9e 8b bd
       0.26671502 -0.31482655 0.010405723 -0.06817263
000180 09 94 0a 3e d2 1c ca bc e8 34 0c 3e 52 71 ae 3e
       0.13533033 -0.024671946 0.13692057 0.34070832
000190 66 c5 55 3d b1 f8 60 bb 77 2c 47 3e d6 5b a2 be
       0.052190207 -0.003432792 0.19450556 -0.3171069
0001a0 bb 5b 36 3e 07 55 53 3e aa 1d e3 be b2 cf b3 bd
       0.1780843 0.20637904 -0.4435857 -0.08779849
0001b0 9a bf 66 be ac f8 32 bd 24 5c 89 3e 9a 6b 41 3e
       -0.22534028 -0.043694183 0.2682811 0.18888703
0001c0 bd c6 e3 bd 89 eb d8 3c 90 25 54 3d c3 59 92 be
       -0.11121891 0.0264795 0.051793635 -0.28584108
0001d0 3f 8e 85 bd 1f f1 9e 3c 60 bd 29 be b4 18 95 be
       -0.06521272 0.019402085 -0.16576147 -0.2912041
0001e0 81 23 be 3e 2e f9 2e 3e 2d 99 2f 3e ca 6b 09 bf
       0.37136462 0.17087242 0.17148276 -0.536801
0001f0 69 fd 13 3e 02 8f 8c bd 77 be 2e 3e a3 06 96 be
       0.14452137 -0.06863214 0.17064844 -0.29301938
000200 4f d9 70 3c 5d 8c 03 be a2 e0 14 be d9 eb a4 be
       0.014700248 -0.12846513 -0.14538816 -0.32211187
000210 ed 56 81 be 0e 00 86 3e 91 d9 f3 be 2a ac 37 3e
       -0.25261632 0.26171917 -0.47626927 0.17936769
000220 da 92 2b be 57 3d 71 be 19 d4 77 3e 5e 39 81 be
       -0.16755238 -0.23558556 0.24202003 -0.2523908
000230 bb 00 53 bf 12 a5 82 3e cf 3c 8d 3e 19 2f 34 3e
       -0.8242299 0.25516564 0.27585456 0.17596091
000240 33 c2 bf bc 69 6b c9 bc 6d 2f 1d be e9 fa 3e 3e
       -0.023408031 -0.02458735 -0.15350123 0.18650402
000250 f0 ab ac be 49 b2 32 be 85 d4 0f be af 3b 89 be
       -0.33724928 -0.17450823 -0.14045914 -0.26803347
000260 54 3a 5e 3c 30 84 c8 bd 46 f9 93 3d 8b ff 99 bb
       0.013563711 -0.09790838 0.072252795 -0.0046996525
000270 3d 54 00 3f d5 fd 16 bf d4 c8 60 be 53 10 13 be
       0.5012854 -0.58981067 -0.2195161 -0.14361696
000280 9a 31 1b 3e d4 6d 8a be 31 ea 82 bd 94 b9 cb 3d
       0.1515564 -0.27036917 -0.06392325 0.099475056
000290 76 e9 d3 be 92 e2 a3 3e 39 85 9e bd 0c c0 29 3e
       -0.41389054 0.32008797 -0.07740254 0.16577166
0002a0 5e 65 0b 3e cb a4 5f bb 79 62 c5 bd fc 01 e8 3c
       0.13612887 -0.0034125324 -0.09637923 0.028321259
0002b0 b7 85 2c be 08 01 c1 3e 03 8b bc 3e 62 67 0d be
       -0.16847883 0.376961 0.36824808 -0.13808969
0002c0 e6 d1 c5 bd 3e b7 1c be de 16 5f 3c cb 36 46 3e
       -0.096591756 -0.15304276 0.013616292 0.1935684
0002d0 89 92 b2 be 48 fd 81 3e 74 34 2f be f7 db 82 3e
       -0.34877422 0.2538855 -0.17109853 0.25558445
0002e0 4e d7 2c 3c 0c d0 7f 3e 69 fa 86 bd 0b 0a 77 be
       0.0105493795 0.24981707 -0.06590731 -0.24124925
0002f0 e6 fd 7d 3d 52 81 82 3e f3 fe b4 3d 67 cd 31 3d
       0.062009715 0.2548929 0.0883769 0.043408778
000300 da c3 7b 3e 71 6c 85 be ce a1 e8 3d 41 e7 7c bd
       0.2458643 -0.26059297 0.11358987 -0.06174398
000310 c0 a6 05 bc 08 03 33 be 9e a2 25 be 6e d1 98 3e
       -0.008157432 -0.17481625 -0.16175315 0.29847282
000320 f9 16 11 3d 14 ad cc 3e 1a fb aa ba e5 c1 61 be
       0.0354223 0.39975798 -0.0013044805 -0.22046621
000330 10 df 46 be ed af 2a be 99 38 d2 bd 3c 29 fa bd
       -0.19421029 -0.16668673 -0.102647014 -0.12214896
000340 92 e3 8b 3e d1 06 54 bd 29 63 dc bd c7 b5 80 be
       0.2732206 -0.051764313 -0.10761101 -0.25138685
000350 d4 76 c9 bd a3 22 71 bc c6 21 17 be 34 19 a2 3e
       -0.09837118 -0.014717731 -0.14758977 0.31659853
000360 39 d7 a2 3d b4 0f 24 be c5 d0 27 bf 13 73 2e be
       0.07951207 -0.16021615 -0.6555293 -0.17036085
000370 8c 12 8a 3e c9 83 3a 3e 62 c3 d5 bd 23 86 e1 3d
       0.26967275 0.18214335 -0.10437657 0.11011913
000380 48 99 a1 3e 32 cd 0c be c4 4a b4 3d 5e fe 41 bf
       0.31562257 -0.13750151 0.08803323 -0.7577876
000390 62 50 06 3e 5e 80 60 3e 4c 43 f0 3c f8 ec 97 3e
       0.13116601 0.21923968 0.029328965 0.2967298
0003a0 69 fa 9e be 4c ff 39 bd fb 56 e7 3c 8a 85 0f 3e
       -0.31050423 -0.045409486 0.028239718 0.14015785
0003b0 d0 e2 8f be 8f 1d ac be 6b 1c 7e be fd 6e b9 bd
       -0.28102732 -0.336163 -0.24815528 -0.090543725
0003c0 bf af 00 3d b9 70 82 3c 30 28 7d bd 0a 62 ab 3c
       0.031417605 0.015922891 -0.061805904 0.020920772
0003d0 a2 ec 75 3b 19 0e bf 3e 85 02 1c 3e cf 0f 67 bc
       0.0037525077 0.37315443 0.15235336 -0.01410289
0003e0 1e 0b ce 3e a7 b1 aa bd 4f 13 3a bf a3 ba 03 be
       0.40242857 -0.08334666 -0.7268571 -0.12864165
0003f0 8d 62 be 3d 14 92 11 3c ed 90 f4 3d 76 37 54 bd
       0.09296141 0.008884925 0.11941705 -0.051810704

layers.0.fc.bias f4 [50]
000000 4d a9 ad be 97 b7 a5 bd d6 00 8b 3d 23 6c 76 bd
       -0.3391823 -0.080916576 0.06787269 -0.06016172
000010 60 13 69 3d 8e 36 40 3a 6b f8 2b 3c 70 99 15 be
       0.056903243 0.0007332348 0.010496239 -0.14609313
000020 5f 45 2b bd 4d 48 bc bc 75 83 37 be 2d 03 90 be
       -0.041814204 -0.022983694 -0.1792124 -0.28127423
000030 fa d8 09 be 1b cc 64 bd 95 a2 2e be 5e 91 89 be
       -0.13461676 -0.055858713 -0.17054208 -0.2686872
000040 d0 58 96 be 06 32 63 bd fd 17 38 bd bf 97 1a be
       -0.29364634 -0.055467628 -0.044944752 -0.15096949
000050 aa e0 65 be 6f 1b 1a bd ea 05 f1 bd 9b 8d 8b bd
       -0.22448984 -0.03762382 -0.11768706 -0.068141185
000060 f8 1d 21 3e 9d 8c 4f be b3 5d 9a be d7 fd 17 be
       0.15734088 -0.20268483 -0.30149612 -0.14842926
000070 a6 47 ab ba 98 35 e3 3b f8 2f cc be d8 15 99 be
       -0.0013067618 0.006933879 -0.39880347 -0.29899478
000080 c8 6b d9 b9 7d 95 35 bd 83 20 2f bd e2 83 50 be
       -0.0004146977 -0.044332016 -0.042755615 -0.2036281
000090 4b bd a6 bd b0 11 cf bd 49 f2 1c bb df 74 26 3b
       -0.081415735 -0.101107955 -0.0023948124 0.002539925
0000a0 de 7f 10 be 83 0f b8 bb 11 ed c6 bd 30 e3 3d 3c
       -0.14111277 -0.0056170835 -0.097131856 0.01158981
0000b0 99 2e 4b 3c 0d 94 a7 be 25 65 81 be 3d fb 3c 3e
       0.0124012465 -0.3273014 -0.2527248 0.18455215
0000c0 15 b2 d3 bc ed 8f 42 3d
       -0.025841752 0.04750054

out_cat.weight f4 [3, 50]
000000 ca 48 29 be 65 36 27 3e 7a d3 87 be 7d 07 ac 3d
       -0.16531673 0.16329344 -0.2652853 0.08399866
000010 3c 86 49 be 3c 56 98 bc a2 d6 76 3d 81 00 8f be
       -0.19680113 -0.018595807 0.060263284 -0.27930072
000020 7d 34 8f 3c 9b 55 aa 3d c6 71 42 be 65 12 e5 be
       0.017481083 0.08317109 -0.18988714 -0.44740596
000030 c2 7b a1 be 69 d8 3a 3c c0 8b 26 bd b3 58 32 be
       -0.31539732 0.011404135 -0.04066062 -0.17416649
000040 64 5c 26 be da 23 56 3c bd 50 c9 3d 4f 3f 91 3e
       -0.16246182 0.013070071 0.09829853 0.28368613
000050 89 4c c3 bd 43 12 a0 3d bd 97 df bd 94 07 4a 3e
       -0.09536082 0.07815983 -0.10917614 0.19729453
000060 99 9a c4 bd 9f 24 f9 bd d2 fb 5d 3e 1e 73 c4 bd
       -0.095998 -0.12165188 0.21678093 -0.09592269
000070 ef 06 6e bc cb 83 ea 3d 95 b7 bc bd 59 a4 34 be
       -0.01452802 0.11450919 -0.09214703 -0.17640819
000080 af 7c a8 bc bb 77 5e 3d 17 bd 32 3c 5e c0 9f be
       -0.020567266 0.054313403 0.01090934 -0.31201452
000090 3c a8 a2 be 12 d4 92 bd f3 1a 13 be c6 5e e7 3d
       -0.31768978 -0.071693555 -0.14365749 0.112973735
0000a0 4e 74 31 3e 5e 9a 9f 3c ee 2e 2e be 10 43 a1 3d
       0.17329523 0.019482788 -0.1701009 0.07874119
0000b0 8d 5f 4d be 12 bb d5 bd 84 0e 18 be 79 e5 2d be
       -0.20055981 -0.104360715 -0.14849287 -0.16982068
0000c0 57 52 41 3e 4e 30 08 3b 1d 6a 85 bc bc 38 62 be
       0.18879066 0.0020780745 -0.01628595 -0.22091955
0000d0 4c a9 a6 3d 7a 02 62 bc 6a 17 25 3e ae 96 6e 3d
       0.081377596 -0.013794536 0.16122213 0.058249168
0000e0 0d 57 8b 3b a8 bd 0e be 18 1d de 3d d7 b4 e1 3d
       0.0042523206 -0.13939536 0.10845393 0.110208206
0000f0 ac 09 0c be bd 23 24 bd 3c 03 e4 bd 5c 54 c4 3d
       -0.13675565 -0.040073145 -0.111334294 0.09586403
000100 f8 90 80 bc 2f 81 30 3d be 97 43 bd 98 db 12 3b
       -0.015694126 0.04309195 -0.047752135 0.002240872
000110 83 50 d2 3c fc 79 77 be a6 ff 86 bc 45 53 73 3d
       0.025673157 -0.24167627 -0.016479325 0.059405584
000120 5b a8 25 be d3 fc e9 bd f8 3b 0b 3e 06 ac 3f 39
       -0.16177504 -0.114251755 0.13597095 0.00018279263
000130 b2 9c c3 bc 0e 2a 04 be 11 63 2e bd e1 a2 6e 3d
       -0.02387843 -0.12906668 -0.042574946 0.058260802
000140 e0 3f d8 3d 0a 67 04 bd 1e c1 d7 3d 70 f0 51 bc
       0.10559058 -0.03232483 0.10534881 -0.012813672
000150 93 67 6e 3d 62 bc 52 be 6f 3c b5 3d 78 21 a4 bc
       0.058204245 -0.20579675 0.088494174 -0.02003549
000160 ca e3 36 3d d8 db cb bb 4e 5d 68 bd f1 1e a8 3d
       0.04465083 -0.006221276 -0.056729607 0.082090266
000170 92 b1 8e 3d a0 dc 5e bc 02 38 d4 3d e1 31 0d be
       0.069674626 -0.013602406 0.10362245 -0.13788559
000180 9c b5 d2 3d fe 74 44 3e 21 a6 07 be ef 0a 95 3c
       0.102885455 0.19185254 -0.13246967 0.01819369
000190 30 e9 cb 3d a1 c9 0a bd 7a a1 2e be 16 c4 4c 3d
       0.09956586 -0.033883695 -0.17053786 0.04999169
0001a0 ba f7 f1 bd 8d de 38 3c a5 85 14 be 0b 09 5e 3e
       -0.11814828 0.011283529 -0.14504106 0.21683137
0001b0 51 df 80 bd 3e 3a c3 3d 44 5d d3 3d 9c da 07 3c
       -0.06292594 0.09532593 0.103205234 0.008291867
0001c0 72 bf f8 3d dd 1b d2 3d 78 a4 bd bc 9d d7 c3 3d
       0.1214589 0.10259221 -0.023149714 0.09562609
0001d0 b0 dc 96 bc ef 1c 77 3c ac 0f 29 3c 23 e3 ad bd
       -0.018415779 0.015082582 0.010318678 -0.084905885
0001e0 e0 54 bd 3d 72 97 bd 3c 67 84 25 3e b4 99 94 be
       0.09244704 0.023143504 0.16163789 -0.29023516
0001f0 b4 18 11 be 24 a1 30 3d 12 33 cf bd 43 6c 81 bd
       -0.1416958 0.043122426 -0.10117163 -0.063194774
000200 f5 74 14 3e 18 63 d8 3d fd 47 81 bd 07 d7 19 be
       0.1449774 0.10565776 -0.06312559 -0.15023433
000210 fe 86 26 3e b9 ed 03 3e 1a f3 a4 3d 44 33 13 3e
       0.16262433 0.12883653 0.080541804 0.14375025
000220 0b 77 c2 bd 8e 96 3a 3d c3 8e 1c bd e8 47 be 3d
       -0.09495362 0.045553736 -0.038222086 0.09291059
000230 b8 cc 4c bd 46 3b b2 3c 59 83 5d be 02 ae d6 bd
       -0.049999923 0.02175678 -0.21632136 -0.10482408
000240 fc eb 09 be f5 f6 98 3e 8b 6f ef 3d 68 14 ca bd
       -0.13468927 0.29875913 0.11691197 -0.098671734
000250 30 f0 a1 be 49 59 9b be
       -0.3162856 -0.30341557

out_cat.bias f4 [3]
000000 fd a3 fc bd 9b 05 a6 3e 50 c7 63 bf
       -0.12335966 0.32426152 -0.88976
