models/ncls2-dex50/scenario0_epoch115.pt (torch, 888491 bytes, 6 tensors)

inp.fc.weight f4 [400, 49]
000000 95 ef e6 3c 88 e3 9a 3c 42 65 cb 3d f9 8a e1 3c
       0.028190413 0.018907323 0.09931423 0.027532088
000010 31 ea a8 bd d6 d0 2f be a9 4f 18 3d 99 71 a8 be
       -0.082477935 -0.17169508 0.037185345 -0.32899168
000020 4f 55 2e bc ff a3 c4 3d 6a 89 a5 bd 94 06 3d 3e
       -0.010640456 0.09601592 -0.0808285 0.1845954
000030 c3 8f 99 bd da 35 96 3d 7a 49 04 be f9 e4 35 3d
       -0.074981235 0.0733449 -0.12918654 0.04440782
000040 50 b9 10 3d 4e 0b b2 3d 34 19 a1 bd 9e f9 1d bd
       0.035332978 0.086935624 -0.07866135 -0.03856813
000050 0e 2c 0e 3e b6 9d 54 bd b3 cd 84 3e 0d fd 75 3d
       0.13883993 -0.051908217 0.25938186 0.06005578
000060 8c b2 6d 3d 0c 90 be 3d 1d 9d cc bd fa 93 82 be
       0.058031604 0.093048185 -0.099909045 -0.25503522
000070 62 d9 40 3e f0 b3 5f 3d 7c 63 9d bd c8 ae e4 bd
       0.18832925 0.05461496 -0.07684991 -0.111661494
000080 07 82 9e 3c b3 31 a3 3e 3d 62 65 be a3 ca 20 be
       0.019349111 0.31873855 -0.22400756 -0.157023
000090 42 00 be bd 68 db 99 3d be 58 9e 3b 73 82 3f bd
       -0.09277393 0.075125515 0.0048323562 -0.046755265
0000a0 52 27 89 3d db c3 54 bc 92 4d 7b be 9d 94 1b bd
       0.06696953 -0.012986149 -0.2454131 -0.037983526
0000b0 30 cb 53 bd 92 63 8d 3e 3a 23 4b bd b6 ab 91 be
       -0.051707447 0.2761503 -0.04959414 -0.28451318
0000c0 bb 1a a9 bc ef 41 02 bc 93 0f 15 bd 5b 7d 30 3d
       -0.020642629 -0.00795029 -0.036391806 0.0430883
0000d0 2f f3 e7 3d 2b 71 24 3e 84 0a 68 bd fe 7b b4 3d
       0.113256805 0.16058795 -0.056650653 0.08812712
0000e0 36 f9 6e 3d 76 df 11 3d 79 e2 1b 3e 20 f9 b1 3e
       0.058343135 0.0356135 0.15223111 0.3476038
0000f0 2e 9c e0 3d b5 a4 3c 3b 5e e1 9a 3d 9d 20 13 be
       0.10967289 0.0028784696 0.07562517 -0.1436791
000100 09 d8 06 be 08 8e 5a 3d 1b c2 08 3e eb 90 ee 3d
       -0.13168348 0.053358108 0.13355295 0.11648735
000110 4e 00 a6 3e f7 c3 41 be 81 c7 b7 3e bc 09 df bd
       0.32422107 -0.18922411 0.35894397 -0.108905286
000120 47 85 dc 3d 57 b8 17 be c4 73 d1 bd c9 a4 67 3e
       0.10767608 -0.14816414 -0.10227159 0.22621454
000130 e7 a9 e4 be 1d b2 17 3d 25 88 bc bd 84 e2 04 3d
       -0.44660875 0.037035096 -0.09205655 0.032442585
000140 d1 66 67 bd 6f a0 20 bd 62 11 01 be 4f c0 4b 3c
       -0.056494538 -0.0392155 -0.12604287 0.012435987
000150 3d dd 02 bd 24 e9 9d 3c d5 57 57 3e 3f 88 13 be
       -0.03194927 0.01927621 0.21029599 -0.14407443
000160 39 ac 0a be 95 df 97 bd 98 2b 03 3d 38 c4 0b be
       -0.1354226 -0.07415692 0.032023996 -0.1364907
000170 27 5b a7 3d 5d a6 f4 bd a1 6b 86 bd 29 a1 81 bd
       0.08171683 -0.11945794 -0.06563497 -0.06329567
000180 8c b3 18 3e d4 ef 35 bd 24 9f 92 3d 5f 57 32 3e
       0.14912242 -0.04441817 0.0715926 0.17416142
000190 df 97 50 3d af 62 e9 bc 81 88 6b 3e ed eb c0 3d
       0.050926086 -0.028489439 0.23001291 0.09419999
0001a0 16 ed 9e 3d 06 27 a7 3d e6 d5 78 bd 1b c8 db be
       0.07760064 0.0816174 -0.060750864 -0.42926106
0001b0 69 48 6d be 3b 5c 10 be 21 56 92 be 9d 88 01 3e
       -0.23172154 -0.14097683 -0.28581336 0.1264977
0001c0 f4 84 2a bd 61 0b 62 be 50 fc f6 bc 8c c2 82 3b
       -0.0416307 -0.22074653 -0.030149609 0.003990477
0001d0 45 83 64 3e 19 c5 f1 3d 6a 47 8d 3e a9 7f 4c 3e
       0.223157 0.118051715 0.27593547 0.19970573
0001e0 4d b8 d7 bc 4e ee 05 3e 53 50 50 3d 39 46 8d bb
       -0.026332999 0.13079187 0.050857853 -0.0043113497
0001f0 e6 ac 03 3e ea 1d 89 bd b7 13 ec 3d ec e5 6e 3c
       0.12858924 -0.06695159 0.11527198 0.014581185
000200 6d e2 9d bd fd e2 0c 3c 46 6f f0 bd b1 f5 6a bd
       -0.07709203 0.00859904 -0.11739974 -0.057363216
000210 3d 7c f0 bc e7 bc 18 3e 05 f3 99 3d 92 c2 3c 3d
       -0.029356116 0.1491581 0.075170554 0.046083994
000220 01 99 0b bd f2 72 34 be e3 c5 ae bc 65 ab ac bd
       -0.034081463 -0.17621973 -0.021334594 -0.084311284
000230 c4 c9 62 be 5c f3 f7 3d da 4c 3d be 34 f9 57 3e
       -0.2214728 0.12106964 -0.18486348 0.21091157
000240 85 11 36 3e 78 b1 2f be 52 c7 ba 3b de d2 c7 bd
       0.1778012 -0.17157543 0.0057000304 -0.097570166
000250 4a bd a0 bd 40 94 59 be 98 c3 c7 3d 4c a3 de bd
       -0.07848604 -0.21247959 0.097541034 -0.1087099
000260 8d ac 87 bd 92 6e f2 3c b6 1c d5 3c e5 f3 3e 3d
       -0.06624708 0.02959374 0.026014667 0.046619315
000270 ac eb a4 bc 95 55 6f 3c 2b 21 2c be 37 26 0a be
       -0.020131908 0.014607807 -0.16809528 -0.1349114
000280 17 54 ce 3d 82 7c 27 be c9 7c dd bd 26 bd 45 be
       0.100746326 -0.1635609 -0.108148165 -0.19310436
000290 e7 fc a6 bd 4e cc 1b be ec 4d 6a 3b 89 de fe 3d
       -0.08153706 -0.15214655 0.0035752011 0.12444789
0002a0 c0 98 4f bd 83 7a 0a be 88 29 a6 3d c0 2d 8c 3d
       -0.050682783 -0.13523297 0.0811339 0.068446636
0002b0 e2 95 32 3e 67 19 cb bc 11 63 2a 3e cd 57 2c be
       0.17439988 -0.024792386 0.16639353 -0.16830368
0002c0 12 31 8b bd d9 ad ed 3d 09 7f 4c bd d0 92 a4 3d
       -0.06796469 0.116054244 -0.049925838 0.08035815
0002d0 be e5 0e be fd 87 22 bd 22 5e 0d be 7b 3b 85 bd
       -0.13954827 -0.03968047 -0.1380544 -0.065054856
0002e0 aa 99 b7 3d bf 54 37 be 44 8b 60 bd 1d 8d ad 3c
       0.08964856 -0.17903422 -0.054820314 0.021185452
0002f0 18 70 19 be d2 85 cc bd b8 0e 14 3e a3 2a 67 bc
       -0.14984167 -0.09986462 0.1445874 -0.0141092865
000300 da 72 b8 3d ce 9b 51 3e ae ba 72 be fb ea 23 3e
       0.09006281 0.20469591 -0.23704025 0.16007607
000310 fa 11 97 3e fe b0 8f 3c ba ac 9b be 96 25 d5 3d
       0.29505903 0.017540451 -0.30405217 0.104075596
000320 06 b2 8f 3d 49 81 87 be 22 51 67 3d 11 26 d0 3e
       0.07016377 -0.26465824 0.05647386 0.40654042
000330 92 38 db be 2d 1a 27 3e cf 96 e1 bd b6 4e 8e bd
       -0.42816597 0.16318579 -0.110150926 -0.06948607
000340 84 46 20 3e 0d 17 78 3d 1f 26 8f 3e 29 18 16 bd
       0.156519 0.060568858 0.27958772 -0.036644135
000350 bf eb 72 bd e5 04 27 be 5b 14 39 be 72 6d 50 be
       -0.059306856 -0.16310461 -0.18074171 -0.2035425
000360 ea c3 9b 3d 1e 84 c1 bd ce e4 a0 3e 06 fe 84 3d
       0.07605727 -0.094490275 0.31424564 0.064937636
000370 03 10 bc 3c 16 4b 38 3e 9b a8 a6 bc 03 c7 4d 3e
       0.022956854 0.17997393 -0.02034407 0.20095448
000380 0a 87 48 be 45 b2 bd bd 42 51 c9 3e 87 5c 87 3d
       -0.19582763 -0.09262518 0.39319807 0.06609445
000390 06 4e ec bb 12 dd 24 be 8b ae c8 bd 6f 4b 33 3d
       -0.0072114496 -0.16099957 -0.097989164 0.04377311
0003a0 bd 84 d3 3d 36 6c 02 3e cc 66 95 3d 03 27 ac 3e
       0.10328052 0.12736592 0.072949976 0.33623514
0003b0 95 3c 8a 3d b3 88 1a 3e 82 5d 53 bc 1f 2e 0a 3e
       0.06749836 0.15091209 -0.012900712 0.13494156
0003c0 f6 0e a8 3d 57 f5 12 be bc ee 63 bd 01 d9 d0 bc
       0.082059786 -0.14351402 -0.055647597 -0.0254941
0003d0 3d 28 92 bd 66 95 6b be 3e 7c 80 bd 75 ce 62 3e
       -0.07136581 -0.2300621 -0.06273697 0.2214907
0003e0 65 cf 9b 3c e2 0b 04 3e f8 0f a4 3d f2 29 fa 3b
       0.019019792 0.12895158 0.08010858 0.007634395
0003f0 2d bb 3d bd 82 a1 e6 3d 67 1f 9f 3e 2a d6 16 3e
       -0.046321083 0.11261274 0.31078646 0.14730135

inp.fc.bias f4 [400]
000000 06 22 67 be f2 b6 92 be b6 1a 09 bf 3f 78 4d be
       -0.22571573 -0.286552 -0.5355638 -0.20065401
000010 f0 ea 77 be 82 ba 06 be bf 9e ab be 36 83 dd be
       -0.24210715 -0.13157085 -0.3351955 -0.43264169
000020 90 93 83 be 29 57 75 be 47 1f 15 be 19 8e e6 bd
       -0.2569852 -0.2395903 -0.14562713 -0.11257572
000030 52 4e 34 be 5d 40 83 be 62 d6 9b be 18 52 5e 3c
       -0.17608002 -0.25635043 -0.30437 0.013569377
000040 34 25 b4 be 89 5e 8a be 3b d7 a3 be 30 e4 dd be
       -0.35184634 -0.2702525 -0.32000145 -0.43338156
000050 35 3e 94 be b1 35 d9 be 24 fd ab be 5b 2b f5 be
       -0.2895371 -0.42423776 -0.33591568 -0.4788464
000060 41 b0 22 be f1 43 43 3c 4f 41 55 be bc 39 aa bd
       -0.15887548 0.011918054 -0.20825695 -0.08311793
000070 6d 44 3e be d2 8d 52 be 25 f5 5f bd 12 fa 84 be
       -0.1858079 -0.20561913 -0.054677147 -0.25972039
000080 60 52 d1 be 87 ca 9d be e6 bf e2 be cd 6d e0 be
       -0.4088316 -0.3081858 -0.44287032 -0.4383377
000090 9b cf 25 be f3 94 c5 be f6 d7 b0 3b 28 88 39 be
       -0.16192476 -0.38590202 0.0053968383 -0.18118346
0000a0 3b 55 89 be 04 ee ae be 3d 6e 91 be 5c 3b e0 be
       -0.26822838 -0.34165967 -0.28404418 -0.43795288
0000b0 65 cb c0 be b0 46 25 be 7c 8b c7 be f0 40 6b be
       -0.37655178 -0.16140246 -0.38973606 -0.2297399
0000c0 2e a2 e2 be 1b 10 99 be 02 16 c8 be 47 8d b8 be
       -0.44264358 -0.298951 -0.3907929 -0.36045286
0000d0 56 54 9d be e9 29 7c be 2c 9a 17 bf cb 96 a9 be
       -0.30728406 -0.24625362 -0.5921962 -0.33122858
0000e0 46 d7 5f be c5 5f cd be a6 a6 a7 be 5d 65 da bd
       -0.21859464 -0.4011213 -0.3274433 -0.10663865
0000f0 88 1f f6 be ec 97 0e be 34 96 58 be 20 05 8f be
       -0.4807093 -0.13925141 -0.21151048 -0.27933598
000100 fe 11 1f bd 0b 58 90 be 19 2d 83 be 85 a2 57 bd
       -0.038835518 -0.2819217 -0.25620344 -0.052645225
000110 2f 22 86 be 17 9b 81 be d3 3b 88 be 2e 1e bb be
       -0.26197955 -0.25313637 -0.26608142 -0.36546463
000120 e8 7e a5 be 5e 22 f0 be 32 e4 be be e9 e7 b1 be
       -0.32323384 -0.4690122 -0.37283474 -0.34747246
000130 aa 0b cd be 7f b2 81 be 26 34 1c be 60 6e 89 be
       -0.4004796 -0.25331494 -0.15254268 -0.26842022
000140 66 52 04 bf fb d4 15 be db 8a bb be f4 85 b7 be
       -0.5168823 -0.14632027 -0.36629376 -0.35844386
000150 7b a5 cc be e1 a5 57 bd 5a f9 f4 bd de c3 b3 be
       -0.39970002 -0.05264843 -0.119616225 -0.35110372
000160 60 ab 94 bc 39 c9 32 be d1 ee 19 bd 25 ca cd be
       -0.018148124 -0.17459573 -0.03758127 -0.40193287
000170 13 1e 4f be 86 d4 aa be 5a 17 87 be d2 24 96 be
       -0.20226316 -0.33365268 -0.26385003 -0.29324967
000180 3b 25 0a be d1 49 a2 be da 3d a0 be e0 17 b5 be
       -0.13490765 -0.31696942 -0.3129719 -0.35369778
000190 5a d0 89 be 52 02 bd bc cb dc 2f be 30 bf 0e be
       -0.26916772 -0.023072395 -0.1717407 -0.1394012
0001a0 df 08 48 bc 6f 33 70 be 2c a9 d1 be e6 48 09 bf
       -0.012209146 -0.2345712 -0.4094938 -0.5362686
0001b0 b2 d4 be be f5 c5 fd bc 15 02 94 be 55 ee 08 be
       -0.3727165 -0.030978182 -0.28907838 -0.13372166
0001c0 16 66 78 be 4f 45 47 be ca e6 a4 be f5 a4 3e be
       -0.24257693 -0.19460033 -0.32207328 -0.18617614
0001d0 cd f6 ec bd c5 d2 63 be 6e 8f ed bd 60 50 5d be
       -0.11570511 -0.22248371 -0.11599623 -0.21612692
0001e0 3d 85 f0 bd 4f 4f b1 be e3 e2 16 bf 85 a9 be bd
       -0.11744163 -0.3463082 -0.5893995 -0.09309677
0001f0 5e f9 e0 be a8 16 b0 bd 9b 2e fc bd 75 4b eb bd
       -0.43940252 -0.08598071 -0.12313577 -0.11489002
000200 5b 20 72 be 06 cd e4 be fd 1b 57 be ba c7 b3 be
       -0.23645155 -0.4468767 -0.2100677 -0.35113317
000210 e6 29 a4 be 7e 05 3d be 88 55 8b be 1e 64 b1 be
       -0.32063216 -0.18459126 -0.27213693 -0.34646696
000220 2d dd 33 be fa 4b d6 bd 4e 25 6b be e0 bb b9 be
       -0.1756484 -0.1046371 -0.2296345 -0.3627615
000230 02 36 6e be ab 3d 2d be 0c 71 8d be 90 04 05 3d
       -0.2326279 -0.16918056 -0.2762531 0.032475054
000240 d7 3f b1 be a8 53 b1 be 8c 5a e7 be c6 b7 85 be
       -0.34619018 -0.34634137 -0.4518627 -0.2611677
000250 82 a2 0f be 3e a8 e7 bd 69 87 c4 be cc 89 23 be
       -0.14026836 -0.113113865 -0.3838456 -0.15970534
000260 77 94 4a bd c3 21 98 be b0 53 12 bf e7 be 1c bf
       -0.049457993 -0.29713258 -0.57158947 -0.61228794
000270 58 a4 1e be ff 5b 25 be f1 3d 4b be fa 79 89 be
       -0.1549238 -0.16148375 -0.19847848 -0.26850873
000280 a9 86 87 bd b2 81 08 bf fe 8b d7 be f6 d2 b8 be
       -0.06617481 -0.533229 -0.42098993 -0.3609845
000290 2b 85 fa be f6 b0 f9 bd a9 30 87 be 10 c6 83 be
       -0.48929724 -0.12191956 -0.26404312 -0.25737047
0002a0 e5 5b 99 be 79 96 5e be 79 5f 0b be b9 68 f3 be
       -0.29952922 -0.21737088 -0.13610639 -0.47540835
0002b0 a7 b5 10 be 2d 32 ec bd dd fe a5 be 64 9c c8 be
       -0.14131795 -0.11533008 -0.32421008 -0.39181817
0002c0 e2 5d 38 be 23 c2 3d bd 3e e1 8a be 7e cd ed bd
       -0.18004563 -0.04632772 -0.2712497 -0.1161146
0002d0 3d 50 a8 bc 92 04 46 be 26 22 58 be 72 f4 16 be
       -0.020546073 -0.19337681 -0.21106777 -0.14741686
0002e0 f6 21 8a 3d 81 0d bb be 37 1d a7 be 02 94 6e be
       0.06744759 -0.3653374 -0.32639477 -0.23298648
0002f0 10 03 b5 be 67 54 95 be 1b ea ec bd e3 bc 97 be
       -0.353539 -0.29165956 -0.115680896 -0.29636297
000300 ed 5d b3 be 64 b6 64 be 1d 1b d3 be 1b 12 6e be
       -0.35032597 -0.22335202 -0.41231623 -0.23249094
000310 91 ed 58 be 5f 67 9d be c7 51 3b be ce 3a c7 be
       -0.21184374 -0.30742928 -0.18292914 -0.38912052
000320 85 ef 03 bf 4e b5 ba be 5a 08 d0 be 66 62 7a bd
       -0.5153735 -0.3646645 -0.40631372 -0.061128996
000330 2c bb 8a be 39 df 0d be 41 d8 87 be 1e 3c d1 3b
       -0.27095926 -0.13854684 -0.26532176 0.0063853404
000340 36 43 cc be bb 87 cd be 00 37 d6 be 16 6b fe bd
       -0.39895028 -0.40142617 -0.41838837 -0.12422769
000350 7e 2b ad be c4 ab 01 be dc 03 a8 be 9c 6b dd be
       -0.33822244 -0.1266318 -0.32815444 -0.43246162
000360 a8 6a 03 be 1d ae 2c 3d 63 27 7f be 99 06 29 be
       -0.12833655 0.042158235 -0.24917369 -0.16506423
000370 1c af e9 be f8 bc 61 bd be b8 c3 bd 70 c3 ed be
       -0.4564141 -0.055111855 -0.09556721 -0.4643817
000380 db 21 07 be e1 fc 8c be be 1a 0a bf dc 27 50 be
       -0.13196509 -0.2753668 -0.53947055 -0.20327705
000390 88 95 7e be e4 41 95 be 2e 7c e6 bd 6f 4b 0e be
       -0.24861729 -0.29151833 -0.11254154 -0.13895963
0003a0 96 66 04 bf c1 21 06 bf ee 03 d5 bd 5b 44 3f be
       -0.51719034 -0.52395254 -0.1040114 -0.1867842
0003b0 9e 7c c6 be 63 07 8a bd 46 59 cf be e8 76 9a be
       -0.3876695 -0.0673969 -0.40497798 -0.30168843
0003c0 19 2c c7 bd 59 fb d8 be 86 7c 2b be bd ed 0c be
       -0.09725208 -0.42379263 -0.1674672 -0.13762565
0003d0 71 07 56 be 41 0e a5 bd 65 bf 31 be 3f 1f 66 be
       -0.20901276 -0.08059359 -0.17358167 -0.22472857
0003e0 52 f5 7a be 48 4e ec be 6f 1e 35 be 1d 37 5b be
       -0.24507645 -0.46153474 -0.1768739 -0.21407743
0003f0 76 7b 0a be 6f 7a 96 be d0 1f 7b be b0 52 52 be
       -0.13523659 -0.29390284 -0.24523854 -0.20539355

layers.0.fc.weight f4 [500, 400]
000000 91 30 7e be bd 14 02 be 07 b2 5e 3d 4c 8f 58 3c
       -0.24823214 -0.12703224 0.054369 0.013217758
000010 02 b6 77 3c e1 0d 1f be 58 e6 17 be c8 41 9f 3d
       0.015119078 -0.15532638 -0.14833963 0.07776219
000020 2e ce 67 bd 10 74 f8 3c 57 93 ce bd 06 12 2c bd
       -0.056593113 0.03032878 -0.100866966 -0.042009376
000030 ca 65 9b bd 45 c7 41 3c db 24 c2 3d f5 3c a7 bd
       -0.07587774 0.011827295 0.09479686 -0.081659235
000040 64 ee af bd 2d 98 b2 bd 6d d7 fe bc a4 c9 91 bd
       -0.08590391 -0.087204315 -0.031108582 -0.07118538
000050 bb d3 80 3d 00 ca 0b 3d bf f1 06 bd 72 ee 01 bd
       0.062903844 0.03412819 -0.03294539 -0.03172154
000060 b1 68 5f bd 34 1a 02 be c7 e9 0e bd 12 de 2c 3c
       -0.0545432 -0.12705308 -0.034890916 0.010550993
000070 16 4b 0e be 14 0a 96 bd b4 6e 07 be a6 cf 67 3d
       -0.1389583 -0.07326141 -0.13225824 0.056594513
000080 de 8d 38 3c 97 e3 2a 3d e2 a8 a6 3c f5 41 15 be
       0.0112642925 0.041720953 0.020344201 -0.14575942
000090 6c 2a 26 be 70 0f a2 bd ef 33 89 bb ba e7 29 bc
       -0.1622712 -0.07913101 -0.004187099 -0.010370189
0000a0 2b 64 f0 3d 5c 44 3a bc 9a a0 12 3e 4e b9 38 bd
       0.117378555 -0.011368837 0.14319077 -0.045098595
0000b0 f8 08 f8 3c 8c ff 81 3c bb 91 90 bd f5 52 ce 3d
       0.030277714 0.015868925 -0.07059046 0.100744165
0000c0 59 9c 50 3d 6a e0 2d be 7f 6d 35 be 32 71 8c 3c
       0.050930355 -0.16980138 -0.1771755 0.01714382
0000d0 09 9f 92 3d 17 45 c1 3c 8e b4 36 bc 78 8b eb 3d
       0.0715924 0.023592515 -0.011151446 0.11501211
0000e0 cc de 52 bc e3 e1 ad 3b ba 1d 35 bd 6d 4f 23 be
       -0.012870502 0.005306469 -0.044217803 -0.15948267
0000f0 57 38 1f 3d ef 8a 6e 3c 0e 95 23 3c c3 d2 16 be
       0.03887209 0.014559492 0.009984268 -0.14728837
000100 e3 48 ce bd 8d a2 f0 3c 34 8b 9f 3d 63 51 4e 3d
       -0.10072496 0.029374385 0.07790223 0.050370585
000110 b5 70 9e 3d 46 af 45 bd ce 3f 5e 3d ee a2 be bd
       0.07736341 -0.048262857 0.054260068 -0.0930842
000120 ae bd cd bd 32 2b 2c bd 70 e0 d8 bd 19 68 00 be
       -0.10045944 -0.04203338 -0.10589683 -0.1253971
000130 32 1e 3b bc 56 7b 60 3d 16 7f 47 be de dd 9d 3d
       -0.011420773 0.054805122 -0.19482073 0.077083334
000140 a4 03 cc bd 98 26 db 3d 0c 46 e8 bd 88 a2 05 3c
       -0.09961632 0.107007205 -0.113414854 0.008156426
000150 61 65 86 be fb c0 71 be 25 6c c6 3c e4 7d 56 bc
       -0.2624922 -0.23608772 0.02422149 -0.013091538
000160 95 7f 09 bd 8d 95 91 3c 78 f0 1a be ac a9 f9 3d
       -0.033568937 0.017771507 -0.15130794 0.121905655
000170 80 5f 8b be 06 3c fb bc af 4b 70 bd 57 95 a6 bd
       -0.27221298 -0.03066827 -0.058665927 -0.08133953
000180 51 3d 7a 3d 1a 21 d9 bb 23 95 d7 bc ef cb 0c be
       0.061093632 -0.0066262605 -0.026316231 -0.1374967
000190 1b f5 92 bc 39 91 e4 bd fc 1f f3 bd c0 46 d1 3d
       -0.017939141 -0.111605115 -0.11871335 0.102185726
0001a0 92 57 c2 bd 9d f8 1e bb d3 bd 98 3d a0 5f e0 bd
       -0.09489359 -0.0024257072 0.07458081 -0.10955739
0001b0 01 da dd bd 6c c9 82 bb 18 83 b4 3d f8 1f c0 bd
       -0.108325966 -0.0039912965 0.08814067 -0.093810976
0001c0 53 59 db bd 20 78 0f 3e 58 8c 84 3d 04 93 2b be
       -0.107103966 0.14010668 0.06472081 -0.16755301
0001d0 1f 36 c0 3b 6d 05 20 be af ae 12 bd 38 01 fa 3d
       0.0058658267 -0.1562707 -0.035811123 0.12207264
0001e0 1b 6b 92 bd c8 db 55 bd 88 bb a8 bd b2 87 88 3d
       -0.07149335 -0.052211553 -0.08238894 0.06666507
0001f0 7e 37 9d 3d 40 f2 8b bd c5 d3 78 3c 96 37 84 3d
       0.076766 -0.06833315 0.015187209 0.06455915
000200 ff 08 56 bc 18 38 8a 3d f9 fb 17 bd 23 30 ce bc
       -0.013063668 0.0674898 -0.037105534 -0.025169438
000210 5f f1 f3 3d 88 3e cf bd fa 84 90 be cd d8 a7 3c
       0.11911272 -0.10119349 -0.28226453 0.02048912
000220 fe 13 98 bd 44 96 2a 3c 1f 6c 0d bd c5 12 64 3d
       -0.07425688 0.010411803 -0.03452694 0.055681963
000230 1c 56 c7 bd dd a8 b3 3c 1e 74 06 3e 27 83 4a bd
       -0.09733221 0.021931106 0.13130233 -0.049441483
000240 59 94 75 bd 93 33 02 3c 69 64 4c ba aa 40 0d 3c
       -0.05995593 0.007946867 -0.00077969447 0.008621374
000250 b9 ed 26 3d 18 da 2d be cf 31 85 bd 8d 48 10 3d
       0.040754054 -0.16977727 -0.06503641 0.03522544
000260 64 da 07 bc 9d f2 54 bd 56 85 13 ba 1d 81 a9 3c
       -0.0082918145 -0.051989187 -0.00056274736 0.020691449
000270 37 54 fb bd e6 36 95 3d 91 cf d7 bc 45 75 b4 3d
       -0.12271922 0.07285862 -0.026344093 0.0881143
000280 70 02 de bd b6 1f 40 3c 52 38 bd 3c c8 c6 85 3c
       -0.10840309 0.0117263105 0.023098145 0.016330138
000290 db fe 64 bd f1 ba 9f 3d 87 b9 ae bd 6b db e7 3c
       -0.05590711 0.07799328 -0.0853148 0.028302869
0002a0 f3 19 89 3c 26 74 57 be 2c a4 98 3d d9 df ab bd
       0.016736006 -0.21040401 0.07453188 -0.08392305
0002b0 3c 68 07 be 3b 04 cf bd 1f 14 30 be 82 a4 87 3d
       -0.13223356 -0.10108229 -0.17195176 0.06623174
0002c0 79 70 db 3d d6 4b 83 be 39 d8 6d 3c ea 75 03 bb
       0.10714812 -0.25643796 0.0145168835 -0.0020059296
0002d0 70 7f 41 3d 47 84 7b 3d d7 43 bb 3d 9f cd 6c be
       0.047240674 0.061405446 0.09143799 -0.23125313
0002e0 92 61 0a be 8e d4 e5 bc 02 e7 9e bd b4 43 39 3a
       -0.13513783 -0.028055456 -0.07758905 0.00070672785
0002f0 22 79 e7 3c 0c d6 50 3d 83 f2 1f be 14 4b 53 bd
       0.028256003 0.05098538 -0.15619855 -0.051585272
000300 31 91 b0 3d 87 e5 04 be 2a 9f c5 3c f9 bb 01 be
       0.08621443 -0.12978183 0.024123747 -0.12669362
000310 24 d8 22 3d 42 93 e7 bd 1c 96 08 be f8 d2 4b bb
       0.03975691 -0.11307384 -0.13338512 -0.003110109
000320 88 a4 67 3d 98 f9 3b bd 0c e4 22 bd f1 bb ea bd
       0.056553394 -0.045892328 -0.039768264 -0.11461628
000330 e9 c9 8d 3c 2b d1 9d 3d 60 9e 49 be 6e 24 87 3b
       0.017308192 0.07705911 -0.19689322 0.004124216
000340 b7 88 40 bd 7a cc d5 bd 9e ea 0c 3d 65 26 65 3d
       -0.04700538 -0.104393914 0.034403436 0.05594482
000350 f3 91 f6 bc 9f e9 9f bd a9 2a 09 be 0f a2 30 be
       -0.03009889 -0.078082316 -0.1339518 -0.1724932
000360 e2 e3 90 bb 14 8f a3 3d 27 f5 ea bc 8b eb 69 3c
       -0.004421697 0.07986274 -0.02868135 0.014277349
000370 92 e1 d8 bd 24 19 e6 bd cb d1 05 be e2 42 8e 3b
       -0.10589899 -0.11235264 -0.13068311 0.004341469
000380 52 96 21 bd 0d 7f 88 3d 31 7a fd 3c e0 51 18 3c
       -0.039449997 0.06664858 0.030942054 0.009296864
000390 cc 1e 20 bd d1 4e cf bd 5a 20 ca bd 00 de 11 be
       -0.03909187 -0.10122455 -0.09869452 -0.14244843
0003a0 1a 7c e2 bb 31 dd 0c 3e 1f 56 63 bd b7 72 b8 3d
       -0.0069117667 0.13756253 -0.055502053 0.09006255
0003b0 f9 32 8e 3b 12 a8 f7 bd cb 68 1e 3b 61 4b 77 3c
       0.0043395725 -0.12092604 0.0024171348 0.015093655
0003c0 31 8f c6 bd 47 db 5b 3c 33 2b a0 bd 24 7a 00 3c
       -0.0969528 0.013418979 -0.078207396 0.007841621
0003d0 bf 3f 24 bd 43 26 01 be 8b 2e 06 be 45 17 56 3d
       -0.040099856 -0.12612252 -0.13103692 0.052268285
0003e0 07 ba 96 bd 62 cc 83 3c 30 ee e9 bd 65 0b 21 be
       -0.07359701 0.016088668 -0.11422384 -0.15727003
0003f0 bb 8a 27 3d 86 9c 2d be b2 e1 b6 3d c5 19 6b bd
       0.040903788 -0.1695424 0.08929767 -0.057397623

layers.0.fc.bias f4 [500]
000000 86 b2 c0 bd a3 6a ff bd 6d a2 be bd 1f 55 e6 bd
       -0.09409051 -0.12471511 -0.09308324 -0.11246704
000010 75 ec a8 bc fe b6 36 bd ba db ab 3c 8e b0 05 bd
       -0.020620564 -0.04460811 0.020978797 -0.03263908
000020 d9 80 95 bd d4 4d 9c bd ab 65 06 be 9e 82 93 bd
       -0.07299966 -0.07632032 -0.13124721 -0.072026476
000030 06 98 9b bd 18 d9 12 3d 5f e9 63 3c 12 c6 b6 bd
       -0.075973555 0.035851568 0.0139106205 -0.08924498
000040 ca af b3 bd 38 47 3f be fc c8 dc bc 81 f7 af 3d
       -0.087737635 -0.18679512 -0.026951306 0.085921295
000050 e8 3d 72 be 7b 66 08 be fa 8a c5 bd 56 c1 86 bd
       -0.23656428 -0.13320343 -0.09645648 -0.06579845
000060 f7 cb 9e bd 8a be 4b 3d 2f ff 85 3b 2a 66 10 3c
       -0.07753747 0.04974226 0.004089258 0.00881342
000070 17 38 00 be 86 32 5c bd 52 c0 34 3c 04 5d 09 be
       -0.12521397 -0.05375912 0.011032181 -0.13414389
000080 10 69 9e bc 40 d0 10 be fb c7 13 be 6e 51 c2 bd
       -0.019337207 -0.14141941 -0.14431755 -0.09488188
000090 86 35 17 be 31 bf 4d bd 9b bc 47 3d 1f 86 e8 bd
       -0.14766511 -0.050231162 0.048763853 -0.113537066
0000a0 e3 00 7b be d8 b6 79 be d0 cf dd bd 66 8e a2 bc
       -0.24512057 -0.24386156 -0.10830653 -0.019843291
0000b0 70 d3 d8 bd c1 5c 96 be 3e 92 be bd 99 f3 d4 bb
       -0.105872035 -0.2936764 -0.09305237 -0.0064987657
0000c0 47 32 01 be 6b 19 99 be b7 4c 14 be 4d 58 30 be
       -0.12616836 -0.29902205 -0.1448239 -0.17221184
0000d0 32 63 6c bd 2f 44 ab bd 50 7f b8 3c ff 48 3c bd
       -0.057711788 -0.08362614 0.022521645 -0.045968052
0000e0 30 5d 82 bd 2d 0e 93 bd 06 12 b3 bd e9 ca 93 bc
       -0.0636543 -0.07180438 -0.08743672 -0.018041091
0000f0 19 31 ea bd 63 8d a5 bd bb 6f 1a bd 91 69 fe bd
       -0.11435146 -0.08083608 -0.03770421 -0.12422479
000100 41 fd 1a bd 40 48 a4 bd a9 5a e2 3d f8 44 02 be
       -0.037839178 -0.08021593 0.11052448 -0.12721622
000110 a6 44 02 be d0 09 77 bd d1 96 12 be 3d 2b ff bc
       -0.127215 -0.060312092 -0.14315344 -0.031148547
000120 90 ff 81 bd 6b dd b5 bd a7 78 10 be 2d 9e 89 bb
       -0.06347573 -0.08880123 -0.14108525 -0.004199764
000130 9a f7 02 3c f7 c5 81 3c 13 44 20 be e5 ff f4 bc
       0.007993603 0.015841467 -0.15650968 -0.029907176
000140 65 38 2d be 6e f2 6f 3c d6 2d bc bc d0 7b 9d bd
       -0.16916044 0.014645202 -0.022971075 -0.07689631
000150 c7 db c2 bd 62 ff 0f be 16 dd 1e bd 88 bb d4 bc
       -0.095145755 -0.14062265 -0.038785063 -0.025968328
000160 47 8a 47 3d 95 e2 23 bd 22 28 19 be de d7 1e 3d
       0.048715856 -0.040011007 -0.14956716 0.038780086
000170 c4 93 e1 3c 6a 8a a8 3c 65 40 56 bd 6b 3b de bc
       0.02753628 0.020573813 -0.052307505 -0.027127942
000180 20 39 2c be a5 c4 22 bd 51 9b 05 bd d7 6c 40 be
       -0.16818666 -0.039738316 -0.032618824 -0.18791519
000190 f5 be 19 be 73 3b 69 bd b9 4c eb bd b5 be a4 bd
       -0.1501425 -0.05694146 -0.11489243 -0.08044187
0001a0 35 9f a9 bd 0a d5 2f be 23 c3 91 3d de c6 27 be
       -0.082823195 -0.17171112 0.071172975 -0.16384456
0001b0 dd b7 b1 bd 33 e0 26 3c 08 2c a9 bd e8 3f 80 be
       -0.08677647 0.010185289 -0.082603514 -0.25048757
0001c0 70 bc fa bd c1 26 66 3b 64 84 11 be a7 01 fa bd
       -0.12242973 0.0035118314 -0.1421066 -0.122073464
0001d0 cf d2 2d bc fd 6e 62 3d b2 97 0c be 3c ac 61 be
       -0.010609343 0.055281628 -0.13729742 -0.22038358
0001e0 5a d4 dc bd a2 22 34 bd 27 05 d2 bd b3 4b ca bd
       -0.1078269 -0.04397834 -0.10254889 -0.0987772
0001f0 93 c6 7a be 77 51 b9 bd 7a 32 b7 bd 77 04 31 be
       -0.24489813 -0.09048741 -0.089451745 -0.1728686
000200 7b 3d 2f bd 1e d1 f8 bc 0f b1 3d bd 35 a6 1e bd
       -0.04278324 -0.030373152 -0.046311434 -0.038732726
000210 83 94 22 be 5a 47 25 be 32 36 01 bd 90 52 7b bd
       -0.15876965 -0.161405 -0.031545825 -0.061358035
000220 69 05 09 be 36 87 64 be d2 fa 3d bd 14 2f 27 be
       -0.1338097 -0.22317204 -0.04638178 -0.16326553
000230 dd 0c 60 bd 61 94 f3 bd 40 a4 4f be 53 4d 1e bd
       -0.054699767 -0.118935354 -0.202775 -0.03864796
000240 9b fe 7f be 00 7a e3 bd 3d b5 18 be f9 6e 63 bc
       -0.24999468 -0.11107254 -0.14912887 -0.013881438
000250 d9 8d 4f ba 50 63 70 3d aa 5f b1 bd db 9a 29 be
       -0.000791756 0.05868846 -0.086608246 -0.16562979
000260 39 55 78 be e6 ae 6f bd d9 a3 df 3d 31 7b 68 3b
       -0.2425126 -0.058516406 0.10919923 0.0035473818
000270 47 32 30 bd 9d 8f d8 3c dd eb b8 bd 21 fb e6 bd
       -0.0430167 0.026435668 -0.09029362 -0.11278368
000280 be e0 e4 3c 61 ab 4a bd 67 15 91 bd 7e 1d 07 be
       0.027939197 -0.049479846 -0.0708416 -0.13194844
000290 4c 07 14 be b3 a1 01 be c0 c8 84 bd 62 44 41 be
       -0.14455909 -0.1265934 -0.064836025 -0.18873742
0002a0 e4 03 61 be 2f 73 e6 bd 34 7f 11 be c1 9f d0 be
       -0.2197414 -0.11252438 -0.1420868 -0.40746883
0002b0 fe 66 28 bd c7 27 c4 bc 16 2b 44 be 2b c7 82 be
       -0.041113846 -0.023944749 -0.19157061 -0.25542578
0002c0 6f 2a 4d bb e9 64 80 bd 21 72 e7 bd 27 f7 04 be
       -0.003130581 -0.06269247 -0.11301065 -0.12984906
0002d0 d7 9c 51 be 21 bb 77 bd 81 2f 60 be 40 e1 88 bd
       -0.20469986 -0.060481194 -0.21893121 -0.06683588
0002e0 6d 22 0a be 19 a5 8e bd 05 dc 46 be 15 92 ae bd
       -0.13489695 -0.06965084 -0.19419868 -0.08523957
0002f0 e6 f4 15 3c 4f 80 18 be f1 30 5b bd 45 2c fa bc
       0.009152627 -0.14892696 -0.05351347 -0.030538687
000300 d5 d9 eb bd c0 36 7c bd ff 21 dc be 38 f2 42 be
       -0.115161575 -0.06157565 -0.42994687 -0.19037712
000310 a6 3c e0 bd ec 50 91 3c c8 70 89 bd c4 c1 8a bd
       -0.10949068 0.017738782 -0.067109644 -0.06775239
000320 52 87 17 be ab 1e 20 be bb 1d 2f be 42 15 f6 bd
       -0.14797714 -0.15636699 -0.17101185 -0.12015773
000330 9e 3c 39 be cb f8 d0 bd 2d 67 78 bd 67 77 2e be
       -0.1808953 -0.102037035 -0.06064527 -0.17037736
000340 71 aa 3e be 98 db 9e bd 12 72 0a be 23 48 b3 be
       -0.18619706 -0.07756728 -0.13520077 -0.35015973
000350 8b 99 5e bd 25 70 7d bd b3 9e 19 be 68 08 fd bd
       -0.05434565 -0.061874527 -0.15001945 -0.12355119
000360 3f a7 54 be ac 57 3f be fc 42 1c be eb b8 0f be
       -0.20766924 -0.18685788 -0.15259928 -0.14035384
000370 3d 88 c0 bd bf f7 84 be 42 7e 2f bd 78 4d 24 be
       -0.094009854 -0.25970265 -0.04284502 -0.16045177
000380 7e 8f af bd f0 5d ca bd b8 5c 91 bd 14 d5 30 be
       -0.08572291 -0.098811984 -0.07097763 -0.17268783
000390 64 a8 27 be 68 e0 23 be 67 85 55 bc fd 5c 0e be
       -0.1637283 -0.16003573 -0.013032294 -0.1390266
0003a0 86 54 c6 3b c7 9b ac bc 48 06 03 bd 36 9d 9f bd
       0.0060525564 -0.021070374 -0.031988412 -0.077936575
0003b0 28 43 bb bd 51 27 1f be a1 59 a3 bc 93 d8 ae 3b
       -0.091436684 -0.15542342 -0.0199402 0.0053358763
0003c0 86 54 db bd b3 85 39 bd 2b 7e 80 be 3d 01 66 be
       -0.10709481 -0.04529352 -0.2509626 -0.2246141
0003d0 ad 8d ef bd 33 6d 26 be a3 ec 97 be b8 2b 1a bd
       -0.116969444 -0.16252594 -0.29672727 -0.03763935
0003e0 27 fd d5 bd e2 a5 26 bd 6c c8 c4 bd 12 d8 9a bd
       -0.104486756 -0.040685542 -0.0960854 -0.075607434
0003f0 06 36 53 bd 8b 23 70 be b7 d6 11 bd f0 4f 44 be
       -0.051565193 -0.23451059 -0.03560516 -0.19171119

out_cat.weight f4 [2, 500]
000000 7d aa 04 3c 0d ee 0a bc c9 ff 25 3d 0d 3c 03 bd
       0.008097288 -0.008479607 0.04052714 -0.03203969
000010 e8 48 2a bd c4 f0 29 3c 5c f6 81 bd 92 18 2d 3d
       -0.041573435 0.010372344 -0.063458174 0.04225976
000020 34 6c fd bc 01 54 90 3c 9b 3c bf bc a5 6c 2e bc
       -0.030935384 0.017618181 -0.023344329 -0.01064602
000030 ba af 09 3e c0 35 12 3e a6 56 a6 3d 78 cc d6 3c
       0.1344594 0.14278316 0.08121996 0.026220545
000040 9e 12 72 bc 8f cd 4f bc e2 9e 4c 3e e3 5a 5e bc
       -0.0147749465 -0.012683286 0.19982484 -0.013571474
000050 27 cf af 3c 42 44 04 3d 11 ab f2 3b 03 18 b7 bc
       0.021461083 0.03229166 0.0074056466 -0.022350317
000060 53 8c fd 3c 3c 09 c4 bc 19 d8 da 3d 28 68 42 3e
       0.0309507 -0.023930185 0.106857486 0.18985045
000070 b6 48 9f 3d a4 fd 24 3c 2f b0 d7 bd 75 27 31 3d
       0.077775404 0.010070238 -0.10531651 0.04325052
000080 b1 ca 83 bd 4d 39 0c 3c 7e 8e 6f 3d a5 be a4 3d
       -0.06435145 0.008558583 0.0584855 0.08044175
000090 a9 8b 40 3e ee c9 9e bc c6 9b 41 bd c2 62 24 3d
       0.18803276 -0.019383397 -0.047267698 0.040133245
0000a0 36 53 63 3e 30 b2 2d 3d d3 1a 8e bc 35 b8 f3 3c
       0.22199711 0.04240626 -0.017346775 0.029750923
0000b0 97 60 93 bb 38 1d 13 3e e3 2b 28 3c 2a 98 1a bd
       -0.0044975984 0.14366615 0.01026437 -0.03774277
0000c0 8f d5 dc bd 99 7f f9 3d 5d 02 bc 3c b6 df 5e 3d
       -0.107829206 0.121825404 0.022950346 0.054412566
0000d0 7c 21 89 bc fb 56 07 be 24 6f a8 bb 81 eb df 3c
       -0.0167396 -0.13216774 -0.005140202 0.027333977
0000e0 85 e5 c7 3c 3a e7 20 3c 05 6d eb 3c 9f 17 a3 3c
       0.024401436 0.009820754 0.028738508 0.019908724
0000f0 4b 3f ef 3c 64 22 b8 3d 6a cf fb bc f3 bf bd bc
       0.029204985 0.089909345 -0.030738551 -0.023162818
000100 8e ef 8a bc 8f 55 90 3c a0 1e 14 3e 5c 14 b1 3d
       -0.016959932 0.017618923 0.14464808 0.08646461
000110 f8 c3 a0 3d 89 50 9e bd c4 e1 93 3c ef 30 cb 3a
       0.07849878 -0.077302046 0.01805199 0.0015502254
000120 16 c1 99 3c a8 f5 89 3d b3 5a 66 3e ea 1a 7f bd
       0.018768828 0.06736308 0.22495537 -0.062281527
000130 9b 1c 62 bd 64 9c ee bc dd a4 6e 3d 9d 16 11 3c
       -0.05520306 -0.029127307 0.058262695 0.008855489
000140 0b d7 37 3d 9c 10 21 3d fc c9 97 bd 96 5a 19 bd
       0.044882815 0.03932248 -0.07411572 -0.037439905
000150 58 0b 25 3c c6 01 10 3c 43 87 c7 3b 45 fa 3b bc
       0.010073505 0.008789485 0.0060891225 -0.011473243
000160 dd a3 f1 3b 1f fe f3 3d bb ea cb 3b 1a 2a 56 3d
       0.0073742704 0.11913704 0.0062230504 0.052286245
000170 68 d6 e6 bc 15 ac 81 3d e0 92 24 3e e8 d1 34 bc
       -0.028178409 0.0633165 0.16071653 -0.011036374
000180 7c 2c 8f bc bf e1 08 bd b3 4b 8c bd ba b9 95 3d
       -0.017477266 -0.033418413 -0.06850376 0.07310815
000190 be d8 b7 bd 99 11 f8 3d 53 0f 82 bc 9b 2e 9f 3c
       -0.08976887 0.121127315 -0.015876448 0.019431403
0001a0 0d 88 b6 3d ec 51 1f 3d 32 d4 d2 bd 92 a6 48 3d
       0.089126684 0.038896486 -0.10294379 0.04898698
0001b0 db 9e 38 3c 32 11 af 3c 31 96 0e 3d c4 e4 d0 3b
       0.011268343 0.021370504 0.034811202 0.0063749272
0001c0 2b 57 97 bc 7b 13 d8 3c 7d 6f c8 bc c5 d0 9e 3d
       -0.018474182 0.026376477 -0.024467224 0.077546634
0001d0 7c 45 14 3e 68 aa a3 bc 7a 14 42 3c e1 c6 45 3d
       0.14479631 -0.019978717 0.011845702 0.04828537
0001e0 e8 fc 89 3d b4 38 92 bd 29 3f b3 3b 1e 88 fe bd
       0.06737691 -0.071397215 0.0054701758 -0.12428306
0001f0 42 22 2d 3e d4 97 e6 bc f1 5b 81 bd 6f 8f a6 bd
       0.169076 -0.02814857 -0.063163646 -0.081328265
000200 b3 2e 7f bc 3c 4b 85 bd 02 62 b6 bb 27 94 f2 bd
       -0.015575099 -0.065084904 -0.0055658827 -0.11844664
000210 c0 f8 a2 bd cc 75 0b bd cf 0a 38 3d a0 97 7b 3c
       -0.079576015 -0.034047887 0.044932183 0.015355974
000220 4e b0 a0 3d 71 6f 06 3d 27 e0 9c 3d 12 2a 22 3c
       0.078461275 0.032821123 0.07659941 0.009897726
000230 40 4a cf 3d 18 09 39 3d b3 3b f3 3d c7 3e 22 3d
       0.10121584 0.045174688 0.11876621 0.03961065
000240 68 6b aa 3d 71 d6 31 3e 4f b1 cb 3d 15 f4 1a bd
       0.08321267 0.17366959 0.09945928 -0.03783043
000250 d1 3b c4 bc ea f3 c9 bd a8 56 cf bb d1 85 bb 3d
       -0.023954304 -0.09860976 -0.006327469 0.09156383
000260 af 7e e4 bd 64 a0 a6 3d c8 e2 4f bc e2 14 82 3e
       -0.111569755 0.08136061 -0.012688346 0.25406557
000270 d6 c0 ab 3d 6d 4f ab 3c 8a e3 e4 3b 31 57 96 3c
       0.0838639 0.020911897 0.0069851326 0.018352123
000280 b9 17 97 3b 26 24 10 bd ca 30 16 b9 ab 3f 4a 3c
       0.0046109823 -0.035190724 -0.0001432329 0.012344281
000290 a1 05 48 bd 1d ad 8d 3c 01 68 15 3b 30 58 06 bd
       -0.048833493 0.01729446 0.0022797587 -0.032798946
0002a0 bd 91 c6 3d 89 54 1e 3e 3e 65 d4 3b 41 15 12 3d
       0.09695766 0.15461935 0.0064817956 0.0356648
0002b0 e1 10 0c bb ba 0d c5 3d d0 c2 01 3e 15 c6 2a 3e
       -0.0021372365 0.09621759 0.12671971 0.16677125
0002c0 1d ba 41 bb ab b9 48 3d f2 bf a5 3d 1b 53 b5 bc
       -0.0029560395 0.04900519 0.08093251 -0.022134354
0002d0 58 83 14 3c 55 b5 be bc a9 5c ab 3d ee e7 37 3e
       0.009064518 -0.023279825 0.08367283 0.17959568
0002e0 68 8f d8 bc 27 51 d2 3c a4 d9 1d 3d af 1e 76 bd
       -0.026435569 0.025673462 0.038537636 -0.060087856
0002f0 41 b2 73 bd 58 b0 bd bb c1 d7 9f 3a 31 1f e4 bc
       -0.059496168 -0.005788844 0.0012195037 -0.027846904
000300 09 58 ed 3d 7a 73 78 bc 16 b1 d8 bb 54 c1 e2 3d
       0.11589057 -0.0151642505 -0.006612907 0.11072031
000310 4f d6 0e 3c 84 9c 27 bd 9d 1a f9 3c 53 03 f8 3c
       0.008718087 -0.04092075 0.030408198 0.030275023
000320 0b b5 2d bd f9 58 8f 3d 37 b2 6b 3c 04 7b 88 3d
       -0.042408984 0.06999392 0.014385751 0.06664088
000330 49 18 00 3e 36 1f 31 3d 2c f2 35 bd 7d c6 40 3d
       0.12509264 0.043242656 -0.044420406 0.047064293
000340 2b c5 33 3d c6 fc b2 39 3c 92 bd 3b 9f 60 2b 3d
       0.043889206 0.00034139137 0.0057852548 0.041840192
000350 65 0d 89 bd b8 b4 72 bd 26 c4 c6 bd 61 32 24 3c
       -0.06692008 -0.059254378 -0.09705381 0.010021777
000360 74 6d 44 bd 56 3e c2 bc 6a c5 2d 3e ca a4 84 3d
       -0.047955945 -0.023711365 0.16969839 0.064767435
000370 10 8b 81 3b 3e d8 42 3d 5a 46 50 3d 51 62 b5 3d
       0.003953345 0.047569506 0.050848342 0.08856643
000380 56 19 cf 3b 20 9d d5 3c cb 0d ae 3d 1f a8 3f bd
       0.006320159 0.0260759 0.084987246 -0.046791192
000390 27 26 8d 3d e8 96 6a bc f9 ba 32 bd 72 13 3b 3d
       0.068920426 -0.014318205 -0.043635342 0.04567284
0003a0 44 51 38 3e 5f cd ad bb b3 f9 ac bb 93 0c 88 bc
       0.1799975 -0.005304023 -0.00527879 -0.016607558
0003b0 28 6e 23 bb 84 d7 8c 3d 21 e1 03 be 28 85 67 bd
       -0.0024937484 0.06877044 -0.12878849 -0.056523472
0003c0 c6 2b a2 3c c0 1b fc bc c7 5a 6d 3d 24 6b 63 bd
       0.019796263 -0.030774951 0.0579479 -0.0555221
0003d0 35 e4 aa bc c2 f1 ab 3a cd 15 61 3e c0 13 71 bd
       -0.02086077 0.0013118314 0.21980973 -0.058856726
0003e0 b8 a0 22 3d 2a 94 80 3d 46 6e 02 3d b2 5d 55 bd
       0.039704055 0.0627826 0.031843446 -0.052091308
0003f0 76 04 63 bc 2a 03 73 bc 81 9f 32 bd 30 fa 6d bc
       -0.013856044 -0.014832297 -0.043609146 -0.014524981

out_cat.bias f4 [2]
000000 1b b2 02 be 98 5c d4 3d
       -0.12763254 0.10369223
