models/ncls2-dex50/scenario1_epoch118.pt (torch, 845995 bytes, 6 tensors)

inp.fc.weight f4 [600, 49]
0	0x3d4b182e	0.049583606
1	0xbe210f7b	-0.15728562
2	0xbe22a601	-0.15883638
3	0x3d2ab978	0.041680783
4	0xbdcacad6	-0.09901969
5	0xbdf042ba	-0.11731477
6	0x3d898aa8	0.067159
7	0xbe2d58c6	-0.16928396
8	0x3cb829a5	0.022480795
9	0xbd9e8557	-0.07740276
10	0x3c69678e	0.014245881
11	0x3d7f0609	0.062261615
12	0xbdf9d895	-0.12199513
13	0xbcd1ae41	-0.025595786
14	0xbdc86935	-0.09785692
15	0x3d224b30	0.039622486
16	0xbc5f8795	-0.013643165
17	0x3d69b49f	0.05705702
18	0x3e07ef23	0.13274817
19	0x3cdf2c4d	0.027242804
20	0x3e59ee2b	0.2128226
21	0xbc33c3e1	-0.010971994
22	0x3dfff65f	0.124981634
23	0xbbe33d74	-0.006934816
24	0xbdad6bd1	-0.0846783
25	0x3e12fbe3	0.143539
26	0x3c052e75	0.008128752
27	0x3da55d4a	0.08074434
28	0xbd525e9b	-0.051359754
29	0xbdd70b15	-0.105001606
30	0x3e398eda	0.181209
31	0x3d842e78	0.06454176
32	0xbde2731d	-0.11057112
33	0x3cb28312	0.021791015
34	0x3d014cba	0.031567313
35	0xbe04d959	-0.12973537
36	0x3dd0918e	0.10184012
37	0x3df4aea9	0.11947376
38	0x3d940f4b	0.072294794
39	0xbe081e48	-0.13292801
40	0x3d133177	0.035935845
41	0x3dd34d7a	0.10317512
42	0x3ccb619c	0.024826817
43	0xbdb48972	-0.08815278
44	0xbe001a94	-0.12510139
45	0x3e16f1cb	0.14740674
46	0xbd4be2b7	-0.04977676
47	0x3da438fc	0.080186814
48	0xba586800	-0.00082552433
49	0xbddfe916	-0.109331295
50	0x3dbb79a7	0.09154063
51	0x3d9936df	0.07481169
52	0xbdb62477	-0.08893674
53	0x3d3f1e63	0.04665984
54	0xbdcd8d88	-0.100367606
55	0x3ddd217d	0.10797403
56	0xbdcdca39	-0.100483365
57	0xbe0eea35	-0.1395653
58	0x3e114991	0.1418822
59	0x3db5f041	0.088837154
60	0x3e131400	0.14363098
61	0x3d09e0d5	0.033661682
62	0x3d9d65f0	0.07685459
63	0x3da309e9	0.079608746
64	0xbe1f064c	-0.15529746
65	0x3d0fa7e9	0.03507224
66	0x3da20c42	0.07912494
67	0x3dc1d12f	0.09463727
68	0xbdbca8e5	-0.092119016
69	0xbd905ae4	-0.07048586
70	0xbe23aab2	-0.15983084
71	0x3d991937	0.074755125
72	0xbda75801	-0.08171082
73	0xbdae57f6	-0.08512871
74	0xbcb2efc3	-0.021842843
75	0x3e010f75	0.12603553
76	0xbdcb9967	-0.099413686
77	0xbbd25368	-0.006418634
78	0x3e095ebc	0.13415045
79	0x3e362423	0.17787223
80	0xbd0a80b9	-0.033814166
81	0xbd9f17bf	-0.07768201
82	0xbcdb85fc	-0.026797287
83	0x3dd5a760	0.10432315
84	0x3d2d9348	0.042376786
85	0xbc672c7c	-0.014109727
86	0xbd129ad6	-0.035792194
87	0xbc95cce6	-0.01828618
88	0x3db510a7	0.08841067
89	0xbdb218e6	-0.08696155
90	0xbcf5e042	-0.030014161
91	0xbe00b2fe	-0.1256828
92	0x3ccf9d26	0.025343489
93	0xbbf93dae	-0.0076062297
94	0xbd9f621e	-0.07782386
95	0x3dac4dcd	0.08413277
96	0x3d5251ce	0.051347546
97	0xbba493d5	-0.0050225058
98	0x3e0a8a0c	0.13529223
99	0x3d6b840e	0.057498984
100	0xbe35314a	-0.17694584
101	0x3d642b18	0.05570516
102	0x3de0ec07	0.10982519
103	0xbdf4a539	-0.11945576
104	0xbe08811f	-0.13330506
105	0x3cec6625	0.0288573
106	0x3e48908d	0.19586392
107	0xbccb7ec8	-0.024840727
108	0x3e5fdd61	0.21861793
109	0xbbc48be5	-0.005998122
110	0x3d61e03d	0.05514549
111	0x3de46311	0.11151708
112	0x3e4bda41	0.19907476
113	0x3bb7330a	0.005590801
114	0x3c421836	0.011846593
115	0x3d7f749b	0.062367063
116	0xbdfd7cdb	-0.1237733
117	0xbe4384a4	-0.19093567
118	0x3d8f81f6	0.0700721
119	0xbe506825	-0.20352228
120	0x3d04438c	0.03229098
121	0xbb9635b6	-0.0045840396
122	0x3d7aff11	0.061278407
123	0x3c64bd8a	0.013961205
124	0xbd107b36	-0.035273753
125	0xbd9b58dd	-0.07585309
126	0xbdfcd6bf	-0.12345647
127	0xbddc8420	-0.10767388
128	0x3ca15352	0.01969305
129	0xbd0b76c9	-0.03404883
130	0x3cc6069c	0.024173073
131	0xbd646704	-0.055762306
132	0xbc2c96f9	-0.010534042
133	0x3d49f1a5	0.049302716
134	0x3e1bf244	0.15229136
135	0xbd92e656	-0.07172839
136	0xbcdc1fac	-0.026870571
137	0x3c7f3a34	0.015577842
138	0x3e29ec07	0.16593944
139	0xbded84c6	-0.1159759
140	0xbd298e4d	-0.041395474
141	0x3d92e8cc	0.07173309
142	0xbd733211	-0.05937392
143	0x3d27fdad	0.04101341
144	0xbe691756	-0.22762808
145	0xbd0b5209	-0.03401378
146	0xbd04610a	-0.032319106
147	0xbd927fa7	-0.07153254
148	0x3d4bec64	0.049785987
149	0xbce977ce	-0.02849951
150	0x3d51b8af	0.05120152
151	0x3cc92bf8	0.024557099
152	0x3d032e75	0.032026727
153	0x3e5ac1e9	0.21363033
154	0x3daadcd9	0.083429046
155	0xbe1b7d6b	-0.15184562
156	0xbde756ab	-0.112958275
157	0x3e028079	0.12744321
158	0xbc778ef1	-0.0151097635
159	0x3d94398f	0.07237541
160	0x3d82b7b8	0.06382698
161	0xbdfbd05c	-0.12295601
162	0xbdc90f7a	-0.09817405
163	0x3dc20356	0.094732925
164	0x3df1fb2e	0.11815487
165	0xbdff9b95	-0.12480847
166	0x3d2959f7	0.041345563
167	0xbc5059bb	-0.012716706
168	0x3e05c6a4	0.13064057
169	0x3d6e17b5	0.058128078
170	0xbdb9a6f8	-0.0906505
171	0x3da5ab39	0.08089299
172	0x3d3c2a1f	0.045938607
173	0xbe02563a	-0.12728205
174	0x3d40e8f5	0.047097165
175	0x3d8be69b	0.06831094
176	0x3c17c10c	0.009262335
177	0x3d1bdd40	0.038052797
178	0x3e0bcfce	0.1365349
179	0x3e3b173a	0.18270579
180	0xbdcf066c	-0.10108647
181	0xbd4fa73c	-0.050696597
182	0xbe291b66	-0.16514358
183	0xbc5a7573	-0.013333666
184	0x3d8849d3	0.06654706
185	0xbbde06f1	-0.00677573
186	0xbd674533	-0.056462478
187	0x3d929983	0.07158186
188	0x3e013e15	0.12621339
189	0x3da8f1ee	0.082492694
190	0x3d7cfc8a	0.061764278
191	0xb97f9c3e	-0.000243769
192	0xbdd71f8a	-0.105040625
193	0x3c7f716e	0.015591009
194	0xbd190b76	-0.037364446
195	0xbda46e34	-0.08028832
196	0xbd9c0396	-0.076178715
197	0x3cc422b0	0.023942322
198	0x3d850ccc	0.064965814
199	0x3def94eb	0.11698326
200	0xbded20ec	-0.11578545
201	0xbd549d4d	-0.051907826
202	0xbd7eab19	-0.06217489
203	0xbd71c62a	-0.059026875
204	0x3d68cb22	0.056834348
205	0xbdbad717	-0.091230564
206	0xbe1da205	-0.15393837
207	0xbdb0b638	-0.086285055
208	0xbdd61894	-0.10453907
209	0xbd4c03c6	-0.049808286
210	0x3e2a52e3	0.16633181
211	0xbe2243e1	-0.15846206
212	0x3cfec2db	0.031098774
213	0xbe0766b1	-0.13222767
214	0x3e0f0fd0	0.13970876
215	0x3c96ea81	0.018422367
216	0x3e6ae4b7	0.2293881
217	0xbcbb54a7	-0.022867514
218	0xbd7203cf	-0.059085663
219	0xbd7f196d	-0.062280107
220	0xbd072503	-0.03299428
221	0x3dce8cfb	0.10085484
222	0xbd8e5aa4	-0.06950882
223	0xbbc7e3a3	-0.0061001345
224	0xbe173318	-0.14765584
225	0xbd913d09	-0.0709172
226	0xbb9c7400	-0.0047745705
227	0x3e62eb6c	0.22160119
228	0xbe2cd2f3	-0.16877346
229	0x3ce0f2fe	0.027459618
230	0x3c39c587	0.011338598
231	0xbc87cd25	-0.016577313
232	0x3df57404	0.11985019
233	0xbc5c643c	-0.013451632
234	0x3db11c6e	0.08648001
235	0xbdb62b20	-0.08894944
236	0xbe1c7b10	-0.1528132
237	0x3e6e78da	0.23288289
238	0x3b957cda	0.0045620026
239	0x3e943edd	0.2895421
240	0xbe0419cb	-0.12900464
241	0x3cbc3d92	0.022978578
242	0xbd2831d4	-0.041063145
243	0x3d1d4a4e	0.03840094
244	0xbdaca94f	-0.084307306
245	0x3c1cb726	0.00956515
246	0xbe023de0	-0.12718916
247	0x3d83cd00	0.06435585
248	0x3df9408d	0.12170515
249	0xbd48b8f0	-0.049004495
250	0x3e1c9259	0.15290202
251	0x3d243e76	0.04009863
252	0x3c1e2420	0.009652168
253	0xbd88aafc	-0.06673238
254	0xbe3d8dac	-0.18511075
255	0x3dc20ad6	0.09474723

inp.fc.bias f4 [600]
0	0x3dd4980e	0.10380565
1	0x3d2ae72b	0.041724365
2	0xbe0ae85f	-0.13565205
3	0xbe4ef41c	-0.20210308
4	0xbca6020d	-0.02026465
5	0x3b936fb7	0.0044994014
6	0xbe3dadd9	-0.18523349
7	0x3c2c9b82	0.010535123
8	0xbd5c4a8d	-0.053782035
9	0xbdbfd5bd	-0.09366939
10	0xbd4d2576	-0.050084554
11	0xbe485a1a	-0.19565621
12	0x3c46c560	0.012132019
13	0x3bd1db51	0.0064043184
14	0xbc3b53e5	-0.011433576
15	0xbdc9ae05	-0.09847645
16	0xbe11236b	-0.14173667
17	0x3bb312b8	0.005464878
18	0x3d0cba92	0.034357615
19	0x3d072e6d	0.03300326
20	0x3d46ce1c	0.048536405
21	0xbda47512	-0.08030142
22	0x3d0231ec	0.03178589
23	0xbd5cd189	-0.053910766
24	0xbdf2c794	-0.11854473
25	0xbd18d5f7	-0.037313428
26	0xbb22c2bc	-0.002483531
27	0xbde909de	-0.11378835
28	0x3d06c914	0.032906607
29	0xbd2d7e8d	-0.042357016
30	0xbe27cbf5	-0.16386397
31	0x3cc2a6ad	0.023761118
32	0xbae5482d	-0.0017492824
33	0x3d2c659f	0.0420891
34	0xbe2c693e	-0.16837022
35	0xbe265da4	-0.16246659
36	0xbd91f39c	-0.07126543
37	0xbdb7ad1a	-0.089685634
38	0xbd8b2fa9	-0.067962
39	0xbe0955ae	-0.1341159
40	0x3d90db9a	0.07073136
41	0x3d1cecfe	0.03831195
42	0xbdccd86d	-0.100022174
43	0xbdc11213	-0.094272755
44	0x3ce0bf27	0.027434899
45	0xbdef563e	-0.11686371
46	0x3d686ffb	0.056747418
47	0xbe39f632	-0.18160322
48	0x3cb4c324	0.022065707
49	0x3d1a5683	0.03768016
50	0x3bcdb34f	0.0062774788
51	0x3da3cffb	0.079986535
52	0xbe5a397e	-0.21310994
53	0x3d8b1108	0.06790358
54	0xbd62a2ec	-0.055331156
55	0x3d1c3695	0.03813799
56	0xbd3892c4	-0.04506184
57	0xbe625542	-0.22102836
58	0xbdbc0d24	-0.09182194
59	0x3cfd340f	0.030908613
60	0x3d18447c	0.037174687
61	0xbe1e09df	-0.15433453
62	0xbdcbb9cc	-0.09947547
63	0x3ce18f15	0.027534047
64	0xbd74251d	-0.059605706
65	0x3b9a45df	0.0047080363
66	0x3c121602	0.00891638
67	0x3c282371	0.010262356
68	0xbcfd1f9e	-0.030898865
69	0x3d5b2558	0.05350241
70	0xbdc9cc2d	-0.098533966
71	0x3a428328	0.00074200565
72	0x3dd3d517	0.10343378
73	0x3d3c1c8e	0.04592567
74	0xbe2f45e6	-0.17116508
75	0x3d1998e0	0.03749931
76	0xbe5dd26f	-0.21662305
77	0xbd3f6bf5	-0.046733815
78	0x3df0f7c5	0.11766008
79	0x3dc23693	0.094830655
80	0xbe299df4	-0.1656416
81	0xbe040084	-0.12890822
82	0xbd72e399	-0.059299085
83	0xbded7297	-0.11594122
84	0xbc1e04b9	-0.009644681
85	0xbbfba59b	-0.007679654
86	0xbd2f9070	-0.042862356
87	0xbcb8cd6e	-0.022558894
88	0x3da2f878	0.07957548
89	0xbdfe96e0	-0.12431121
90	0xbddd2089	-0.10797221
91	0xbe088e8a	-0.13335624
92	0x3d0040ea	0.031311907
93	0xbd9d3d4d	-0.07677708
94	0xbe4614f3	-0.19343929
95	0xbe021a4f	-0.12705348
96	0xbdf4486b	-0.11927875
97	0xbe163a59	-0.14670695
98	0xbe13f965	-0.14450605
99	0x3d991e0e	0.074764356
100	0xbe4c03a2	-0.19923261
101	0xbd8e7a1a	-0.06956883
102	0xbcd1ab6e	-0.02559444
103	0xbd61317f	-0.054978844
104	0xbe2239ae	-0.15842316
105	0xbdc1bd71	-0.09459961
106	0xbdfa2a56	-0.12215106
107	0xbd65b3c8	-0.056079656
108	0x3d46f4c8	0.048573285
109	0x3ca173dd	0.019708568
110	0xbda141b0	-0.07873857
111	0xbde78d61	-0.11306263
112	0xbe48bd0b	-0.19603364
113	0xbddb1df3	-0.10699072
114	0xbe04119b	-0.12897341
115	0xbd7add29	-0.06124607
116	0x3d226e5a	0.03965602
117	0x3e35043b	0.17677395
118	0x3d2755d5	0.04085334
119	0xbd56cf5d	-0.05244385
120	0xbd99b17c	-0.075045556
121	0xbe332c7d	-0.1749744
122	0xbe009ec5	-0.12560566
123	0xbb758fcf	-0.003746975
124	0xbd0c9b62	-0.034327872
125	0xbe2ff167	-0.17181931
126	0xbdf25049	-0.118317194
127	0xbda1d45f	-0.07901835
128	0xbe068f62	-0.13140634
129	0x3daae8bd	0.083451726
130	0xbe1e9d9c	-0.1548981
131	0xbe4d41a9	-0.20044579
132	0xbda4d62e	-0.08048664
133	0xbe1bf230	-0.15229106
134	0xbd45f37b	-0.048327904
135	0x3dd9c677	0.10633557
136	0x3cf43200	0.029808998
137	0x3c13be6f	0.009017571
138	0xbc85859f	-0.016299067
139	0xbe278c1c	-0.16362041
140	0x3d2c77b1	0.042106334
141	0xbe137de3	-0.1440349
142	0xbd1a2997	-0.03763732
143	0xbd2bfdea	-0.0419902
144	0xbb560620	-0.003265746
145	0x3c88cc30	0.016698927
146	0x3dc28175	0.09497348
147	0x3b0401cb	0.002014267
148	0xbd62775b	-0.055289607
149	0xbe012fd5	-0.12615903
150	0xbd83b95b	-0.06431838
151	0x3d8e5f88	0.06951815
152	0xbde3d537	-0.11124652
153	0xbcd7ef08	-0.026359096
154	0xbccd967d	-0.025096172
155	0x3cf56868	0.029957011
156	0xbcf7b48d	-0.03023746
157	0xbbe437d2	-0.006964662
158	0xbdf21155	-0.11819712
159	0xbdb2c6cd	-0.087293245
160	0x3d78b659	0.060720775
161	0xbd6e2f9d	-0.058150876
162	0x3d67bee2	0.056578524
163	0xbd571a0c	-0.052515075
164	0xbb046853	-0.0020203784
165	0xbce5e337	-0.028062446
166	0x3dd136dd	0.102155425
167	0x3dff8ef4	0.12478438
168	0xbe1178ac	-0.14206189
169	0xbcb05326	-0.021524023
170	0x3d128956	0.035775505
171	0xbdfe7653	-0.12424912
172	0xbdfae16a	-0.122500256
173	0xbe2b6553	-0.16737871
174	0xbe36b0dc	-0.17840904
175	0xbe1d9501	-0.15388872
176	0xbca27509	-0.019831197
177	0xbb08eccc	-0.0020893095
178	0xbb348ea4	-0.002755084
179	0xbc3e674e	-0.011621309
180	0xbe2168c2	-0.15762618
181	0xbe33d17c	-0.1756038
182	0xbcf25ddc	-0.029585771
183	0x3c02911e	0.007969169
184	0xbc3f9fcb	-0.011695812
185	0xbdd9eada	-0.106404975
186	0xbd1df731	-0.03856582
187	0xb9ed66c2	-0.00045280723
188	0x3ccab5a1	0.02474481
189	0xbe0d58e9	-0.13803448
190	0xbdad5cc3	-0.084649585
191	0xbe1c56f9	-0.15267552
192	0xbd1c709f	-0.03819334
193	0x3d4d641a	0.050144292
194	0xbc9802d5	-0.018556038
195	0xbdfe0811	-0.12403882
196	0x3d9070e8	0.07052785
197	0x3d17e3d2	0.0370825
198	0x3df5a90c	0.11995134
199	0xbe447a6a	-0.19187322
200	0xbd713cab	-0.058895748
201	0x3cc13103	0.02358294
202	0xbc8eda51	-0.017438086
203	0x3e17ccaa	0.14824167
204	0x3c788950	0.015169457
205	0x3d5d89f0	0.054086626
206	0xbe1c7130	-0.15277553
207	0xbda7c4aa	-0.081918076
208	0x3d909c00	0.07061005
209	0xbd9880b3	-0.074464224
210	0x3d02d9b6	0.031945907
211	0xbe1ff215	-0.1561969
212	0x3d69d429	0.057087097
213	0xbda642f0	-0.08118236
214	0xbe6cb87a	-0.23117247
215	0xbd4c09b4	-0.04981394
216	0xbde74407	-0.11292272
217	0xbe559170	-0.20856261
218	0x3c90e519	0.017687367
219	0xbc2b9fd0	-0.010475114
220	0xbbfb80a0	-0.0076752454
221	0x3d5fa7b9	0.054603312
222	0xbdb80476	-0.08985226
223	0xbdf830eb	-0.12118705
224	0xbdba253c	-0.09089133
225	0xbd32c0f0	-0.04364103
226	0xbde1fba8	-0.11034328
227	0x3e0b7a8f	0.13620971
228	0xbe13c259	-0.14429606
229	0xbe184898	-0.14871442
230	0xbe136ac8	-0.14396203
231	0x3cd64be0	0.026159227
232	0xbe536d43	-0.20647149
233	0xbd93d9c3	-0.07219269
234	0x3d5a93f0	0.05336374
235	0x3dd0ae41	0.10189486
236	0xbd36ef9a	-0.044662096
237	0x3d3bc87f	0.045845505
238	0xbd1546cd	-0.036444474
239	0x3d1bbf86	0.038024448
240	0xbc2a9298	-0.010410927
241	0x3c337382	0.010952832
242	0xbe10ae16	-0.14128909
243	0xbdcacb1d	-0.09902022
244	0xbccade50	-0.02476421
245	0xbddce037	-0.10784953
246	0x3d464de4	0.048414126
247	0x3d6a9a4d	0.05727606
248	0xbd982cc5	-0.07430414
249	0xbd9fc894	-0.07801929
250	0xbdad70c1	-0.08468772
251	0xbe274147	-0.16333495
252	0xbde2e6cf	-0.110791795
253	0x3cac4482	0.02102876
254	0xbdc5cc73	-0.09658136
255	0x3d4dd3bd	0.050250757

layers.0.fc.weight f4 [300, 600]
0	0xbdbbf40a	-0.09177406
1	0xbd66ae98	-0.05631885
2	0x3c481da2	0.012214096
3	0x3ced9c48	0.029005185
4	0x3d6caf03	0.05778409
5	0x3d93dcc5	0.07219843
6	0xbddae950	-0.10689032
7	0x3d7e31c3	0.062059175
8	0xbd1ba3c9	-0.037997995
9	0x3bc883c7	0.0061192247
10	0x3b71ac85	0.0036876511
11	0x3d7f4d8f	0.062329825
12	0xbe08e1b8	-0.13367355
13	0xbb67367f	-0.0035280285
14	0x3c5c88b0	0.013460323
15	0x3dcbcfa4	0.09951714
16	0x3d796b1d	0.060893167
17	0xbd0751e0	-0.033037066
18	0x3d81f047	0.063446574
19	0x3ce73af5	0.028226355
20	0x3d439eb9	0.04775879
21	0x3c96b7d7	0.018398209
22	0x3d04b1ce	0.03239613
23	0xbdbc532b	-0.091955505
24	0xbcb6a670	-0.02229616
25	0xbc6e2e9a	-0.014537478
26	0x3db8cb04	0.09023097
27	0xbd77cee9	-0.06050006
28	0xbcd073b9	-0.025445806
29	0x3c13fd64	0.009032581
30	0x3d94314d	0.07235966
31	0x3d2c0d65	0.04200496
32	0xbdbbed19	-0.09176082
33	0x3ae947a3	0.0017797839
34	0x3d0c3a03	0.03423501
35	0x3d99b4e8	0.07505208
36	0xbd1e8fb8	-0.03871128
37	0x3d291825	0.04128279
38	0xbd3b8c78	-0.04578826
39	0x3db78c52	0.08962311
40	0xbd5de4b0	-0.05417317
41	0x3de14fe9	0.1100157
42	0x3b1e1fff	0.0024127958
43	0xbcdadb7a	-0.026715983
44	0xbc6530c8	-0.013988681
45	0x3dab596d	0.08366666
46	0x3c633332	0.013867186
47	0xbd1d2c84	-0.03837253
48	0xbd721ae9	-0.059107695
49	0x3ce5995e	0.028027233
50	0x3d986a0c	0.07442102
51	0xbdbc0c9c	-0.091820925
52	0xbd272644	-0.040807977
53	0xbc469a4e	-0.01212175
54	0x3a463765	0.0007561355
55	0xbd8751b4	-0.066073805
56	0xbba28e69	-0.0049608243
57	0x3ca2c432	0.019868944
58	0xbd3e8c1a	-0.04652033
59	0x3e094768	0.13406146
60	0xbe026594	-0.12734061
61	0x3afd58cf	0.0019328835
62	0x3d68c4a8	0.05682817
63	0x3daa5c51	0.08318389
64	0xbc8a6c40	-0.01689732
65	0x3d1fec56	0.039043747
66	0x3bedda51	0.0072586914
67	0x3cbe18a8	0.023205116
68	0xbd8d3d38	-0.06896442
69	0x3d4a4116	0.049378477
70	0xbd3f9b1d	-0.046778787
71	0x3bb0cac6	0.005395266
72	0x3d6a273c	0.057166323
73	0xbd0f6c7f	-0.03501558
74	0xbc27a608	-0.010232456
75	0x3d867b57	0.06566494
76	0x3ca023a5	0.019548247
77	0x3c994acd	0.018712426
78	0x3d11b924	0.035576954
79	0x3d428938	0.047494143
80	0x3dddb4d8	0.10825509
81	0x3dd242eb	0.1026667
82	0x3db4f260	0.08835292
83	0x3d0b128d	0.03395324
84	0x3dbfef3e	0.09371804
85	0x3cc08fdc	0.023506097
86	0x3d251c33	0.040310096
87	0x3ce855a0	0.028361142
88	0xbd8c7ef4	-0.06860152
89	0xbc6f6fc4	-0.014614049
90	0xbd4f7743	-0.050650846
91	0xbdb94621	-0.09046579
92	0x3dc61883	0.09672644
93	0xbd4a479c	-0.0493847
94	0x3d129cec	0.035794184
95	0x3cc31b34	0.023816682
96	0xbd22d9ef	-0.03975862
97	0xbb6a9aa3	-0.0035797737
98	0x3d29742f	0.041370567
99	0x3c88079a	0.016605187
100	0x3d89a1f2	0.06720342
101	0xbd0312e7	-0.03200045
102	0x3dd2ead6	0.10298698
103	0xbce3a577	-0.02778886
104	0x3d8e644d	0.069527246
105	0xbc2eae80	-0.010661721
106	0x3bcedea6	0.006313163
107	0x3d5b2bb8	0.05350849
108	0x3c85231e	0.016252097
109	0x3d97f2a0	0.07419324
110	0xbd390445	-0.045170087
111	0x3c22762b	0.009915869
112	0xbdea6ff2	-0.11447133
113	0x3c20e236	0.009819558
114	0xbc42900f	-0.011875167
115	0x3dc67bc4	0.09691575
116	0xbdb47efb	-0.08813282
117	0x3d5d44f9	0.054020856
118	0xbd6b1b32	-0.057398982
119	0xbd2c2321	-0.04202569
120	0x3d280715	0.04102238
121	0x3db0576a	0.08610423
122	0x3c8e3ab7	0.017361982
123	0xbcb05bfd	-0.021528238
124	0x3da5aaa6	0.08089189
125	0xbcbbde9d	-0.022933299
126	0x3d06abe2	0.032878764
127	0xbb99720c	-0.004682785
128	0x3cce6158	0.025192901
129	0x3d5754bf	0.052571055
130	0xbc221006	-0.009891516
131	0x3bf15dea	0.0073659318
132	0xbd155477	-0.036457505
133	0xbcb8b0a0	-0.022545159
134	0x3b9f833c	0.0048679393
135	0x3d29f114	0.041489676
136	0xbc1f9e11	-0.009742276
137	0x3d6ad19a	0.057328798
138	0xbbbee9fe	-0.005826234
139	0xbd479828	-0.048729092
140	0x3dbd9b25	0.09258107
141	0xbc1b2ba5	-0.009470855
142	0xbdd65f91	-0.104674466
143	0xbd358bbe	-0.04432272
144	0x3da9528f	0.082677
145	0xbc85c7e7	-0.016330672
146	0x3d91f3ed	0.07126603
147	0x3d20ea7a	0.039286114
148	0x3b049299	0.002022898
149	0x3db1408d	0.0865489
150	0xbe3f2395	-0.18665917
151	0x3e018227	0.12647305
152	0x3ddacc28	0.10683471
153	0xbd9953e8	-0.07486707
154	0xbd20241e	-0.039096944
155	0xbce254e6	-0.027628373
156	0x3d2ee52b	0.04269902
157	0x3d9495cf	0.07255136
158	0x3dca0bd3	0.098655365
159	0x3cea5c29	0.028608399
160	0xbd9246f2	-0.07142438
161	0xba606c86	-0.0008561093
162	0xbd0589b9	-0.032602046
163	0x3d2ef91d	0.04271804
164	0xbd750289	-0.05981687
165	0x3dc51017	0.096222095
166	0xbdd331a4	-0.103122026
167	0xbcbcc036	-0.023040872
168	0x3c8bd742	0.017070416
169	0x3c9c9dfe	0.019118305
170	0x3d00f423	0.031482827
171	0xbcbcec26	-0.023061823
172	0xbbca12a7	-0.0061667743
173	0x3c0fb505	0.008771186
174	0xbc3d47bd	-0.011552748
175	0x3c3316fd	0.010930774
176	0xbd1f51d5	-0.0388964
177	0xbd0f4695	-0.03497942
178	0xbd3cc519	-0.046086404
179	0x3d4b7854	0.0496753
180	0x3dabc7f9	0.08387751
181	0x3ccd6629	0.025073128
182	0xbd62432c	-0.05523984
183	0xbd93de88	-0.07220179
184	0xbd56c8cc	-0.05243759
185	0xbdce10aa	-0.10061772
186	0xbbc24d25	-0.0059296065
187	0xbe252f38	-0.16131294
188	0xbb95595e	-0.0045577725
189	0xbd93bd0a	-0.07213791
190	0x3e00f102	0.12591937
191	0xbd941050	-0.07229674
192	0xbc034755	-0.008012612
193	0x3db8bc1e	0.090202555
194	0x3dc8d1e9	0.09805662
195	0x3d97756b	0.073954426
196	0x3d739a61	0.0594734
197	0xbd1a0f24	-0.037612095
198	0xb9c494a2	-0.00037494773
199	0x3d252453	0.040317845
200	0xbd0ee228	-0.03488365
201	0xbe0573df	-0.13032483
202	0xbd3f8738	-0.046759814
203	0x3d4302ce	0.047610097
204	0xbd446a12	-0.04795272
205	0x3cf1d729	0.029521542
206	0xbd34c5a0	-0.044133782
207	0x3c1d2dfa	0.009593481
208	0x3d91c12e	0.07116924
209	0xbb8f48ad	-0.0043726773
210	0x3cce05f1	0.025149317
211	0x3df2fedd	0.118650176
212	0xbca790a1	-0.020454707
213	0xbd146c9b	-0.036236387
214	0xbda0ae80	-0.07845783
215	0x3cab80c6	0.020935427
216	0xbd46537d	-0.048419464
217	0xbce9404a	-0.028473038
218	0xbd6e2f3c	-0.058150515
219	0x3b3d029a	0.0028840662
220	0xbd43a6b5	-0.047766406
221	0xbdaf0eed	-0.08547769
222	0x3d1e63e1	0.03866947
223	0x3df9fd77	0.12206548
224	0x3d205b1f	0.0391494
225	0xbdc2316c	-0.09482083
226	0x3c87f1da	0.016594816
227	0xbc75cc11	-0.0150022665
228	0x3b91b0b0	0.0044461116
229	0xbd8c8402	-0.06861116
230	0xbd863560	-0.06553149
231	0xbd9e75ba	-0.07737298
232	0x3d6661c6	0.056245588
233	0x3c964b33	0.018346405
234	0x3c4a7450	0.012356833
235	0xbe1f1bd1	-0.15537955
236	0x3de16e70	0.110073924
237	0xbd3fe6a9	-0.046850834
238	0xbd506934	-0.05088158
239	0xbdc8cb6c	-0.09804425
240	0x3d730faa	0.05934111
241	0xbb662914	-0.00351197
242	0x3d844c09	0.06459815
243	0xbc2a2e47	-0.01038701
244	0xbc99b351	-0.018762263
245	0x3d6c38e4	0.057671443
246	0x3d0d95e6	0.034566782
247	0x3cdfef09	0.02733566
248	0x3cba6abf	0.022755979
249	0x3c2eb2ee	0.010662777
250	0x3d64af4d	0.055831242
251	0x3e03d838	0.1287545
252	0xba99f693	-0.0011746458
253	0xbd19c9a1	-0.037545804
254	0xbc494d84	-0.012286548
255	0x3cec244f	0.028825907

layers.0.fc.bias f4 [300]
0	0xbccfb126	-0.025353026
1	0xbc9801cd	-0.018555546
2	0xbc96f47b	-0.018427124
3	0x3d17f411	0.037097994
4	0xbca69957	-0.02033679
5	0x3d387997	0.045037832
6	0xbd2aee05	-0.0417309
7	0x3aa14d6c	0.0012306399
8	0xbcfb48fe	-0.030674454
9	0x3cfff0ca	0.031242747
10	0x39576b72	0.00020544024
11	0xbd684e42	-0.056715257
12	0x3c7cc63a	0.01542812
13	0xbceaa881	-0.028644802
14	0xbc7516e6	-0.014959073
15	0x3c12f848	0.008970328
16	0x3d859d15	0.06524102
17	0xbdac0b9f	-0.08400654
18	0xbd031764	-0.03200473
19	0x3c523dfe	0.012832163
20	0x3c993ba2	0.018705193
21	0xbaff96e3	-0.0019499924
22	0xbc169222	-0.009190114
23	0xbd4c08b1	-0.049812976
24	0x3d41602b	0.047210854
25	0xbc87b709	-0.01656677
26	0xbc603e66	-0.013686752
27	0x3c568413	0.013093012
28	0x3c093279	0.00837385
29	0xbc987871	-0.018612118
30	0xbd299f5e	-0.04141175
31	0xbd9d89fc	-0.07692334
32	0xbc71268b	-0.014718662
33	0xbd3bb967	-0.04583111
34	0x3d013383	0.031543266
35	0x3c3b4e54	0.011432249
36	0x3d628b75	0.055308778
37	0xbb8db2f7	-0.004324313
38	0xbd26b92c	-0.040703937
39	0xbd44460a	-0.047918357
40	0x3ce8f733	0.028438186
41	0xbab1e002	-0.0013570788
42	0x3c1b2c65	0.009471034
43	0x3d8f70c5	0.07003931
44	0x3d2fc997	0.04291686
45	0xbd2cc28c	-0.04217772
46	0xbd8363c2	-0.06415512
47	0x3d1e915b	0.03871284
48	0x3c8b7d1e	0.017027434
49	0xbcfcf34f	-0.030877737
50	0x3d5f171c	0.0544654
51	0xb80acb22	-3.3090946e-05
52	0x3be1b19b	0.0068876273
53	0xbbc70c80	-0.006074488
54	0x3d370476	0.04468199
55	0xbbf2ca36	-0.0074093593
56	0x3ca62f8c	0.020286344
57	0x3cb538d4	0.022121824
58	0xbd2c3b54	-0.042048767
59	0x3c1ef2da	0.009701455
60	0x3d922afe	0.07137106
61	0x3ca2df05	0.019881735
62	0x3bc4cb49	0.006005679
63	0x3c35e361	0.011101575
64	0xbd7cfc0f	-0.06176382
65	0x3c99627c	0.018723719
66	0x3ca77bc5	0.02044476
67	0xbb458b6b	-0.0030142914
68	0xbaa4f336	-0.001258469
69	0xbd6462fd	-0.055758465
70	0xbc3b4d03	-0.011431935
71	0x3bd9ee83	0.0066507473
72	0xbd0512b3	-0.032488536
73	0x3cb6eb83	0.022329098
74	0x3d03312b	0.032029312
75	0xbd88dfa8	-0.06683284
76	0x3adbe10f	0.0016775447
77	0x3b830741	0.0039986675
78	0x3d14a746	0.036292337
79	0x3dab1244	0.08353093
80	0xbd2c79a3	-0.04210819
81	0xbcb60782	-0.022220377
82	0xbcb88628	-0.022524908
83	0x3d082a75	0.033243615
84	0xbd1c404c	-0.038147256
85	0x3cbfa881	0.023395779
86	0x3d314c8a	0.043285884
87	0xbd7bfbac	-0.06151931
88	0x3d355223	0.044267785
89	0x3bcf05a5	0.0063178116
90	0x3d475965	0.048669238
91	0x3c43890a	0.011934528
92	0x3c5d53b7	0.013508729
93	0xbc52c687	-0.012864715
94	0xb9ce5036	-0.00039351144
95	0xbd1789e5	-0.03699674
96	0x3ca0a82b	0.019611439
97	0x3c27f815	0.010252018
98	0xbd143b1d	-0.036189187
99	0xbd76d2dd	-0.06025969
100	0xbc2036b7	-0.00977867
101	0x3a2e546b	0.00066501525
102	0x3ba6061f	0.0050666477
103	0x3c482dc1	0.01221794
104	0x3d77ef9d	0.060531247
105	0x3c27d0f7	0.010242692
106	0xbd61259e	-0.054967515
107	0xbb38e444	-0.0028212229
108	0x3cbf0bb4	0.02332101
109	0x3d2154f0	0.039387643
110	0x3d729897	0.059227552
111	0xbbc8324e	-0.0061095124
112	0xbbbd51a7	-0.005777556
113	0xbd5486a8	-0.05188623
114	0x3cc953da	0.024576116
115	0xbce27a21	-0.027646126
116	0x3c0b7d3b	0.008513744
117	0xbb33df27	-0.0027446242
118	0xbc04303d	-0.0080681415
119	0xbc853c91	-0.016264232
120	0xbc5e0b72	-0.013552533
121	0x3d0a79ae	0.03380745
122	0x3c675fe6	0.014121985
123	0x3cba027f	0.022706268
124	0xbcf1e6bd	-0.02952897
125	0xbd4e6e5c	-0.050398216
126	0x3b6d9c68	0.0036256555
127	0xbc6631c5	-0.014049952
128	0xbd3e6c58	-0.046490043
129	0xbc0c0ad6	-0.008547505
130	0x3c0108e4	0.007875655
131	0x3c9c1550	0.019053131
132	0xbd068c3d	-0.032848585
133	0x3cd9c3ea	0.026582677
134	0xbcf18e25	-0.029486725
135	0xbb68ef02	-0.003554285
136	0x3cc936fd	0.024562353
137	0x3cbbac7a	0.022909392
138	0xbcdcb720	-0.02694279
139	0xbccd1449	-0.025034087
140	0x3d381f3f	0.044951674
141	0x3d622e98	0.055220217
142	0x3d4b0e46	0.04957416
143	0xbd080c5c	-0.03321491
144	0x3d88b63d	0.06675384
145	0x3cc3397c	0.023831122
146	0x3c2354e1	0.009968967
147	0xbd28f2e0	-0.04124725
148	0x3d1addd3	0.037809204
149	0xbcd42998	-0.02589874
150	0x3d089261	0.033342723
151	0xbcf0ae44	-0.029379971
152	0x3d0b86b4	0.03406401
153	0xbd487192	-0.048936434
154	0x3d449122	0.047989972
155	0x3cf55229	0.029946404
156	0xbc061687	-0.008184082
157	0x3c2ff26b	0.010738949
158	0x3c4481c2	0.011993827
159	0xbd2bfd01	-0.04198933
160	0xba6e3db3	-0.00090881734
161	0xbd8b00a5	-0.06787232
162	0xbb5abbb8	-0.003337605
163	0x3c61ef12	0.013789909
164	0xbd385dfa	-0.045011498
165	0x3c4d2ca4	0.01252285
166	0xbc84e138	-0.016220674
167	0x3b2a2133	0.002595973
168	0x3d2efeca	0.042723455
169	0x3af74401	0.0018864871
170	0xbcbad183	-0.022804981
171	0xbb34004d	-0.0027466
172	0xbca28121	-0.019836964
173	0x3be21c9e	0.006900384
174	0xbd01f2e4	-0.03172578
175	0x3b8127a5	0.0039414936
176	0x3d15c944	0.036568895
177	0xbcef637a	-0.029222239
178	0x3d83679e	0.06416248
179	0xbd20af99	-0.039229963
180	0x3d292396	0.041293703
181	0xbbd67d96	-0.0065457327
182	0xba291e41	-0.00064513466
183	0xbcd115d7	-0.02552311
184	0x3c7b71a2	0.015346916
185	0xbd9048ba	-0.070451215
186	0x3d8d73a2	0.06906821
187	0xbd62600f	-0.05526739
188	0x3d24cb85	0.040233154
189	0x3cf60ac9	0.03003444
190	0xbd7825c2	-0.060582884
191	0x3c8285d4	0.015932955
192	0xbd8e05dd	-0.06934712
193	0xbcd00754	-0.02539412
194	0xbcdb7d21	-0.026793065
195	0x3d298adb	0.04139219
196	0xbd148b07	-0.0362654
197	0x3ca942a2	0.020661656
198	0xbc7e3fc9	-0.015518137
199	0xbca1e3bb	-0.01976191
200	0x3caf73e0	0.021417558
201	0x3c8af09d	0.016960436
202	0xbcea54cd	-0.02860489
203	0xbce4a688	-0.02791144
204	0xbb7f4358	-0.0038950052
205	0xbca28806	-0.019840252
206	0x3d8370f1	0.06418026
207	0xbd6a0cf9	-0.057141278
208	0x3cb65a35	0.022259811
209	0x3d0735a7	0.03301015
210	0xba8f3e18	-0.001092854
211	0xbcddf5ca	-0.02709474
212	0xbd4e64a9	-0.050388966
213	0xbae55062	-0.001749527
214	0x3c75ae81	0.014995218
215	0x3cb6fd01	0.022337439
216	0x3c32ea20	0.010920078
217	0xbceb7b88	-0.028745428
218	0xbc013817	-0.007886908
219	0xbc406f28	-0.011745252
220	0x3c27cd5e	0.010241834
221	0xbd01ea0b	-0.03171734
222	0xbd3a15ee	-0.04543107
223	0xbcaebc8c	-0.02133014
224	0xbca226a5	-0.019793818
225	0xbca9cee2	-0.020728532
226	0x3d2362a3	0.03988899
227	0x3c827320	0.015924037
228	0xbcc5a374	-0.024125792
229	0x3cd856ae	0.02640852
230	0x3d0a75e1	0.033803824
231	0xba9c4c02	-0.0011924508
232	0xbc02daae	-0.007986708
233	0x3c416e45	0.011806075
234	0x3d6ccc6c	0.05781214
235	0xbccd2c57	-0.025045557
236	0x3d17ef71	0.037093583
237	0x3d3a9287	0.045549896
238	0xbc55b6c9	-0.013044068
239	0x39c14b66	0.00036868005
240	0xbd489e78	-0.048979253
241	0xbd0c9c07	-0.034328487
242	0x3a749776	0.0009330431
243	0xbd7ec691	-0.062201086
244	0x3c7af010	0.015316024
245	0xbb10a2bb	-0.0022069651
246	0x3c79aa82	0.015238406
247	0x3be38f0a	0.006944542
248	0xbd1f1a72	-0.03884358
249	0x3c98e339	0.018663036
250	0xbd6d76ee	-0.05797475
251	0xbd5761e1	-0.05258358
252	0xbcb452ae	-0.022012081
253	0x3d45330e	0.048144393
254	0x3d287bda	0.04113374
255	0x3c296697	0.010339401

out_cat.weight f4 [2, 300]
0	0x3e0c7d89	0.13719763
1	0x3d292f26	0.04130473
2	0xbbbaa803	-0.005696298
3	0xbd94a030	-0.07257116
4	0x3ded2065	0.115784444
5	0xbd9063db	-0.07050296
6	0x3d3ee245	0.046602506
7	0xbccf333d	-0.025292987
8	0xbd529db4	-0.05141993
9	0xbdef5ccd	-0.11687622
10	0xbd0e4d3b	-0.03474162
11	0x3dd98404	0.10620883
12	0xbd78b102	-0.060715683
13	0x3dc17c5a	0.09447546
14	0x3db9ba07	0.09068685
15	0x3d58d4c0	0.05293727
16	0x3e13e33a	0.14442149
17	0x3df9311e	0.121675715
18	0x3db9d61c	0.09074041
19	0x3cac4120	0.021027148
20	0x3dc9e7e6	0.09858684
21	0x3d0df458	0.034656852
22	0xbd72db07	-0.059290912
23	0xbdc2e99e	-0.09517215
24	0xbca3d392	-0.019998346
25	0xbd480b77	-0.04883906
26	0xbdb8b32b	-0.090185486
27	0x3d74fac9	0.05980948
28	0x3dd91b6f	0.10600936
29	0x3e1eea23	0.15519004
30	0x3d5fb27c	0.054613575
31	0x3db81bc9	0.089896746
32	0x3d745bee	0.059657983
33	0x3e0925d2	0.13393334
34	0x3d38bdcf	0.04510289
35	0x3dc3be5f	0.09557795
36	0xbc4511c7	-0.012028164
37	0x3c69d18e	0.014271153
38	0x3d8bffb6	0.06835882
39	0x3d85a67c	0.06525895
40	0x3d757fff	0.05993652
41	0x3d422f68	0.04740849
42	0x3c012f57	0.007884822
43	0xbc989f4c	-0.018630646
44	0xbd4e311b	-0.0503398
45	0x3d59adc7	0.053144243
46	0x3dc00304	0.09375575
47	0xbdbcef87	-0.09225374
48	0x3d9f1801	0.0776825
49	0x3da1c3f9	0.07898707
50	0x3d99f1c0	0.07516813
51	0xbdb22491	-0.08698381
52	0xbd932045	-0.07183889
53	0x3dcb365e	0.09922479
54	0x3ce694c4	0.028147109
55	0xbdc1a251	-0.094547875
56	0x3b0c306b	0.0021391164
57	0xbdbeb06f	-0.09310996
58	0xbd1fa387	-0.03897431
59	0xbcd59441	-0.02607167
60	0xbd048e3d	-0.03236221
61	0x3d3b2ca2	0.045696862
62	0x3db890a3	0.09011962
63	0xbd9c3e77	-0.07629102
64	0x3d5bc179	0.053651307
65	0xbce57a2a	-0.028012354
66	0x3d567bc8	0.05236414
67	0xbb984541	-0.0046469276
68	0xbd28826d	-0.04114001
69	0x3dd25084	0.102692634
70	0xbd134d59	-0.035962436
71	0x3dab2c99	0.08358116
72	0x3d86deda	0.06585474
73	0x3d8996c2	0.06718208
74	0xbc9f6409	-0.01945688
75	0x3cebe8b5	0.028797487
76	0x3ddf95c4	0.109172374
77	0xbd8bc27e	-0.06824206
78	0xbda2266f	-0.07917487
79	0xbd836a2a	-0.064167336
80	0x3d841cc9	0.06450803
81	0x3d6d97ac	0.058005974
82	0xbc53f325	-0.012936388
83	0x3d4a34a3	0.049366605
84	0x3db21f6a	0.08697398
85	0xbd9cc1c2	-0.07654144
86	0xbddb694a	-0.10713442
87	0x3daad3a7	0.08341151
88	0xbda972bd	-0.08273838
89	0xbd8fd4aa	-0.07022984
90	0xbd8efdf0	-0.069820285
91	0xbdb6ace3	-0.08919694
92	0xbd6bc306	-0.057559036
93	0xbd822fe5	-0.063567914
94	0xbd53d8fa	-0.051720597
95	0x3db05913	0.086107396
96	0x3dc9e05e	0.09857248
97	0x3d3e6654	0.046484306
98	0x3dccb285	0.099949874
99	0x3dfa041d	0.12207816
100	0xbd4bcdbf	-0.04975676
101	0x3c7559fa	0.014975065
102	0xbdbb57d8	-0.09147614
103	0x3da4a554	0.08039346
104	0xbdc8de7c	-0.098080605
105	0x3bf39f80	0.0074347854
106	0x3cb26138	0.021774873
107	0x3dbf4ebf	0.093411915
108	0x3d95925b	0.07303306
109	0xbccd10b4	-0.025032379
110	0xbd04eef2	-0.03245444
111	0xbd399e52	-0.045317
112	0xbcaaa19e	-0.020829018
113	0x3d8a7ca8	0.067620575
114	0x3de79acc	0.11308822
115	0xbdbca02f	-0.0921024
116	0x3d905c39	0.0704884
117	0x3e175a9b	0.14780657
118	0x3cdc69c4	0.026905902
119	0x3e06567f	0.13118933
120	0x3dadc659	0.084850974
121	0xbd128aa3	-0.035776746
122	0xbbfa1d96	-0.0076329214
123	0x3d98d5ff	0.074626915
124	0x3db953b5	0.09049169
125	0x3d9ef432	0.0776142
126	0xbd4ec75f	-0.050483104
127	0x3da94aee	0.08266245
128	0x3d357cb3	0.044308376
129	0xbd51c570	-0.05121368
130	0x3d5b9592	0.05360944
131	0xbd57144a	-0.052509584
132	0x3d65cf1c	0.056105718
133	0x3e35cdfe	0.17754361
134	0xbd5c6353	-0.05380566
135	0xbd538d44	-0.051648393
136	0xbd496d2e	-0.049176387
137	0xbdaee126	-0.085390374
138	0x3d40aa5d	0.04703747
139	0xbd156a96	-0.0364786
140	0xbc957b8e	-0.018247392
141	0xbd3d488c	-0.046211764
142	0xbd8770b7	-0.066132955
143	0x3dccf386	0.10007386
144	0xbdb49b14	-0.08818641
145	0xbd7fc367	-0.06244221
146	0xbc840680	-0.01611638
147	0xbc2ab5b0	-0.010419294
148	0xbd60eb3d	-0.05491184
149	0xbd74c16a	-0.059754767
150	0xbd97758f	-0.073954694
151	0x3dfb13b8	0.122596204
152	0x3c74ebaa	0.014948765
153	0x3cd365b0	0.025805324
154	0xbd844d88	-0.064601004
155	0x3d9aa1aa	0.07550366
156	0x3d8873fb	0.066627465
157	0xbd8c121a	-0.0683939
158	0xbd94cc1d	-0.07265494
159	0x362eedd7	2.6066461e-06
160	0xbcb94437	-0.022615535
161	0x3dbb828f	0.091557615
162	0xbd694630	-0.0569517
163	0xbd326835	-0.04355641
164	0xbdf952b3	-0.12173977
165	0x3dc0272c	0.093824714
166	0xbddbdff2	-0.107360736
167	0xbd189666	-0.037252806
168	0xbdb79cb4	-0.089654356
169	0xbdabde20	-0.08391976
170	0xbd201025	-0.039077897
171	0xbdaa47e3	-0.083144926
172	0xbd3820f2	-0.044953294
173	0xbd1d20d6	-0.038361393
174	0x3e25838f	0.16163467
175	0xbdf8d186	-0.121493384
176	0xbdc63b0f	-0.09679233
177	0xbd90a1b6	-0.07062094
178	0xbd37abaf	-0.044841465
179	0x3d139dc2	0.03603912
180	0x3dcbe0be	0.099549755
181	0xbb4653bf	-0.003026232
182	0xbc93851a	-0.018007804
183	0x3c215ca8	0.009848751
184	0xbd5e969b	-0.054342847
185	0x3b87f2c9	0.0041488153
186	0xbcedbfa9	-0.029022055
187	0xbd1c630d	-0.0381804
188	0xbd8f3053	-0.06991639
189	0x3de4f7d6	0.111800835
190	0x3cfecb9a	0.031102944
191	0xbcb14588	-0.0216396
192	0xbd4a8d38	-0.049451083
193	0x3d9445b3	0.072398566
194	0x3da6480d	0.08119211
195	0xbdc71422	-0.09720637
196	0x3de581d5	0.11206404
197	0xbd856f40	-0.0651536
198	0xbd9781bf	-0.07397794
199	0xbcbfc521	-0.023409428
200	0xbd97b5b2	-0.074077025
201	0x3d84b88c	0.06480512
202	0x3d703ce2	0.058651812
203	0x3d8bf5da	0.06834002
204	0xbd95da71	-0.07317055
205	0x3d90b39a	0.07065506
206	0xbc792582	-0.015206696
207	0x3d498312	0.049197264
208	0x3d8b00fb	0.067872964
209	0xbd0c8e40	-0.034315348
210	0xbda0f46f	-0.07859122
211	0x3d24fe4e	0.040281586
212	0x3dd3a8fe	0.10334967
213	0x3be2e13b	0.006923822
214	0x3d9b1f3d	0.075743176
215	0xbd0aac2a	-0.033855595
216	0x3daaa555	0.08332316
217	0xbb18ccd2	-0.0023315442
218	0x3da61fba	0.0811152
219	0x3dc3807d	0.095459916
220	0xbd3b6a35	-0.045755584
221	0xbd0562bb	-0.03256486
222	0x3d317f5f	0.04333436
223	0xbba8392f	-0.00513377
224	0x3dc3bc14	0.095573574
225	0xbdbab3b1	-0.09116305
226	0xbd5f3c73	-0.05450101
227	0x3d8ee5dd	0.06977437
228	0x3ca70dc1	0.0203923
229	0x3d5c5e45	0.05380084
230	0xbd968097	-0.07348745
231	0x3da012f5	0.07816116
232	0x3c95f83f	0.01830685
233	0xbcde1614	-0.027110137
234	0xbda66c76	-0.08126156
235	0x3d8a2782	0.06745817
236	0x3c0e7b4d	0.008696389
237	0xbd95d022	-0.07315089
238	0xbd7b9da7	-0.061429646
239	0xbd954d20	-0.07290101
240	0x3d4ff112	0.050767012
241	0x3e05b2de	0.13056514
242	0x3dfa9870	0.122361064
243	0x3d9325fc	0.07184979
244	0x3d2d6684	0.042334095
245	0x3d812340	0.063055515
246	0x3db33624	0.08750561
247	0xbce1f0a7	-0.027580572
248	0xbde6c143	-0.112673305
249	0x3c8d22fc	0.017228596
250	0x3da90c77	0.082543306
251	0x3d3b66b3	0.04575224
252	0xbba90a1d	-0.0051586763
253	0xbd9dc501	-0.07703591
254	0xbdbd0d94	-0.092311054
255	0xbcc77f28	-0.024352625

out_cat.bias f4 [2]
0	0xbd3b938b	-0.045795005
1	0x3d22a5ca	0.03970889
