models/ncls3-dex50/scenario0_epoch44.pt (torch, 23275 bytes, 6 tensors)

inp.fc.weight f4 [50, 49]
000000 27 f6 48 3d 4c d5 2d 3e 1b 4d 30 be 47 d3 b5 bd
       0.049062874 0.16975898 -0.17216913 -0.088781886
000010 16 cd 2b be e7 7f 2b be c9 9b 50 be 8b 51 94 3d
       -0.16777453 -0.1674801 -0.20371927 0.072421156
000020 3e 67 67 be bd 33 11 3e 2f 2d c7 3e 63 4d 0f bd
       -0.22597978 0.14179893 0.3890166 -0.03498591
000030 4b ba 9c bd 58 cc 0e 3e 8f 64 5c 3c b0 3d 1b be
       -0.0765272 0.13945138 0.013451709 -0.1516025
000040 27 79 83 3d 30 f0 71 3c 66 dd 00 3d c1 56 e1 3d
       0.06419592 0.014766738 0.031461142 0.11002875
000050 10 11 b5 3d 19 21 31 bd 20 3e 6b be a5 02 5e 3d
       0.08841145 -0.043244455 -0.22972918 0.05420174
000060 54 d1 c5 3d 21 ef a2 3d 9f 02 08 3e 2a dc c8 bd
       0.09659067 0.079557665 0.1328225 -0.09807618
000070 95 a5 72 3e 03 84 5e 3e fa 37 7a be af 36 47 be
       0.23695977 0.21730046 -0.24435416 -0.19454454
000080 36 cb 92 3e 89 3e 0c bf 40 ee 15 3d 97 5b e7 bd
       0.28670663 -0.5478292 0.036604166 -0.11296766
000090 dc c5 e7 3d d0 4b c0 bc 7f 30 e1 3d 6f d7 86 3e
       0.113170356 -0.02347365 0.10995578 0.26336238
0000a0 b2 8a bc 3b 40 54 6a bd 63 94 b5 3e 9a 9f b3 bc
       0.0057538385 -0.057209253 0.35464773 -0.02192669
0000b0 5a f0 ae bc c0 cc 83 bd a8 58 4e be 45 d3 11 be
       -0.021354843 -0.06435537 -0.20151007 -0.14240749
0000c0 e0 da 35 be 7d 02 74 3d af 72 93 be 7b cd 7f be
       -0.17759275 0.059572686 -0.28798434 -0.24980728
0000d0 e6 6d 8f 3d 7e 12 29 bd 0c b1 c7 3d 15 c0 1f bd
       0.07003383 -0.0412774 0.09750566 -0.039001543
0000e0 ef cf 8f be 95 e4 d9 be a0 71 58 bb 14 d5 0e be
       -0.28088328 -0.42557207 -0.003302671 -0.1394847
0000f0 69 d8 06 3e db d0 68 bc 2b 7b 01 3d f9 28 61 3d
       0.13168491 -0.014209951 0.031611603 0.054970715
000100 aa 59 73 bd 97 02 4f 3d 4c dd a8 bd ab 65 81 3d
       -0.059411682 0.05053958 -0.08245334 0.0631822
000110 2a 0e 36 be af a9 9c bd 6b 5c 4c bd 67 fc 6a be
       -0.1777884 -0.07649552 -0.049892824 -0.22947846
000120 e3 48 22 3e ac 52 c5 bd 9a c0 7e 3d ed d5 ee bc
       0.15848117 -0.09634909 0.062195398 -0.029154742
000130 44 5f 58 be 09 4c f8 be a9 e8 db bd 33 b4 14 be
       -0.21130091 -0.4849551 -0.10737736 -0.14521866
000140 9a 6a 72 3e f4 2b 4a bd 0b be 01 3c 28 af 13 be
       0.23673478 -0.049358323 0.007918845 -0.14422286
000150 a1 7a ad 3c 3d 73 0f be f9 9f 89 3e d0 60 26 3d
       0.021176638 -0.14008804 0.26879862 0.04061967
000160 33 cf 5d be 24 26 b1 bd 65 08 e8 3d 92 37 56 bd
       -0.21661071 -0.08649853 0.11329726 -0.05229909
000170 30 80 18 be be 84 cf 3d 7a a6 a2 3d d3 e1 81 3e
       -0.1489265 0.101327404 0.07941909 0.25367603
000180 94 46 ae 3d 26 04 27 3e 0f c1 00 bd dc b3 92 3d
       0.085095555 0.16310176 -0.031434115 0.07163212
000190 a2 bb 57 3d c3 fb 65 3d 7e 89 29 be 40 a6 00 3e
       0.052669175 0.0561483 -0.16556355 0.1256342
0001a0 c5 3b 1f 3c 0b 93 ce be 40 5b 24 3a 53 3f 0a bc
       0.00971884 -0.4034656 0.0006269701 -0.008437949
0001b0 bd 05 60 bc 88 4e ce 3d 4c b5 14 be 17 85 67 be
       -0.013673243 0.100735724 -0.14522284 -0.22609363
0001c0 0d 53 b4 3c 8a 7d 39 be e3 3b a1 bd d9 d0 03 bd
       0.022012258 -0.18114296 -0.078727506 -0.032181595
0001d0 e9 55 c6 bd 73 b9 6a 3d e0 62 a1 3e 7d f2 f3 3c
       -0.09684355 0.057305764 0.31520748 0.029778713
0001e0 0f ba 15 3e 7f ba ed bd 95 1f 1d be c4 87 42 be
       0.14621757 -0.11607837 -0.15344079 -0.18997103
0001f0 2e 0d b6 3c c0 1e 0b 3d f9 0f fb be 1d 54 00 be
       0.022223081 0.033964872 -0.49035624 -0.12532087
000200 8d cf c0 bc 4f 55 98 bd d6 6d 07 be ef fc a1 3e
       -0.023536468 -0.07438146 -0.13225493 0.31638286
000210 a7 2b 16 3e fa f8 ed 3c 1e 8b 64 bd c7 b7 95 3d
       0.1466509 0.029049385 -0.055796735 0.07310443
000220 90 1e 12 3e 4a 79 f9 be 59 b6 88 3b 77 c8 3f bd
       0.14269471 -0.4872535 0.004172128 -0.046822038
000230 79 6a 89 3b 78 6c 87 bd 25 e1 1d 3e 03 d7 6d be
       0.0041936007 -0.06612486 0.15417917 -0.23226552
000240 2a 8d 24 3b 06 3e 22 3e 9e a4 b7 3d 90 84 d9 3d
       0.0025108554 0.15843973 0.08966945 0.106209874
000250 3b da f2 bc 66 2d b3 3d 8c 39 dc 3d bd c7 5d 3d
       -0.029645076 0.087488934 0.10753164 0.054145563
000260 a4 3b 07 be 9d 65 1b 3e 19 a9 af be f6 30 34 3d
       -0.13206345 0.15175481 -0.343087 0.043992005
000270 fb d6 4f be 84 cd 9b bd f5 1d 05 3e 54 9e 04 be
       -0.20296852 -0.07607558 0.12999709 -0.12951022
000280 0b 6f f0 3d 7d 17 8f 3c 1d 8f 5c 3d a2 cc 0a 3e
       0.1173993 0.017467255 0.05384742 0.13554624
000290 46 4c 15 bd fc 6e 0b 3e 3b e5 4c be 30 10 a1 3e
       -0.036449693 0.13616556 -0.2000932 0.31457663
0002a0 40 99 0d bd fc 4c 84 bd e3 a7 20 3e 8c be ef bd
       -0.03456998 -0.06459996 0.15689044 -0.11706266
0002b0 6e 07 09 be c6 c5 a2 3e 66 b5 a1 3e 41 b6 fd bd
       -0.1338174 0.31791514 0.3158371 -0.12388278
0002c0 e5 9a 54 3d 53 40 c7 bc 19 5f a4 bd 1b 62 26 be
       0.05190553 -0.024322664 -0.08025951 -0.16248362
0002d0 7b 97 06 3e d9 5c 12 be 26 8d 13 3e 0a b6 e7 bd
       0.13143723 -0.14293231 0.14409313 -0.11314018
0002e0 26 da 5e 3c aa 6d ef 3d d2 2f 0a bf 05 65 b4 bd
       0.013601815 0.11690839 -0.5397922 -0.088083304
0002f0 e3 38 33 be ef 79 f9 bd b2 c3 9c 3d cd c6 6c be
       -0.1750217 -0.1218146 0.076545134 -0.23122711
000300 92 68 b1 3d b5 6b 02 3e 36 20 7c 3c 24 b4 26 3e
       0.08662523 0.127364 0.015388539 0.16279656
000310 b7 5e 7b 3e 32 87 5a 3d 80 c8 68 3c 37 5f a8 3d
       0.2454785 0.05335159 0.014207959 0.08221286
000320 75 c8 21 3e 4e de 1e 3e 1d 5c 15 be a4 29 55 be
       0.15799125 0.1551449 -0.1458592 -0.20816666
000330 49 c6 cb 3e e8 32 18 be 0d 07 39 3e 20 cb 04 be
       0.39799717 -0.14863169 0.18069096 -0.12968111
000340 9c fc 11 3e 2d 4a b8 3e 46 47 ca bd c6 47 4b 3d
       0.14256519 0.35994092 -0.098768756 0.049628995
000350 c7 77 05 3e 8f 89 e4 bd f3 4b 93 3d 0c 5b 9f bd
       0.13033973 -0.1115905 0.071922205 -0.07781038
000360 cb 4d 0a 3e 3a b5 8f be b4 fe 3c 3e ef b2 1f 3d
       0.13506238 -0.28067952 0.18456537 0.038989004
000370 7e 1a 52 3e 8f 28 00 be 8c 15 3b be 6e fa 98 3e
       0.20517918 -0.12515472 -0.18269938 0.29878563
000380 a8 66 cc bd 9d 1a 14 be c8 b7 1e 3e c2 62 33 be
       -0.099805176 -0.14463277 0.15499794 -0.17518142
000390 1f a1 32 bd 89 3f 80 be 49 c4 4a be 64 4f 34 3e
       -0.04361069 -0.25048473 -0.1980144 0.1760841
0003a0 e7 70 0a 3d 8d e7 75 3d 66 d5 8a 3a ad ef 87 be
       0.03379908 0.060035277 0.0010592162 -0.26550046
0003b0 29 a9 0a be 35 db 86 be 2f 5b 2a be c0 80 6a bd
       -0.13541092 -0.26339117 -0.16636346 -0.05725169
0003c0 c9 e0 81 be f8 2d 9d 3c 18 a2 81 3e c7 97 31 3e
       -0.2536681 0.019186959 0.2531898 0.17343055
0003d0 c8 dc 4c 3e e8 57 e6 3c b5 ac 78 be 74 38 24 bd
       0.20006096 0.028118089 -0.24284633 -0.0400929
0003e0 12 02 59 3c 72 a8 da 3d 83 eb 89 3d 52 e7 76 3c
       0.0132451225 0.1067666 0.067343734 0.0150697995
0003f0 c6 50 1b be af a6 74 3e 58 4c c6 bd 62 a5 fc 3c
       -0.15167531 0.2389171 -0.0968253 0.03084058

inp.fc.bias f4 [50]
000000 d0 32 00 bf 24 12 36 be c5 7f 41 bd d6 5e 95 be
       -0.50077534 -0.17780358 -0.04724099 -0.29173917
000010 b1 fb cf bd 02 3d a7 be 3c 3c a1 be 3d 50 94 be
       -0.10155428 -0.32663733 -0.31491268 -0.28967467
000020 79 a3 cf be dd c6 1e be 11 f1 75 bd 20 2a 35 be
       -0.40554407 -0.15505548 -0.060044352 -0.1769185
000030 f4 af 0f bf ba fd 3f bc 0c f6 2e be 9b 05 5c be
       -0.5612786 -0.011718208 -0.17086047 -0.21486513
000040 fe 9b 97 be 39 62 36 be a7 62 87 be df 77 23 be
       -0.296112 -0.17810906 -0.26442453 -0.15963696
000050 21 62 98 be c3 49 4f bc d2 7a 22 be a9 a8 9a be
       -0.29762366 -0.0126518635 -0.15867165 -0.30206802
000060 2f ee 74 be c0 b2 9b be 7b f7 7f be cc 19 e9 be
       -0.23918985 -0.30409813 -0.2499675 -0.45527494
000070 c0 5e 68 be 03 97 af be 81 f1 93 be 03 6a 91 be
       -0.22692394 -0.342949 -0.2889519 -0.28401193
000080 fe 99 35 be cd 58 6a be 92 19 15 be 37 e7 5e be
       -0.17734525 -0.22885437 -0.14560536 -0.21767889
000090 a3 76 c3 bd d6 e5 b8 be 8d 9b a7 be cc 62 a7 be
       -0.095441125 -0.3611285 -0.32735863 -0.32692564
0000a0 1e aa d2 be 4d 89 1f be 4a 5b 7e be 4e 37 bb be
       -0.41145414 -0.1557972 -0.24839512 -0.36565632
0000b0 a6 c2 45 be 17 3e 81 bd 29 70 06 be cf 3d d5 bd
       -0.19312534 -0.06310671 -0.13128723 -0.1041218
0000c0 94 a8 5d be ca 1d a9 be
       -0.21646339 -0.3303054

layers.0.fc.weight f4 [50, 50]
000000 52 e6 79 3e 3b fe fb 3d 45 89 dc 3d 23 4c 67 be
       0.24404266 0.1230435 0.107683696 -0.22587638
000010 89 db a8 be 76 22 4a be b8 38 78 be a7 00 75 3d
       -0.32979992 -0.19739708 -0.24240386 0.059815075
000020 fc 02 98 3e c8 45 7c 3c c0 f6 7a 3e 0b fb 96 3e
       0.29689777 0.0153974965 0.2450819 0.29488406
000030 23 e6 ad be e4 54 26 bd f1 7a 67 bd 1c a2 2f be
       -0.33964643 -0.0406083 -0.05651373 -0.17151684
000040 4e c0 da bd 8d ba 93 be 13 fa 60 3e ee 82 07 bd
       -0.106812105 -0.28853264 0.21970396 -0.03308385
000050 b0 d9 c9 3d 3e be 18 be c2 ba 42 3d 96 2c 23 be
       0.09855974 -0.14916322 0.047541387 -0.15934977
000060 62 c7 34 3d 6b 28 54 bd 11 30 4e 3d 9a 41 41 3e
       0.04413546 -0.051796358 0.05033881 0.18872681
000070 fe 31 0b be 86 cf ef bd 51 eb 80 bd 43 07 54 be
       -0.1359329 -0.11709504 -0.06294883 -0.20705895
000080 59 a1 8c 3d 09 3c 9e 3d 85 7d d8 bc 58 35 2c 3e
       0.06866712 0.077262945 -0.02642704 0.16817224
000090 d1 c3 c7 3c 68 d8 bf bd 95 75 4d bd 6d a7 6e 3d
       0.024385365 -0.09367448 -0.050160963 0.05826514
0000a0 fc 22 60 be 48 6a 61 bd 60 3c 49 bc 5a c8 bc 3e
       -0.21888345 -0.055033 -0.012282461 0.36871606
0000b0 ee b4 28 3d 3d 8c 64 3e 1f 49 2b 3e b7 2e 58 bd
       0.041188173 0.22319122 0.16727112 -0.052778926
0000c0 38 49 e0 bd 16 ac 4e be 8f 0c 21 be 52 5f 1f be
       -0.10951465 -0.20182833 -0.15727447 -0.15563706
0000d0 ad 85 a8 bc 9e fa 71 bd e1 aa 26 be da 7f 6e 3c
       -0.020571554 -0.059076898 -0.16276123 0.014556849
0000e0 39 4f 00 3d e0 d2 0d be b3 f4 10 3c 86 6b 25 3c
       0.031325553 -0.13849974 0.008847403 0.010096436
0000f0 de df 33 be 14 70 d4 bd db 66 09 be 7b 0e 64 bd
       -0.17565867 -0.1037294 -0.13418142 -0.055677872
000100 93 d3 f0 bd 18 13 b0 bd e0 39 5f bd b7 6b 34 bc
       -0.117591046 -0.08597392 -0.054498553 -0.011012009
000110 12 4e 85 3c 48 5b 66 3d 1a 3b a1 bd fc be 83 3d
       0.016272578 0.056239396 -0.07872601 0.06432912
000120 06 1b 11 3e b5 7f 71 3c ea d8 b1 bb 4d d5 d8 3d
       0.14170465 0.01473992 -0.0054274695 0.10587559
000130 66 81 4b bd 59 7f b3 3d 55 b2 21 3d d1 ab b4 bc
       -0.04968395 0.08764524 0.03947671 -0.022054585
000140 12 94 c2 3b 04 98 0d be 08 5e a0 3d 59 f6 b5 bd
       0.0059380615 -0.1382752 0.07830435 -0.08884878
000150 80 60 22 bc 8d 4b 13 be c7 2d 0c be 6f 9e 45 bd
       -0.009910703 -0.14384289 -0.13689338 -0.048246797
000160 24 44 ea bd c6 b6 d4 bd d7 9f 24 be c7 e9 87 bd
       -0.11438778 -0.10386424 -0.16076599 -0.06636386
000170 b4 53 a6 bd 45 b7 70 bc 4c 1f 04 be ac 13 fe bd
       -0.08121434 -0.014692132 -0.12902564 -0.12406096
000180 50 74 24 3d 5d 85 d3 bd ab b5 93 bd dc 28 25 be
       0.040149987 -0.103281714 -0.07212385 -0.16128868
000190 f3 6c 95 3e 01 e7 38 be 48 c3 98 be 36 21 06 be
       0.29184684 -0.18056871 -0.29836488 -0.13098606
0001a0 11 85 8e 3e 47 85 09 3e 2e 18 c7 3d 1a 97 86 be
       0.27835897 0.13429748 0.09721409 -0.26287156
0001b0 af 30 21 3e 36 d9 88 be 94 b0 5a 3b 49 bd ff bc
       0.15741228 -0.2672822 0.003336941 -0.031218188
0001c0 ef 27 a4 3e 23 1b 9c be a2 af 1e 3e 7c 6c 88 3d
       0.32061717 -0.30489454 0.15496686 0.06661317
0001d0 57 59 30 bd e7 45 5b 3d 4e 56 71 bd 61 08 77 3e
       -0.04305395 0.05353346 -0.058920197 0.2412429
0001e0 eb 38 88 3d 85 9a 3a 3e cb cb fc bd 2c 9b 81 be
       0.06651481 0.18223007 -0.12343558 -0.253137
0001f0 f2 b3 a0 be 87 73 08 3e f1 07 68 be f5 80 7f bd
       -0.31387287 0.1332532 -0.2265928 -0.062378842
000200 42 07 6a 3e 93 96 62 be 1d 87 9b 3e a4 f7 85 bd
       0.22854331 -0.22127752 0.3037652 -0.06541374
000210 40 dc 47 be d0 a9 ad bd 87 a4 a6 be 79 b2 cc 3c
       -0.19517612 -0.08479655 -0.325474 0.024987446
000220 91 cf cc 3d e5 a0 89 be 11 c4 4c be aa f7 99 bd
       0.10000528 -0.26880565 -0.19996668 -0.07517941
000230 45 f0 e4 3e 99 86 ca be 36 37 2b be c3 dc c8 3d
       0.4471456 -0.39555815 -0.1672028 0.09807732
000240 43 ff 70 be 3e fe ce bc 46 aa e9 3d 61 e2 9d 3e
       -0.23534875 -0.025267716 0.1140943 0.30836776
000250 3d 89 83 be 8b 8e 70 be cd 4d 56 3e b8 40 4e be
       -0.25690642 -0.23491876 0.20928116 -0.20141876
000260 e0 13 08 be 9e 48 5b be 05 21 6b 3e bc b3 7f 3e
       -0.13288832 -0.2141442 0.22961815 0.24970907
000270 24 9c 90 3d 79 32 66 be 73 40 cb 3d 73 99 8d be
       0.070610315 -0.22480191 0.09924402 -0.27656135
000280 11 be 22 3d 76 65 d4 3d 4f cd be 3e b7 d7 88 be
       0.039732043 0.10370915 0.37266013 -0.26727077
000290 c9 ed 68 3e 9a 44 5d 3e fc a4 07 be 48 fc e4 3d
       0.22746958 0.216082 -0.1324653 0.11180931
0002a0 f1 a3 5c be f2 51 75 3e 74 b3 90 3e 39 be 27 3e
       -0.21546914 0.23957041 0.28261912 0.16381158
0002b0 a6 e6 95 bd 68 4d 45 be 52 3a 8e be 11 6f 4c 3e
       -0.07319383 -0.1926781 -0.2777887 0.19964243
0002c0 65 31 85 be eb 39 76 bd fd c3 89 3e 1c a5 b7 be
       -0.26014248 -0.06011383 0.2690734 -0.35868156
0002d0 9f 08 af 3d d0 02 27 be da 28 90 be 10 eb 9b bd
       0.08546566 -0.16309667 -0.28156167 -0.07613194
0002e0 53 9c a3 be 57 0b 62 3d fa 79 13 3e 42 62 7f be
       -0.31955203 0.055186596 0.14401999 -0.24939826
0002f0 94 09 46 be e6 e0 52 be de a7 9a 3e fc 26 9a be
       -0.19339591 -0.20593604 0.30206198 -0.30107868
000300 c4 a9 aa bc a9 fc 66 3d 6a fe da bd 73 9e b0 3d
       -0.020832904 0.0563933 -0.10693057 0.08623972
000310 b0 56 0a 3e f6 ba 71 3e 5f 75 dd be f1 67 4f be
       0.13509631 0.23606476 -0.4325361 -0.20254494
000320 78 8c 01 be 45 7b 8d 3e 1a 7b 4d 3e 09 f2 a9 3e
       -0.12651241 0.2763311 0.20066491 0.3319247
000330 19 bb 94 3d dd e2 8a bd 94 35 e7 3d 49 e8 6f 3e
       0.072622485 -0.06781552 0.11289516 0.23428454
000340 ee d3 70 b9 95 53 ad 3e 1e f1 ad 3d 57 7f 36 3d
       -0.00022967134 0.3385283 0.08493255 0.044555034
000350 b5 b6 0a be 63 d6 18 3e d2 45 31 be bb 69 18 bd
       -0.1354626 0.14925532 -0.1731179 -0.037210207
000360 bc 57 36 3e 3c 80 f8 3c c4 a0 d3 3c fd ae 4d bd
       0.17806906 0.030334584 0.025833495 -0.05021571
000370 ba 07 26 be 17 cc 79 bd 8b 61 fc 3d 04 f8 cd 3d
       -0.16213885 -0.06098565 0.12323292 0.10057071
000380 0e 1a 33 3e 8b 6e 05 be 8d ec 8c 3e 87 fd 53 bd
       0.17490408 -0.1303045 0.27524224 -0.051755454
000390 7d be 70 bd 60 b1 25 3e 5b 25 04 be 0a e0 85 3e
       -0.058775414 0.16180944 -0.12904875 0.2614749
0003a0 7b 6c d2 3e 77 98 25 3d 96 96 9a 3e db 5b e2 3d
       0.4109839 0.040428605 0.30193013 0.11052676
0003b0 c7 24 5b 3d 9d 9e a3 3e b8 d7 22 3e 14 39 2a 3e
       0.05350187 0.3195695 0.15902603 0.16623336
0003c0 a4 92 1d be a9 54 dc 3e c9 ce 1f 3e 69 77 d0 bd
       -0.1538797 0.4303334 0.15606226 -0.10179026
0003d0 8c 4b 81 3e 66 93 63 bd 5f fd 4b bd 5f 1e 19 be
       0.2525295 -0.055560492 -0.04980218 -0.14952992
0003e0 db 9d 65 3e 60 4f 8c 3e 19 fe a4 be 24 5e 5c 3e
       0.22423498 0.27404308 -0.3222511 0.21520287
0003f0 ef c6 5f 3e 3c b5 63 3e 50 1b 7b 3d 06 f5 a1 bd
       0.21853231 0.22237104 0.061305344 -0.07908063

layers.0.fc.bias f4 [50]
000000 87 d5 9a 3e d9 06 4f be f6 4f 21 bd ad 0a 84 3e
       0.30241033 -0.20217456 -0.039382897 0.25789395
000010 36 f0 1a bd 6c 07 c7 3d eb 9e b7 3c 43 03 5f 3d
       -0.03782674 0.097182125 0.022414645 0.05444647
000020 ed da 3f 3d cd 02 6a bc b8 ae ae 3d 52 d3 82 3e
       0.046839643 -0.014282894 0.08529419 0.2555185
000030 84 cd 8d bc 20 f7 f7 bd 44 92 1f 3e 32 2f 1f bd
       -0.017309912 -0.12107682 0.1558314 -0.03886337
000040 56 f7 e5 3d 18 e0 fb 3d 09 4c db 3d 15 8c ae 3d
       0.11228816 0.12298602 0.10707862 0.08522812
000050 b1 02 e6 3d 8a a2 cc 3c f3 8c 37 bd 40 4f 5c 3e
       0.11230982 0.024979848 -0.044812154 0.21514606
000060 ed 86 24 3e eb 06 ec 3d e0 73 8e 3d 5b 8c 37 3d
       0.16067095 0.11524757 0.06955695 0.044811588
000070 11 81 ce bd a5 13 2b 3e 13 a2 9d bd 8e 8b 80 bd
       -0.10083211 0.16706713 -0.07696929 -0.06276618
000080 54 d9 3d 3e 9a e0 78 3e 3e fc 2d 3e 41 fb 82 bc
       0.18539935 0.24304429 0.16990754 -0.015988948
000090 bc 1e fe 3d 5e d2 2f be f2 df 1d be fe 3f 30 3c
       0.12408206 -0.17170092 -0.1541746 0.010757444
0000a0 8f 62 96 3d 86 5e 9d 3c 90 85 82 3d 51 2b ee 3c
       0.07343017 0.019210111 0.06373131 0.02907339
0000b0 36 b8 8a 3b 4b 7c 12 3e ac 18 2e 3d 72 f5 a4 3d
       0.0042333854 0.14305227 0.042503998 0.080546275
0000c0 30 5a 13 bd 66 b8 2a be
       -0.03597468 -0.16671905

out_cat.weight f4 [3, 50]
000000 8d 07 a1 be 82 1d 13 bd 1f cc c0 be 2d 13 9e be
       -0.31451073 -0.035916813 -0.37655732 -0.30874005
000010 61 ea d9 3c b7 94 2c 3e 12 dc 88 be f2 d1 a8 bd
       0.026601018 0.16853605 -0.267304 -0.08243169
000020 c2 48 b3 3d a4 b0 4f 3d 25 fd 73 be 8c 06 bc bc
       0.08754112 0.050705567 -0.23827036 -0.02295234
000030 75 54 37 3e 40 9c 7e 3d aa 9c 2e be 33 b2 7c 3e
       0.17903312 0.06216073 -0.1705195 0.24677353
000040 ed 2f 55 be 5b 43 7f be d1 04 4e be f9 19 cb be
       -0.20819063 -0.24928038 -0.20119025 -0.39668253
000050 78 fd 27 be 60 d9 4f 3e 0f 5d 56 3e fa 5f 5d 3d
       -0.16405284 0.20297766 0.20933937 0.05404661
000060 d1 7a 66 be 09 81 56 be 6d b5 b5 be 14 cf c1 bd
       -0.22507788 -0.2094766 -0.3548998 -0.09463325
000070 a8 9b e2 3d 8e ec 79 bc 01 02 a8 be b4 3f 86 3d
       0.11064845 -0.015254153 -0.3281403 0.06555119
000080 5f 55 7b be d8 f8 86 be 32 fd 23 3c ee 40 1e bd
       -0.24544285 -0.26361728 0.010009097 -0.03863614
000090 ac 47 1c be b9 21 fb 3d 57 6f 9c 3e 74 8e c8 be
       -0.15261716 0.122622915 0.30553696 -0.39171183
0000a0 da cf 6a 3d e1 82 05 3e 42 8a 79 be de 49 1d be
       0.05732713 0.13038208 -0.24369147 -0.1536021
0000b0 39 94 e1 bd b9 c0 be bd a7 75 cf 3d 10 8e a2 be
       -0.11014599 -0.09314103 0.10129862 -0.3174901
0000c0 ed 32 bb be 79 19 19 3e 8c 14 47 3e f6 3d 19 3d
       -0.3656229 0.14951123 0.19441432 0.037412606
0000d0 d9 ec 89 be b3 ec bb be ce 24 11 bc 51 8c 1e be
       -0.26938513 -0.36704025 -0.008858873 -0.15483214
0000e0 8c 1f bd be a0 38 a6 be a1 f1 f9 bd 01 9a 07 bd
       -0.3693813 -0.32465076 -0.1220429 -0.033105854
0000f0 ec 28 2d 3e 6b c5 05 3d ef 6d 73 bc 60 13 61 3d
       0.16910142 0.032658976 -0.014857753 0.054950118
000100 8c 4f 1b 3e bf c2 9e be dc f8 57 3e 08 7a de bd
       0.15167063 -0.31007954 0.21091026 -0.10863119
000110 66 22 82 3e d5 52 88 be 52 ce 68 3e 2d 29 68 be
       0.2541687 -0.26625696 0.22734955 -0.22671957
000120 fb 24 4e be f5 0b 10 bd c4 45 26 3d e2 b7 99 be
       -0.20131294 -0.035167653 0.040593877 -0.30023104
000130 36 56 49 be ce 3a 16 3e e8 23 ee bd e9 78 93 3c
       -0.19661793 0.1467087 -0.11627942 0.01800199
000140 dc c5 93 3e bc d9 fb bd ab 4d 9d be 53 79 17 3e
       0.28861892 -0.12297389 -0.30723318 0.14792375
000150 31 24 cb 3c 2c e4 ca be cc 15 e4 3d 89 cf 16 be
       0.02479753 -0.39627206 0.1113697 -0.14727606
000160 d3 ac 96 be c5 a9 6a 3e 30 12 d2 b8 58 48 0c be
       -0.2942873 0.22916324 -0.00010016968 -0.13699472
000170 fa 27 b5 be 96 ea 4a 3e 9a 55 45 3e d6 4c c1 3d
       -0.35382062 0.1981605 0.19270936 0.094384834
000180 f3 fc cf bd d0 a7 d6 3c ec 72 ac be 1d 36 f0 3c
       -0.10155668 0.026203066 -0.33681428 0.029322678
000190 2c 9e da bd 19 d9 25 3d 63 dc 86 3e 26 02 b6 3e
       -0.106747 0.040490244 0.26340017 0.35548514
0001a0 07 f7 fc be d5 e5 09 bf 8c 74 b7 3e 25 33 02 3e
       -0.49407217 -0.5386632 0.35831106 0.12714823
0001b0 f2 2c 29 be 26 31 0c bf 16 df 86 bd 66 70 07 bf
       -0.16521052 -0.54762495 -0.06585519 -0.5290588
0001c0 6a 09 97 bd 88 5b e2 3c 16 e6 b6 bd 52 73 3e 3e
       -0.073748425 0.027631536 -0.08930604 0.18598679
0001d0 7a 73 d2 bd c2 5c ee 3d 1c ef 98 be 4a b7 93 3e
       -0.10275932 0.11638786 -0.29869926 0.28850776
0001e0 0c 87 55 be ec 07 97 be bc 65 9f be d4 4c e5 be
       -0.20852298 -0.2949823 -0.31132305 -0.44785178
0001f0 84 29 97 3b 0b 91 8a 3e df d9 48 3e b6 0d 7b be
       0.0046131033 0.27063784 0.19614361 -0.24516949
000200 ce fc f4 be cc 98 09 be c6 73 8b bd 57 49 6e bd
       -0.47849125 -0.13437194 -0.068091914 -0.05817541
000210 07 b1 85 3e 03 98 76 bd 66 e3 8d be 69 28 a2 3e
       0.26111624 -0.060203563 -0.27712554 0.31671456
000220 54 45 5c bd d2 3d fb be aa d0 67 bc e8 49 37 bd
       -0.053777054 -0.49070603 -0.0141488705 -0.044748217
000230 1f b8 a6 be b2 88 b7 be 4c 2b a4 3e 95 83 5a be
       -0.32562348 -0.35846478 0.32064283 -0.21339257
000240 62 a3 66 be 0b ef 35 be 52 25 e0 be 1b ee 81 3d
       -0.22523263 -0.17766969 -0.43778473 0.06344243
000250 c3 d1 a2 3e 60 b2 6a be
       0.3180066 -0.22919607

out_cat.bias f4 [3]
000000 db 1b a0 be c8 93 09 3e ca 21 b1 bd
       -0.31271252 0.1343528 -0.08649023
