models/ncls3-dex50/scenario2_epoch32.pt (torch, 188907 bytes, 6 tensors)

inp.fc.weight f4 [100, 49]
000000 d0 d1 ad bd a7 b3 86 3d 87 93 2c bc d6 83 55 bc
       -0.08487284 0.06577235 -0.01053322 -0.01303192
000010 03 d7 c7 3c ed 6a 56 be 9b df 9b bd 75 ca f3 bc
       0.024394518 -0.20939226 -0.07611009 -0.029759625
000020 3d 69 6f 3e f5 b9 80 bd f5 7b 26 3d 6a 3f be bd
       0.23379989 -0.062854685 0.04064556 -0.09289439
000030 26 63 9e 3d 3f 8f 46 3e 23 e4 84 bd 40 5b 9d bc
       0.07733755 0.19390582 -0.06488826 -0.01920855
000040 c0 3e 14 3e c1 9b 85 bd f7 9f 47 bd 68 66 90 bd
       0.14477062 -0.06523848 -0.04873654 -0.070507824
000050 91 fc ed 3d cf 70 d2 3d 49 32 02 be f7 0a 13 3d
       0.11620439 0.10275423 -0.12714495 0.03589913
000060 f1 fc 4e 3e e1 83 9e 3d cf 5a b4 bc 4d d7 dd 3d
       0.20213677 0.07739998 -0.022015957 0.10832081
000070 b5 35 9d 3d e9 38 a8 3c 6d 1f f6 bd 7e 98 65 3c
       0.076762594 0.02053495 -0.12017713 0.014013408
000080 69 6b c1 3c fe a6 67 bd 72 bb cf bc 51 22 1a 3e
       0.023610787 -0.05655574 -0.025357936 0.15052153
000090 29 10 07 3e 30 c5 00 bc 75 07 77 bd 7e af d7 bd
       0.13189758 -0.007859513 -0.060309846 -0.10531519
0000a0 f0 3b d8 bd 7c f1 f5 3b cb 98 11 bd 19 75 e5 3d
       -0.10558307 0.007505594 -0.035546105 0.11203975
0000b0 c7 2f 00 3c 25 dd 21 3e 46 31 ee 3d b4 7a 0d 3e
       0.007823891 0.15807016 0.11630492 0.13816339
0000c0 87 08 f2 3c 23 b8 9b bd b0 44 77 3c 75 ae 97 3d
       0.029545082 -0.07603481 0.01509206 0.07406322
0000d0 7c e9 bc bd 89 e1 94 bd e4 90 82 3d 1c 72 19 be
       -0.09224221 -0.0726958 0.06375292 -0.14984936
0000e0 ee 63 39 3e 87 57 0d 3e d2 35 04 3e a3 da c3 3c
       0.18104526 0.1380292 0.12911156 0.023907965
0000f0 6e 76 d3 bd 69 88 59 bd ff 71 16 3e cd 19 dc 3c
       -0.10325323 -0.053108606 0.14691924 0.026867772
000100 fa 5e 4b 3d 28 ae d6 3c a2 5a 91 3d 0d 86 a6 bd
       0.049651124 0.026206091 0.07097365 -0.08131037
000110 11 bf 31 3e da 4b ea 3d a2 43 e2 bd 15 73 27 3e
       0.17358042 0.11440249 -0.11048056 0.16352494
000120 78 c6 21 bd 1c b4 c9 3d bb f8 3e 3d 3f b0 35 bc
       -0.039495915 0.09848806 0.046623927 -0.011089384
000130 32 bc 61 3d 6f 69 2e 3e 89 29 c6 bd ee 99 fb bc
       0.055111118 0.17032407 -0.09675891 -0.030713048
000140 ee d7 08 be 39 96 1c be 15 ff 49 be 34 46 31 3c
       -0.1336362 -0.1529168 -0.19726212 0.01081996
000150 e4 9d d4 bd 27 b3 e3 3d 92 14 68 3c ce 6a 14 3b
       -0.10381678 0.11118155 0.014165061 0.0022646668
000160 9e 59 c7 bc 74 f0 08 be 97 66 7d 3d ae 61 fa bd
       -0.024334725 -0.13372976 0.061865415 -0.12225662
000170 3b 36 98 bc a0 e1 47 be 4b d4 b7 bd 21 31 08 bd
       -0.018580547 -0.19519663 -0.089760385 -0.033249978
000180 8e 8b 0e be 40 b4 d8 bd b2 b4 9d 3d 71 23 23 be
       -0.13920423 -0.10581255 0.077004805 -0.15931489
000190 a9 86 2b be 4d 61 4c be 14 68 83 bd 4f c4 86 be
       -0.16750588 -0.19958992 -0.06416336 -0.26321647
0001a0 73 33 a2 bd 2a 7c 27 3e 87 7a 2a 3d 3e 0c 0b 3d
       -0.079199694 0.16355959 0.041620757 0.033947222
0001b0 2a 3d bf bd eb 59 29 be 82 ea 84 bb 35 74 db 3d
       -0.09337838 -0.16538207 -0.004056276 0.10715524
0001c0 9f 25 35 3d 6e 8c 99 3d 5b f3 12 be 56 6a 1f bd
       0.04422533 0.07497488 -0.14350645 -0.03891977
0001d0 13 27 26 be e9 7c c2 bb b8 d3 11 be 7c 58 b1 3d
       -0.16225843 -0.0059353006 -0.1424092 0.08659455
0001e0 59 73 08 be 19 e5 9e 3b 3d 71 1b 3d 51 2f ee 3d
       -0.13325252 0.004849088 0.03794979 0.11630119
0001f0 db 32 4e 3e 94 9f 49 3d 95 5e 86 bd ef 23 04 3e
       0.20136587 0.04922445 -0.06561009 0.12904333
000200 1c 5b 54 bd 0c c3 7a bd 71 5e 05 bd a3 b9 1e be
       -0.0518447 -0.061221167 -0.03256077 -0.15500502
000210 7d 32 5b 3d f8 61 e4 3d 0e e6 3a 3e 36 1c c9 3b
       0.053514946 0.111514986 0.18251821 0.006137396
000220 4d eb 22 3e 6d 3a 8b 3d 87 58 ea 3b f6 58 10 be
       0.15910073 0.06798253 0.0071516666 -0.14096436
000230 23 dd 45 3e 5c 4d 61 bd 3d 00 f4 3b 6f b8 87 bc
       0.19322638 -0.055005416 0.0074463175 -0.016567437
000240 23 a8 eb bd 92 7e 75 3d 78 2f 0f be 1a b6 64 bd
       -0.11506679 0.05993516 -0.13982952 -0.055837728
000250 d0 4d ba 3b 10 ed e2 3c 26 90 88 3d 00 d4 91 3d
       0.0056855455 0.02770093 0.06668119 0.07120514
000260 fa 7a 01 3e 52 5e 14 3a 11 85 99 3d 2b 4a be bc
       0.12644568 0.0005659807 0.074960835 -0.023228725
000270 60 58 6f bd 69 d3 28 be 89 b9 5a 3d 54 8e c8 bd
       -0.05843389 -0.16486897 0.053399596 -0.09792772
000280 45 b5 12 3d 2c 46 d9 bd cf 77 fe bd 6c 80 09 3c
       0.035817403 -0.10609087 -0.124251954 0.008392435
000290 4c 92 7c 3d 61 82 ac 3b f5 1f a9 3d df 4c 85 bd
       0.061662957 0.005264566 0.082580484 -0.065088026
0002a0 95 85 7e 3d 61 99 f1 3d 70 7a 4e be 12 b5 fe bd
       0.062139113 0.11796833 -0.20163894 -0.1243688
0002b0 34 35 5f be c5 31 87 3d 91 9f 11 be 12 a9 db 3d
       -0.21797639 0.0660129 -0.14221026 0.10725607
0002c0 1d e1 cb bc e9 cd 0f bd 04 8b ca bc 7d ef 1c 3e
       -0.024887616 -0.03510848 -0.024724491 0.15325733
0002d0 88 5c 1c 3c 34 b5 e2 3d d3 99 e8 bd 6e 44 5a bd
       0.009543546 0.11069718 -0.11357465 -0.053287916
0002e0 a7 44 27 bc 09 a3 de 3d a2 77 18 be 42 68 a1 3d
       -0.010209239 0.1087094 -0.14889386 0.07881214
0002f0 eb 94 b5 bd 50 e6 62 3d 0e eb 89 bd 42 f2 7a 3e
       -0.088662945 0.055395424 -0.06734286 0.24506477
000300 0e e9 09 bb af 0c 30 3e 96 ea 03 3c ce f5 ca 3d
       -0.0021043452 0.17192338 0.008051535 0.09910165
000310 4e 54 d9 3d 76 a3 db bd a6 42 cc bd 69 44 3c 3e
       0.10611783 -0.10724537 -0.0997365 0.18385471
000320 ca 8c e3 3d bd 1e 83 3d 9e dd 4e 3e 62 51 2f 3d
       0.11110838 0.06402347 0.20201728 0.042802222
000330 55 bf 23 bd ac da 16 3e 39 7e d1 3d c9 53 1f 3d
       -0.03997739 0.14731854 0.10229153 0.038898263
000340 2c 13 d2 3d 31 24 69 3d 3d 8c f9 3d 7a ca db bc
       0.10257563 0.05691928 0.121849515 -0.026829947
000350 53 f6 89 bd 35 2b 3d 3d 71 c1 02 be 52 ff d0 bd
       -0.06736436 0.046183784 -0.12769105 -0.102049485
000360 9a db 40 3e 0d e7 45 be 38 09 17 3d 59 c2 a7 bd
       0.18833771 -0.1932642 0.036874026 -0.08191366
000370 1e 7c e2 3c 24 da ef bd 34 92 f6 bd 8b 5e f8 3c
       0.027647074 -0.11711529 -0.12039605 0.03031852
000380 8e 5b b2 3d 5d 8b e2 bc 68 41 af 3d 35 2c 84 3c
       0.08708869 -0.027654344 0.08557397 0.01613436
000390 8c 5c f5 b9 11 90 24 be b7 ae 25 bd 04 7a 81 3d
       -0.00046798994 -0.16070582 -0.040449824 0.06322101
0003a0 2c 2c b5 3b 7c 02 23 3e 4f 20 aa bd 18 03 95 3d
       0.0055289473 0.15918916 -0.083069436 0.07275981
0003b0 cb 76 76 bd 52 1c 1a be f4 f0 fd 3c 84 60 3a 3d
       -0.060171884 -0.15049866 0.030998684 0.0455022
0003c0 4c c1 43 3d 83 76 39 3b e3 d9 a3 bd 16 1c 46 3e
       0.047791764 0.0028299398 -0.08000543 0.19346651
0003d0 1b 16 ec bd 2a 70 c7 bd 6c 14 f5 bd 6f 86 ed bd
       -0.11527654 -0.097381905 -0.11966786 -0.11597907
0003e0 18 5f 3f be cd 39 c4 3d 97 67 33 be 08 73 16 be
       -0.18688619 0.09581337 -0.17519985 -0.14692318
0003f0 3d 66 dd bb 8f d6 db 3d 4b c2 b1 3c e5 79 38 3d
       -0.0067565725 0.10734283 0.021699091 0.045038123

inp.fc.bias f4 [100]
000000 09 f3 ed bd 12 18 09 bd 7f 8e d2 bd cc 7f 8d bd
       -0.11618621 -0.03347022 -0.10281085 -0.06909141
000010 bc 2a 03 3e 67 8f 3f 3d ea 8a 7a bd 27 b0 21 bd
       0.1280927 0.04676762 -0.061167635 -0.039474633
000020 aa 21 8e 3d 3f ba cf bd f6 0d 2e bc ae 97 01 be
       0.06940015 -0.101429455 -0.010623446 -0.12655517
000030 64 34 60 3b 15 27 3a be f9 e6 cb bd 5e d0 a2 3d
       0.0034210915 -0.18178971 -0.09956164 0.07949899
000040 3e 07 cf bd 6b 63 a8 bd 97 56 fb bd 3c cd 16 bd
       -0.10108803 -0.082220875 -0.12272375 -0.03681682
000050 25 04 ad bd 00 28 47 3d 0d 82 09 3e 0a bf a1 bd
       -0.08448056 0.04862213 0.13428517 -0.07897766
000060 8a eb 0e 3d 1d 30 d2 bd 58 47 0d be 3a b3 a8 bb
       0.034892596 -0.10263083 -0.13796747 -0.0051483186
000070 b6 30 38 bc 41 b6 4f 3c b6 aa cd 3c 4f 79 36 be
       -0.011242082 0.01267773 0.025105815 -0.17819713
000080 39 db bd bb cb e4 c8 bd 68 f7 aa 3c d1 f0 88 bd
       -0.0057939556 -0.09809264 0.020869926 -0.06686557
000090 22 72 05 3d fb ae aa 3c a9 08 8e 3d 9c 78 04 be
       0.03257955 0.02083539 0.069352455 -0.12936634
0000a0 73 54 aa 3d 6f 35 c0 3c 7d e7 02 be fa a2 dd bd
       0.08316889 0.02346298 -0.12783618 -0.10822101
0000b0 61 f6 45 3a 21 94 18 3e 43 f6 3d 3d 8c bd 08 3e
       0.0007551667 0.14900257 0.04637743 0.13353556
0000c0 ca bf 37 bd 96 82 ce bd af ba b4 3c 9c 88 ad 3c
       -0.04486064 -0.10083501 0.022061674 0.021183304
0000d0 ed 64 bf 3d 5f 2f 4a bd d7 47 16 3d 2b f8 b0 3c
       0.09345422 -0.049361583 0.036689606 0.02160271
0000e0 68 76 89 38 e0 b3 07 3e 06 2a 8c bc 5b 95 96 bd
       6.554724e-05 0.1325221 -0.017109882 -0.07352706
0000f0 fa 91 22 3d 90 d2 d6 3d 90 7a 48 bd a3 1b 04 3d
       0.039689995 0.1048938 -0.04894501 0.03225292
000100 94 5c ae 3d d0 bb 45 bd 8e 1e fb bc 22 b4 d0 3d
       0.085137516 -0.048274815 -0.030654218 0.101906076
000110 a7 51 00 bd 34 7a 12 be 2d 7d 1a be 0d bf 61 3d
       -0.03132787 -0.1430443 -0.15086813 0.05511384
000120 db 13 c5 bc 15 48 3b 3c cc 72 c0 bc 20 7f d1 bd
       -0.02405732 0.01143076 -0.02349224 -0.10229325
000130 48 2b ea 3b be cd a8 bd bd d8 61 bd cc 1a 10 3c
       0.007146273 -0.08242367 -0.05513834 0.008795451
000140 c7 16 12 3e 17 21 09 3c 2b 75 6c bd 41 e3 0d be
       0.14266501 0.008369706 -0.057728928 -0.13856222
000150 1e f6 a7 3d 63 28 b5 3d fe 1f 8b bd 2d 9b bf bd
       0.0820124 0.08845594 -0.067932114 -0.09355769
000160 cc 50 67 3c df d7 90 bd 09 53 2e 3d 5b 8d 73 bd
       0.014118385 -0.07072424 0.042559657 -0.05946098
000170 dc a3 19 3c 97 f5 00 bc c8 21 1f 3c 17 99 f7 bc
       0.009377446 -0.007871053 0.009712644 -0.030224366
000180 18 60 39 3c 76 df 80 bc ab 52 7f bd 5d 35 02 bd
       0.011314414 -0.015731554 -0.062334698 -0.031789172

layers.0.fc.weight f4 [400, 100]
000000 b1 f5 88 3d 4a b3 29 3c da b1 26 be ef a4 95 3d
       0.06687487 0.010357687 -0.16278782 0.07306849
000010 17 e9 a8 bd 19 01 84 3d 50 0e ff bd 01 e3 3c bd
       -0.08247583 0.06445522 -0.12453902 -0.046114925
000020 96 05 4a 3d 3e 6c f9 3c b4 2c ea bc ee e9 ad 3d
       0.049321733 0.030447122 -0.02858577 0.08491884
000030 05 d2 ef 3c 8a b6 9d 3c d0 f8 74 bd 44 ed 00 bd
       0.02927495 0.01925208 -0.0598076 -0.031476274
000040 be 2e 86 bd a0 26 d2 3d 14 8f c6 3c cd c4 54 bc
       -0.06551884 0.102612734 0.024238147 -0.012986374
000050 c5 1e 71 bd 1b 7e c4 bd 60 67 cb 3d 59 d7 76 bd
       -0.058867235 -0.09594365 0.099318266 -0.060263965
000060 c6 67 d7 3d 54 e9 7d bd 93 62 bb 3d c1 7c e7 bc
       0.1051784 -0.061990097 0.09149661 -0.02825773
000070 2e ef f9 3d 45 7c 85 bb f8 02 83 bd c3 cd 6e 3d
       0.12203823 -0.004073652 -0.063970506 0.0583017
000080 bd 80 de 3c fb f8 4f bd a1 9c 2e bd 98 15 c4 3d
       0.027160997 -0.050774556 -0.04262984 0.09574431
000090 6f 4b b5 3d ce 37 1e 3d 9d 08 1d 3d 13 36 1c 3d
       0.088522784 0.03862744 0.038338292 0.038137507
0000a0 64 da 8c bd 4a 03 17 bc ff b7 85 3d 18 8b b5 bc
       -0.06877592 -0.009217093 0.06529235 -0.022161052
0000b0 1a ad 04 3c 76 7c 5d bd e1 11 d3 3d 97 73 f3 bc
       0.008097911 -0.054073773 0.103061445 -0.029718203
0000c0 00 0e 1e 3c 9f 90 68 bb 63 44 72 bd e9 2c 11 bb
       0.009646893 -0.0035486592 -0.05914725 -0.0022152013
0000d0 ee d5 13 3d 45 98 28 bc 8d e5 57 bd 28 a0 26 3b
       0.03609269 -0.01029021 -0.05270915 0.002542505
0000e0 d1 cb d0 3d 3a fb d1 bc cb 6c a5 bd 3f 63 38 3d
       0.10195125 -0.02563249 -0.08077391 0.045016523
0000f0 e1 14 da 3a 4a a8 ac 3c 09 87 44 3c 8a d5 1f bc
       0.0016638302 0.02107634 0.0119950855 -0.0097555015
000100 5a 1c 0a bc 96 6f a7 3d 36 66 95 3d 37 40 c2 3d
       -0.008429611 0.0817558 0.07294886 0.09484904
000110 18 56 94 bd 41 6b a7 bc f8 24 8c bc 7d 02 dc bd
       -0.072429836 -0.020436885 -0.017107472 -0.10742662
000120 e0 aa 10 bc 4c b4 83 bd 7a 08 ac bb d2 d8 fa 3d
       -0.008829802 -0.06430873 -0.005250034 0.122483864
000130 6c 27 83 bd 58 dc 86 bd 48 6c af bd 7b da 9c bc
       -0.064040035 -0.06584996 -0.08565575 -0.019147148
000140 b5 26 59 bd d6 be c7 bd 18 1d 70 bc c1 51 55 3d
       -0.05301543 -0.09753196 -0.014655374 0.05207992
000150 7f 67 be 3c 25 0d 27 3d de 62 48 bc 5d 34 65 bd
       0.02324271 0.04078402 -0.012230603 -0.05595814
000160 2c 04 8a bd cb f2 c6 bd 83 ce 86 3c c5 4b a5 3d
       -0.06739077 -0.09714278 0.016455894 0.080710925
000170 e6 e0 f0 bc fa c3 45 3d f3 86 dc bd 04 77 8f 3d
       -0.029404115 0.0482826 -0.10767927 0.07005122
000180 5a 9b 4b bc 18 d9 fd bd 50 c2 f2 3a 3f 68 df bc
       -0.012427175 -0.12394923 0.0018521044 -0.027271388
000190 2a 9e 80 3d 7a e2 85 3d 11 b9 57 bc e3 73 52 bd
       0.062801674 0.065373376 -0.013166682 -0.05138005
0001a0 c2 f0 fa 3d 3b c8 af 3d f3 7a 79 bd b6 d5 c7 bc
       0.12252952 0.08583113 -0.06090827 -0.024393898
0001b0 45 02 74 bd e0 82 24 bd 2d db 55 bc 69 f8 8e 3c
       -0.059572477 -0.040163875 -0.013052744 0.017452436
0001c0 a2 e1 f7 3d 27 ed d3 bd 37 17 46 3d 19 3e cb 3c
       0.12103583 -0.103479676 0.048361983 0.024809884
0001d0 d6 8b e7 3d ac e6 7a bb b5 5c cf bd 69 82 a9 bd
       0.113059685 -0.0038284464 -0.10125104 -0.08276827
0001e0 89 94 9d 3d 38 60 88 bd 57 ed 08 3e 4e 16 a2 bc
       0.076943465 -0.06658977 0.13371788 -0.019786026
0001f0 3f 03 80 bd 8c 9d 1d bd 8e b2 45 3d 5f e3 74 3d
       -0.06250619 -0.038480327 0.048265986 0.05978715
000200 b7 9d be 3c 93 e8 12 3e 95 44 ce 3c a8 7a ab bd
       0.023268564 0.14346533 0.025179187 -0.08373004
000210 21 e9 ba bc af 80 f6 bb e5 ca 99 3d e7 27 c3 3d
       -0.022816243 -0.0075226645 0.07509402 0.09529095
000220 09 ce ac 3d bf 69 a8 3d 8f fc 13 bd a9 f8 ba 3c
       0.084377356 0.082232945 -0.03612953 0.022823649
000230 0b d9 8d 3d 18 d2 6c bd 87 2f d9 3c bf 71 ec bd
       0.06926163 -0.05781755 0.02651192 -0.11545133
000240 69 df 31 3b c4 9e f4 3d 1c f3 d6 3d 43 a8 01 3e
       0.002714122 0.11944345 0.10495588 0.12661843
000250 df 69 c7 3c cd 55 89 3d b9 2c 61 3d 0d 6c 9e bc
       0.024342475 0.06705818 0.05497429 -0.019338632
000260 0e 1f bb 3d 9e 99 94 3c 10 07 83 3d 8f 2c 72 bd
       0.091367826 0.018139657 0.063978314 -0.059124526
000270 cf a4 b5 bd 94 74 a2 bc 95 1b 85 bd af 21 01 3d
       -0.08869325 -0.01983098 -0.064994015 0.031526264
000280 31 23 96 bd 99 90 b8 bc 56 63 dc 3c 9b 42 9d 3d
       -0.07330931 -0.022529887 0.026902836 0.076787196
000290 0d a6 85 3d 0b 47 ea 3d c2 93 50 3c 5e 97 a8 3d
       0.06525812 0.114393316 0.012730541 0.08231996
0002a0 14 cc d1 bd 1b 96 14 bc 09 1c 37 bc 3e ca a6 bb
       -0.10244003 -0.009068991 -0.011176118 -0.005090027
0002b0 0d 6d be 3d e7 89 72 3d 9f 0c b4 3c 0f 00 7a bc
       0.092981435 0.059213545 0.021978674 -0.015258803
0002c0 f7 6f 8a bd 14 59 10 3d c2 73 db 3d 65 b4 2b bd
       -0.06759637 0.0352412 0.107154384 -0.041920085
0002d0 76 c1 96 3b a6 b9 3d 3d 17 24 fb bd e5 28 4f 3d
       0.004600699 0.046319626 -0.12262743 0.05057611
0002e0 8e bc 93 3d 1e e4 91 bd 3a 82 04 bc 88 8b 90 bc
       0.07213698 -0.07123588 -0.008087689 -0.017644659
0002f0 cb 80 66 3d 32 fe bb 3d 30 d5 7e 3b 3a e7 d4 3d
       0.05627517 0.09179343 0.0038884394 0.103956655
000300 20 e1 9d 3d 43 f7 62 bd aa a6 7f bd ad b2 cb 3c
       0.07708955 -0.05541159 -0.062414803 0.024865473
000310 cf 56 eb bc 98 6c 35 bd 3d 70 09 3d 63 3d 08 3e
       -0.028727917 -0.044293016 0.033554304 0.13304667
000320 3c cd ce bb 81 be 9d bd f4 66 8e bd c2 ac 96 3c
       -0.006311087 -0.07702351 -0.069532305 0.018392924
000330 94 61 17 be 79 6b 23 3c cc 46 c8 3d 3d 47 3a bc
       -0.14783317 0.009974354 0.097791284 -0.011369524
000340 b3 22 cb 3c 0c bf bb 3c 66 ad 8c 3c 4c 6b 61 bc
       0.02479682 0.022918247 0.017172527 -0.013758492
000350 ef 12 1b be f0 a4 d3 3d e7 36 12 bc fb 20 5c bd
       -0.15143941 0.10334194 -0.008924223 -0.05374239
000360 44 25 de 3c 01 8d 9b 3d 63 43 5a 38 6b a5 2d bd
       0.027117379 0.07595254 5.203801e-05 -0.042394083
000370 2a 4b 34 bd 98 29 24 be 60 d0 98 3c ef 22 cb bd
       -0.044016995 -0.16031492 0.018654048 -0.099187724
000380 e6 cf 43 bb 24 2f c8 3d 13 46 c9 bd 3f 20 73 ba
       -0.0029878556 0.09774616 -0.09827819 -0.00092745194
000390 ac 74 06 bc 90 15 b4 bc eb ce 9f 3d 9b 53 fc 3d
       -0.008206528 -0.021982938 0.07803138 0.12320634
0003a0 0b 50 09 3e 9d 8f c1 3d 3a 13 b2 3b 84 c5 cf 3d
       0.1340944 0.0945122 0.005434421 0.10145095
0003b0 c7 05 85 bb 24 77 1d be 89 7b ad bc d6 e5 67 3c
       -0.0040595266 -0.1537748 -0.02117707 0.014153918
0003c0 37 61 b1 bd d3 d9 b4 bb da 7c 72 bc 36 00 ba bd
       -0.086611204 -0.0055191307 -0.014800275 -0.090820715
0003d0 30 c9 2d 3d e2 50 65 bd 84 f2 ad bd 54 3c 4d 3c
       0.042428195 -0.05598534 -0.08493522 0.01252659
0003e0 52 7d 0d be d0 4b 9e bd db 84 4a bd 3a c0 c6 bd
       -0.13817337 -0.07729304 -0.049443107 -0.09704633
0003f0 8e f5 b6 3d fe c2 8b bd 24 09 ba bd 84 69 2a bc
       0.089335546 -0.06824301 -0.09083775 -0.010401133

layers.0.fc.bias f4 [400]
000000 a8 aa 27 bd 48 57 8b 3d c2 76 eb bd 18 42 de 3b
       -0.040934235 0.06803757 -0.11497261 0.0067827813
000010 f1 3a 18 bd f8 13 c2 3d 1f d4 68 bd d7 16 7b bd
       -0.037165586 0.09476465 -0.05684292 -0.06130108
000020 6f fb bf bc b9 96 df bc 7d e7 1f 3d 18 76 fd bb
       -0.023435323 -0.02729355 0.039039124 -0.007735025
000030 f3 20 31 bd 1e 9c 39 bd 5b 43 57 bd 55 93 fa 3d
       -0.043244313 -0.0453149 -0.05255447 0.122351326
000040 1e 94 8e bb 3e 0d 6a bd 17 c6 95 3d d0 e0 cb bc
       -0.004351153 -0.057141535 0.07313173 -0.024887472
000050 ef 93 c6 bd 57 51 85 3d 30 e4 11 3d d5 b3 2d 3c
       -0.09696185 0.06509655 0.035618007 0.010601957
000060 61 9c 5d bc 44 53 10 bc ab 9c 23 bd 22 74 ca 3d
       -0.013526053 -0.008808915 -0.039944332 0.09885432
000070 a2 50 b7 3d 1c 14 0e 3c 7b 3f bd bd d4 62 20 3d
       0.08950926 0.008671787 -0.092406236 0.03915675
000080 92 65 9d bd 73 78 e9 3d de a9 1e 3a 5f 20 06 bd
       -0.076853886 0.11399927 0.0006052534 -0.032745715
000090 fb 3e 92 bd f8 7f fb 3c b8 60 a3 3d 7a ac 73 bd
       -0.07140919 0.030700669 0.07977432 -0.05949066
0000a0 65 62 1e bd 3d 56 9d 3b 7a 14 16 bd a2 02 11 3e
       -0.038668055 0.00480154 -0.03664062 0.1416116
0000b0 c2 9f b2 bc 5b 88 53 3d fe 0d 81 3d 36 a4 ae 3d
       -0.021804694 0.05164371 0.06301497 0.085274145
0000c0 ea 6c 86 bd 51 58 a6 bb be a6 d6 3d 7d fb 6a 3d
       -0.065637425 -0.005076446 0.10481022 0.057368744
0000d0 d5 02 53 3d de 52 be bb 63 0b bd 3d a3 f5 88 bd
       0.051516373 -0.0058082184 0.092306875 -0.066874765
0000e0 d5 15 9f 3b a1 d2 d3 3b 87 86 91 3d cc f7 66 bd
       0.0048548975 0.006464318 0.07105737 -0.05638866
0000f0 c5 61 32 3d 88 cd 10 3d 86 f5 30 bd 62 0c 59 bd
       0.04355027 0.03535226 -0.0432029 -0.052990325
000100 3c 63 92 3d a0 a9 63 bd 1c 6b ef 3c 6b 26 34 3c
       0.07147834 -0.05558169 0.029225878 0.010995488
000110 7d ed f0 3c 2a 50 cc 3d f4 6b 1d 3d 45 56 00 bd
       0.029410118 0.099762276 0.03843303 -0.031332273
000120 eb 5a 64 3d 99 c1 b9 3d 1f 8f 13 bc 12 d1 ae 3d
       0.05575077 0.09070129 -0.009006291 0.08535971
000130 79 6a 8b bc 4d 52 65 3d 64 00 56 3d 10 6e de 3d
       -0.017018544 0.05598669 0.052246466 0.108608365
000140 37 92 9b 3d cb 74 84 bd 6b 09 cd 3d c8 c8 85 bd
       0.07596248 -0.06467589 0.10011562 -0.065324366
000150 5b e5 8a bd 92 95 b8 3d 22 68 86 3c 5f c9 8a bd
       -0.06782027 0.09012903 0.016407076 -0.0677669
000160 dd 67 a4 bd 0b 8c 45 3d 6f 50 d3 bc 8b 17 be 3c
       -0.08027623 0.04822926 -0.02579519 0.023204586
000170 cc 08 2e 3d 82 cc b7 3d d7 79 bc 3d d0 1f 2b bb
       0.042488858 0.08974554 0.092029266 -0.002611149
000180 d1 59 72 bd d6 7c 6a 3d 67 8c 67 bd 01 6d e2 3d
       -0.059167687 0.05724796 -0.056530382 0.11055947
000190 a7 54 f0 bd 06 d0 52 3d 78 12 94 3c a7 c8 69 3d
       -0.11734896 0.051467918 0.018075213 0.057076123
0001a0 28 43 55 3d be fa 5e bd 6f 63 a3 3d f6 d9 c6 3d
       0.052066 -0.054438345 0.0797795 0.097095415
0001b0 1e 09 a0 3c 75 16 27 3d 90 d6 4d bd d5 47 60 3d
       0.019535597 0.0407929 -0.05025345 0.054756004
0001c0 93 65 89 bd 11 1e 03 bd 92 f7 d8 3c d4 c2 01 bd
       -0.06708827 -0.032011095 0.026485238 -0.031679943
0001d0 b7 8a 2e bd 84 45 c3 3d 33 a2 d7 3d 17 4e 62 3d
       -0.042612758 0.095347434 0.10528984 0.055250254
0001e0 22 e8 5b 3d 23 c1 68 bc dd d8 ff 3c 8b 0f 12 bd
       0.053688176 -0.014206204 0.031231338 -0.035659354
0001f0 0c bf d1 bb fe f3 b0 3d dc 3d 20 3d f8 22 46 3d
       -0.0064009484 0.08640288 0.039121494 0.048373193
000200 43 72 a8 bc 3c d7 1b bd 00 04 59 bc 9e f3 be 3d
       -0.020562297 -0.03804706 -0.013245583 0.0932381
000210 11 ba 69 bd b5 d3 b9 3d 30 a3 72 3d 3a e7 e9 3c
       -0.057062212 0.09073583 0.05923766 0.02855264
000220 7a eb 58 bd 9a ab 26 3d 24 d2 2c 3d 02 ea d8 3c
       -0.052958943 0.040690996 0.042192593 0.026478771
000230 3e 3d 4f bc bb 29 ac bc 04 51 c5 3d 69 4b 02 bd
       -0.012648879 -0.021015992 0.09634593 -0.031810198
000240 11 c9 8a 3d 3b 6a 2d 3d 2a 6b e6 3d 65 97 68 bd
       0.067766316 0.042337637 0.11250909 -0.056785006
000250 93 d6 40 3c 02 eb f8 bc 50 22 64 3c 12 40 d8 3c
       0.0117699085 -0.030385498 0.013924196 0.026397739
000260 06 a9 6f 3a ec 6e 90 3d 56 5e f2 bc 8d 7d c4 38
       0.0009142313 0.07052407 -0.029585999 9.369394e-05
000270 ca 54 15 bd 95 bc aa 3d a1 74 a4 3d be bf ca bc
       -0.036457814 0.083367504 0.08030058 -0.024749633
000280 3d 1d c3 3c ca 54 20 3d 20 6c ec 3d bd 91 22 3c
       0.023817653 0.03914336 0.11544061 0.009922442
000290 8a 0a 1d 3d 22 99 49 bb 5f 70 8e 3c 03 03 ed 3d
       0.03834013 -0.003076144 0.017387567 0.1157284
0002a0 0f ca 40 bd 0c 32 75 3d 34 d3 1f bd 8f c3 bf 3b
       -0.047067698 0.05986218 -0.03901978 0.00585217
0002b0 ff 13 91 3b 6f 53 6b 3d 55 77 a6 3d a9 47 7a bd
       0.0044274325 0.057452615 0.081282295 -0.061103497
0002c0 2f b2 2a bd 98 14 f7 3c de d4 92 3c 78 ed 72 bc
       -0.041673835 0.030161187 0.017923769 -0.014827125
0002d0 2c b9 ab 3c 14 d2 23 bd b9 01 86 3a bf 19 dc bc
       0.02096232 -0.039995268 0.0010223902 -0.026867745
0002e0 89 cd f7 bc 1e 36 21 bc d0 9e 9d 3d d2 43 55 bd
       -0.030249374 -0.009839563 0.07696307 -0.05206663
0002f0 c8 c4 e0 bc 65 d4 b2 3d 7f d2 3d bd 23 76 08 3c
       -0.027437583 0.08731917 -0.046343323 0.008328947
000300 04 08 38 bd 2e 0b f6 3b 05 84 a9 bb af fd 9c 3d
       -0.04492952 0.007508657 -0.0051732087 0.07665574
000310 97 2f 74 3d 4f c3 1c bc 83 d9 9e bc 7c 3f 07 3d
       0.059615698 -0.00956805 -0.019390827 0.033019528
000320 4b f5 05 3c ce 9f 65 3d af 13 10 3e df c3 41 3d
       0.008176158 0.056060605 0.14070009 0.047305938
000330 32 72 9a 3d a7 85 97 bb 88 75 ce bc d6 6c 6e bd
       0.07541312 -0.004624087 -0.025202528 -0.058209263
000340 bf 26 97 bd 13 78 98 3d 03 dd 76 3d f6 80 63 bc
       -0.07380437 0.07444777 0.060269367 -0.013885727
000350 1f 54 36 bc 70 e7 0d 3d 27 dd aa bc 2a 9c 40 3d
       -0.0111284545 0.034644544 -0.020857407 0.04702393
000360 49 27 26 bc 6a 30 d7 bc 31 1e 89 bd 06 2d d1 3d
       -0.010141202 -0.026268203 -0.06695212 0.10213666
000370 04 db c6 bc a3 30 bd bd 36 5d 1a 3c 22 85 8b 3d
       -0.024274357 -0.09237792 0.009421637 0.068125024
000380 1b 08 92 3d ef 69 c3 bc 6b 82 de 3d 19 78 91 3d
       0.07130452 -0.023854224 0.10864719 0.07102985
000390 1d 8b 28 bd 1e bb ff bc c7 97 94 bd 1a b5 aa 3d
       -0.041148294 -0.031217154 -0.07255512 0.08335324
0003a0 13 5b 4c bc 07 8d b9 bd 80 80 42 bd 76 38 3b 3d
       -0.012472886 -0.09060102 -0.04748583 0.045708142
0003b0 c2 a3 2a 3d 39 a4 20 bd 53 c3 56 3d 55 23 94 bb
       0.041660078 -0.039219115 0.05243237 -0.0045208135
0003c0 e1 a3 ae 3c 4d a5 b6 3d a6 fb c9 3d 67 69 be 3c
       0.021318378 0.08918247 0.09862451 0.02324362
0003d0 bd a5 69 bd 90 7f e1 3d ad a3 ff bb 63 92 bc 3c
       -0.057042826 0.11010659 -0.007801494 0.023019021
0003e0 de fe 4b bd 52 8e 73 3d 7f 53 4e 3d 95 b4 12 bd
       -0.049803607 0.0594619 0.050372597 -0.035816748
0003f0 97 ba cb bb f4 72 67 3d 2d a0 95 bd fb 57 d7 3c
       -0.0062173116 0.056506112 -0.07305942 0.02628707

out_cat.weight f4 [3, 400]
000000 0f 1b e4 3c c4 69 5b 3d 10 ba 2f bc 25 be 28 bd
       0.027844934 0.053567663 -0.010725513 -0.04119696
000010 ff f6 d5 bd 6f 68 af bd 28 83 ac bd 4e fe b2 3a
       -0.104475014 -0.08564841 -0.084234536 0.0013656111
000020 ee a5 14 3d 37 85 bd 3c e6 43 cb 3d 47 6f 0f 3d
       0.036291055 0.02313481 0.0992506 0.03501823
000030 ea 3d 8f 3b dc 0a 89 3d 77 92 d7 bd d1 53 35 3d
       0.0043713944 0.066915244 -0.10525983 0.044269387
000040 22 23 c0 bd 75 d5 01 3d f4 96 25 3d 74 3b c8 bd
       -0.09381701 0.03169771 0.040427163 -0.09776965
000050 e1 5e f3 bc 2f 91 a5 3b 9e c9 13 3d bd 1d cb 3c
       -0.029708328 0.0050527076 0.03608095 0.024794454
000060 46 98 36 bd 84 0f 94 bd ba 1e ca bd fb e8 b7 3d
       -0.044578813 -0.07229522 -0.09869142 0.089799844
000070 e4 95 5d 3c 31 35 89 bd 90 39 d1 3d f3 f0 ca 3c
       0.013524506 -0.066995986 0.10216057 0.024773097
000080 b8 1c a5 bd 1c 1f 26 3c 06 23 3b bd 98 1a e7 3b
       -0.08062118 0.010139253 -0.045687698 0.007052731
000090 5c 22 e5 3b da a7 9c 3d b3 b7 98 3b cf c2 03 3c
       0.0069926213 0.07649203 0.0046605705 0.008042051
0000a0 aa 51 a7 bd fe bb d7 3c 39 74 b7 3c 41 f1 0b be
       -0.08169873 0.026334759 0.022394286 -0.1366625
0000b0 4c 83 b2 3d dc e5 c6 bd 51 06 c3 bd ac 3b e3 bd
       0.08716449 -0.09711811 -0.09522689 -0.11095366
0000c0 3f e1 b6 bd 67 c5 01 bc 81 30 cf bd c7 87 f0 3d
       -0.08929681 -0.0079206 -0.10116673 0.117446475
0000d0 48 35 9a 3d 18 7c 3a bd c9 82 d3 bd a5 0f 65 bd
       0.07529694 -0.0455285 -0.1032768 -0.055923123
0000e0 a8 40 cf bb e1 29 b1 3d 45 19 b0 bd 2c 6c 69 3d
       -0.0063248463 0.08650566 -0.0859857 0.056987926
0000f0 34 d6 ee bc ee 92 d7 bd ff cb c0 bd 40 cd ac bd
       -0.029154874 -0.105260715 -0.09413909 -0.08437586
000100 76 8b fa bd be 02 1e 3e a8 9b 63 3d 8f ea 2d 3d
       -0.12233631 0.15430734 0.055568367 0.04246002
000110 9c 5f 90 3d cf 28 0b 3d 10 8c 84 3d 45 b0 a6 bd
       0.07049486 0.033974465 0.06472027 -0.081390895
000120 5e 5d 92 3d b5 fd 96 bd 73 f7 de 3c 4c 57 2b 3d
       0.07146715 -0.073726095 0.027217602 0.0418313
000130 fa 5e df bd b8 52 45 bd cf 48 e7 bd 18 54 2e 3d
       -0.10906787 -0.04817459 -0.11293184 0.042560667
000140 3d b9 ae bd 1d 2e e9 3d 3f e8 35 bd 85 fb 3a 3c
       -0.08531425 0.113857485 -0.04441094 0.011412506
000150 74 31 05 be 87 f7 c1 3c 47 44 30 bd e4 f5 89 bd
       -0.13007146 0.0236776 -0.043033864 -0.06736353
000160 7e de 51 3d e4 92 8a bc bd 2c c9 bd c5 ea 68 bd
       0.051237576 -0.016915746 -0.09822986 -0.05686452
000170 4f 82 44 3d 6a 4b bb bd 2e 7b 33 3d 16 0f 95 3d
       0.047975834 -0.091452435 0.043818645 0.07278268
000180 ca 8a 1b 3d 5e 10 a0 3d 8e f8 08 be 11 37 fb bd
       0.037974156 0.07815622 -0.13376066 -0.122663625
000190 1c 05 4f 3a c8 e0 e4 3c 53 3e b5 3d 77 34 ee bd
       0.00078971847 0.027939215 0.08849778 -0.116311006
0001a0 e6 d2 d1 3d c6 fd 1f bd bc 98 07 3c e9 3a 9a bc
       0.10245304 -0.039060377 0.008276161 -0.018826919
0001b0 13 e2 8d 3b da 49 a9 3d 2b 93 ea bd a6 ca ce bd
       0.0043299287 0.08266039 -0.11453851 -0.10097246
0001c0 ad 9d 5b bc 82 ee e0 bd 5b 0c 08 be 4f cd ce bd
       -0.013404292 -0.10982992 -0.13285963 -0.10097753
0001d0 e5 c8 7b 3d 56 39 04 be 71 9d b2 bd 41 01 51 bd
       0.061470885 -0.12912497 -0.08721436 -0.051026586
0001e0 84 bf 59 3c 21 df 07 be c0 8a b3 bd e5 53 be bb
       0.01329029 -0.1326871 -0.08766699 -0.005808341
0001f0 e5 e9 a6 bd 23 23 0b be 42 52 c0 bd 28 a0 62 bd
       -0.081500806 -0.13587622 -0.093906894 -0.05532852
000200 2d 0c 82 bd 45 01 1b 3d b4 6f 93 3d 4d ef 26 3d
       -0.063499786 0.037843008 0.0719904 0.04075556
000210 5d c0 ca 3c d5 d7 9d 3d 00 9b 83 3b 0c c0 60 bc
       0.02474993 0.07707182 0.00401628 -0.013717663
000220 2f 9f 90 3d 14 1b 88 bd 0f 91 4e 3d 37 7d d5 3b
       0.07061612 -0.0664579 0.050431307 0.006515171
000230 95 42 7d bc 0a 21 56 bd 9f df 07 bd 86 b2 b2 bd
       -0.015457769 -0.052277602 -0.033172246 -0.08725457
000240 a3 bc e5 3d ef fe 10 3d a6 b9 2a 3d 98 ff b8 bc
       0.1121762 0.035399374 0.041680954 -0.022582814
000250 3c 62 7f 3d 34 8b 24 be 01 50 ac bd 1a bb cd 3d
       0.062349543 -0.16068727 -0.08413697 0.100454524
000260 9c d1 b4 3d ba 59 66 bd db 4c 58 3d 61 43 d4 3c
       0.08829042 -0.056237914 0.05280767 0.025911035
000270 ee de 28 3c 68 55 b5 bd 8f ef 88 bd bb e1 01 3d
       0.010307057 -0.088541806 -0.06686317 0.031709414
000280 97 79 04 3d fa b5 f9 bd 2d c4 3e 3d 01 2d 22 3d
       0.03234252 -0.121929124 0.046573807 0.0395937
000290 2a 47 cc 3d ec 17 37 3d d5 93 95 bd 45 c4 e0 3d
       0.09974511 0.044700548 -0.07303587 0.109749354
0002a0 40 80 9d bd 29 bd 5f 3c 46 0d 88 bb f7 56 92 bd
       -0.07690477 0.013655939 -0.004151973 -0.071454935
0002b0 bb 3b 6e 3b f2 58 5a 3a 9b ba d6 bd e5 6a 86 3d
       0.003635152 0.0008329294 -0.10484811 0.06563357
0002c0 6a 84 ee bd 76 b4 9f bd 01 ff 0e bd 1d e3 de bd
       -0.1164635 -0.07798092 -0.03491116 -0.10883162
0002d0 82 26 20 bd 80 02 8c 3d 83 c7 66 bd dd 41 49 bc
       -0.039099224 0.06836414 -0.056342613 -0.012283769
0002e0 23 8b e2 3d c7 6d 87 bd 0e 3c c0 bd 39 c8 25 bc
       0.110616945 -0.06612735 -0.093864545 -0.010118538
0002f0 d6 75 d2 bd 45 4c 97 3d f2 77 bb 3b d6 30 b3 3d
       -0.10276382 0.07387594 0.0057210857 0.08749549
000300 62 1b 8e bc 2c 74 41 bd a6 bf fc bc fb f7 75 3c
       -0.017347042 -0.04722993 -0.030853104 0.015012736
000310 4c 07 21 be 83 19 86 bd 9f 60 6f bc 62 46 b5 3d
       -0.1572544 -0.06547835 -0.014610439 0.08851315
000320 18 5e de bd 14 68 d2 bd f9 d3 96 bd b4 a2 6c 3d
       -0.10857791 -0.102737576 -0.07364649 0.057772353
000330 91 61 ec 3d 92 f7 c4 3b 5b be 6a 3d 77 03 cd bc
       0.11542047 0.006010958 0.057310443 -0.025026066
000340 25 14 bf 3d 03 8c 30 bd 82 31 b2 3d 2e 58 aa bd
       0.09330014 -0.043102276 0.08700849 -0.083176
000350 9c 7a ac 3d 72 35 e4 bc 59 c9 e0 3c 9f 27 8d 3d
       0.084218234 -0.027857516 0.02743976 0.06892323
000360 ac a9 c5 3d af 86 59 bd 7f 8f 84 3d c2 90 a5 3d
       0.09651503 -0.05310696 0.06472682 0.08084251
000370 56 4f 16 3e 9b 0c 52 3d 30 c1 f7 bd 38 4f c1 3b
       0.14678702 0.051281553 -0.120973945 0.005899336
000380 9c 15 9e bc 1a 90 e9 bc b9 0b ae 3c d6 fe 92 3c
       -0.019297414 -0.028511096 0.021245824 0.01794378
000390 91 ec 13 3e ea 83 57 bd ff cf 22 bd f7 58 31 3d
       0.14445712 -0.052616037 -0.03974914 0.043297734
0003a0 1c 97 ab bd 6b fb 03 3d f3 20 5a 3c 72 ea b9 bd
       -0.08378431 0.032222193 0.01331352 -0.0907792
0003b0 9d 28 e3 bd 2a 1c 88 bd 46 78 0e 3d d3 80 51 bd
       -0.11091731 -0.06645997 0.03478267 -0.051148247
0003c0 59 07 8e bc 87 6a 30 bd cc ce b2 bc b4 5d f4 3c
       -0.017337488 -0.043070342 -0.021827124 0.029829837
0003d0 a5 f0 b7 3d 4e b2 9c bd 02 60 04 3d 34 3d eb bd
       0.08981446 -0.076511964 0.032318123 -0.11486283
0003e0 37 ae 8f 3d 56 3a 99 bd c6 f9 b5 bd 27 26 48 3d
       0.07015651 -0.0748183 -0.08885531 0.04886451
0003f0 4c a2 98 bd 9e 05 a6 3d 0a 5f 83 3d ed 9d d8 bc
       -0.07452831 0.0810654 0.06414612 -0.026442492

out_cat.bias f4 [3]
000000 85 7e 9a 3c 84 7a 52 bd bb 0e aa bb
       0.018859157 -0.05138637 -0.0051897443
