models/ncls3-dex50/scenario4_epoch119.pt (torch, 355307 bytes, 6 tensors)

inp.fc.weight f4 [100, 49]
0	0x3e5c8f4c	0.21539038
1	0x3ec6d1ce	0.38831943
2	0xbefbe53b	-0.49198326
3	0x3dc164f7	0.09443086
4	0x3e135080	0.14386177
5	0xbd8a2721	-0.067457445
6	0xbdb7a863	-0.08967664
7	0xbddbd865	-0.10734633
8	0x3f0f7659	0.5603996
9	0x3f1fa79c	0.62365127
10	0xbe84429e	-0.25832075
11	0x3ca21f55	0.01979033
12	0x3e3ab45c	0.18232864
13	0xbd05a51f	-0.032628175
14	0xbe9bc805	-0.3042604
15	0xbe019bee	-0.12657139
16	0xbd0ad1a5	-0.03389134
17	0x3de4dd4f	0.11175024
18	0xbb2622fc	-0.0025350442
19	0xbe109cf9	-0.1412238
20	0xbd9f8e34	-0.07790795
21	0xbcb929f4	-0.022603013
22	0x3e5f282b	0.21792667
23	0xbe3eb191	-0.18622424
24	0xbe4d367d	-0.20040317
25	0x3d4e5023	0.050369393
26	0xbe86e130	-0.2634368
27	0x3e84c239	0.2592943
28	0x3c17b708	0.009259947
29	0x3dccc47d	0.09998415
30	0xbd88e04d	-0.06683407
31	0xbb84578e	-0.0040387576
32	0xbedd2977	-0.43195698
33	0x3e200a4d	0.1562893
34	0x3de6641e	0.112495646
35	0x3ea1a248	0.31569123
36	0x3e9e8969	0.3096421
37	0x3e4d1124	0.2002607
38	0x3edcbc0a	0.43112212
39	0x3e9716a4	0.2950946
40	0x3e9a1bbe	0.3009929
41	0x3e3917e9	0.18075527
42	0xbf0bca6c	-0.54605746
43	0xbe49d667	-0.19710694
44	0xbe8d9c88	-0.27658486
45	0xbec9a9b4	-0.39387286
46	0x3e27a930	0.16373134
47	0x3f079fd0	0.5297823
48	0x3e4e15a3	0.20125441
49	0xbd9a2b0f	-0.07527744
50	0x3f14e1cd	0.58157045
51	0xbe4741ee	-0.19458744
52	0xbcef6074	-0.029220797
53	0x3f2b5071	0.6691962
54	0x3ef5fdc8	0.48045182
55	0x3e2d29d5	0.16910489
56	0x3e4ccd7b	0.2000026
57	0xbe69bbfb	-0.22825615
58	0xbf2435e7	-0.6414475
59	0x3f776c62	0.96649754
60	0x3e755c9c	0.23961109
61	0x3cdc5803	0.026897436
62	0xbd2aa755	-0.041663487
63	0x3e12b82e	0.14328071
64	0xbec109cf	-0.37702796
65	0x3e3517b7	0.17684828
66	0xbe845cd3	-0.2585207
67	0x3e9533d6	0.2914111
68	0xbda9c2dd	-0.0828912
69	0x3e26e330	0.16297603
70	0xbe52208a	-0.20520225
71	0xbe3052cb	-0.17219083
72	0xbe403d75	-0.18773444
73	0x3d7e4e90	0.06208664
74	0x3e4fd1c0	0.20294857
75	0x3eab1066	0.3341095
76	0xbd3ed4bd	-0.0465896
77	0x3e33cb61	0.17558052
78	0xbe5899d2	-0.21152428
79	0x3dd3f9bb	0.10350367
80	0x3cfd055c	0.030886345
81	0xbeb0b6d4	-0.34514487
82	0x3dd79cab	0.10527929
83	0xbd9e58da	-0.07731791
84	0xbc8b4035	-0.01699839
85	0x3d3692ac	0.04457347
86	0xbdf7a248	-0.120914996
87	0xbbe8813d	-0.0070954845
88	0x3ece8c55	0.4034144
89	0xbd062d9a	-0.032758333
90	0x3e9ba319	0.3039787
91	0xbedb7137	-0.42859814
92	0x3ea685c1	0.3252392
93	0x3da733e1	0.08164192
94	0x3effdeb5	0.499746
95	0xbe8c1196	-0.27357167
96	0xbeaec481	-0.34134296
97	0xbea50d77	-0.32236835
98	0x3dc41a80	0.09575367
99	0xbd652e4b	-0.05595235
100	0x3d731670	0.05934757
101	0xbe269f74	-0.16271764
102	0x3ed06cb4	0.40707934
103	0x3d23cda2	0.03999103
104	0xbe002098	-0.12512434
105	0xbea4f739	-0.32219866
106	0x3e86a70f	0.2629933
107	0xbc81ce2e	-0.015845384
108	0xbe901fb7	-0.28149197
109	0xbe8672c6	-0.2625944
110	0x3e406de5	0.18791921
111	0x3e85932f	0.26088855
112	0xbef4cb08	-0.4781115
113	0xbe8aed10	-0.2713399
114	0xbe8240f9	-0.25440195
115	0xbe382faf	-0.1798694
116	0xbeb22f69	-0.34801796
117	0x3d8fd6ec	0.07023415
118	0xbe43bebb	-0.19115727
119	0x3daa48b4	0.08314648
120	0x3e3b5620	0.18294573
121	0x3e304b44	0.17216212
122	0x3e973265	0.29530635
123	0x3e03d72d	0.12875052
124	0x3e95320e	0.2913975
125	0xbdd3a00d	-0.10333262
126	0x3e964634	0.29350436
127	0x3e319057	0.17340218
128	0xbdbddbbf	-0.09270429
129	0x3dffb424	0.12485531
130	0xbe97f1a8	-0.29676557
131	0xbd869549	-0.06571443
132	0x3e745f9d	0.23864599
133	0x3e10921b	0.14118235
134	0x3e46d886	0.19418535
135	0x3d21aad4	0.039469555
136	0x3e76dc96	0.24107584
137	0x3e20061c	0.1562733
138	0x3e2d67bc	0.16934103
139	0x3e7ff952	0.24997452
140	0xbe4e89d3	-0.20169763
141	0xbe1e1bef	-0.15440343
142	0xbe9a737b	-0.3016623
143	0xbd547f18	-0.05187902
144	0x3e323616	0.17403445
145	0x3d793f23	0.060851227
146	0xbc1fcf40	-0.009754002
147	0x3e73a1ab	0.2379214
148	0x3e4ce1c5	0.20007999
149	0x3e9859ce	0.29756016
150	0x3e1e74bd	0.1547422
151	0x3e8a14e9	0.26969078
152	0x3ec6e943	0.3884984
153	0x3e36a6a8	0.17837012
154	0xbea19901	-0.31562045
155	0x3eada5a7	0.33915445
156	0x3f29db64	0.6635039
157	0xbd936f82	-0.07199003
158	0xbe2f13fb	-0.17097466
159	0x3e468357	0.1938604
160	0x3e63adb9	0.22234239
161	0xbe9f4e02	-0.31114203
162	0x3e2dd709	0.1697656
163	0xbcae0875	-0.021244267
164	0x3e07d049	0.13263048
165	0x3e05ef91	0.13079669
166	0xbe939ad7	-0.2882907
167	0x3e16ef50	0.14739728
168	0xbe4a7012	-0.19769314
169	0x3e823686	0.25432223
170	0xbe4f2bd8	-0.20231569
171	0x3cb01fb6	0.021499496
172	0x3db66cc3	0.089074634
173	0xbeacf2ff	-0.3377914
174	0x3e87d06c	0.265262
175	0xbe95d76a	-0.2926591
176	0x3dd11126	0.10208349
177	0x3e4f4700	0.20241928
178	0xbed77068	-0.42077947
179	0xbe7dbe8a	-0.24779716
180	0x3dd678b2	0.104722396
181	0xbe4ff280	-0.2030735
182	0x3ec46875	0.38360944
183	0x3c0b0dad	0.008487147
184	0x3e9aed0b	0.30258974
185	0x3d9c0242	0.07617618
186	0x3ddd4ed6	0.108060524
187	0xbdea1d3a	-0.11431356
188	0xbead4a6a	-0.33845836
189	0xbe9c6169	-0.30543068
190	0xbe10a21c	-0.1412434
191	0xbf29208d	-0.66065294
192	0x3d8292b6	0.06375639
193	0x3e66028b	0.22461908
194	0x3e87bdc6	0.26511973
195	0x3e44f2e7	0.19233285
196	0xbea63ad1	-0.32466748
197	0xbe5488b0	-0.20755267
198	0x3e671f8c	0.22570628
199	0xbe6e71e4	-0.23285633
200	0x3e7a5657	0.24446999
201	0x3ea7c2f6	0.3276593
202	0xbe5eb8eb	-0.21750228
203	0xbd0d77d0	-0.03453809
204	0xbebaa874	-0.36456645
205	0xbeeb675a	-0.45977288
206	0x3d3de3b0	0.046359718
207	0xbdb769d9	-0.08955736
208	0x3cb04978	0.021519408
209	0x3ea17f66	0.3154251
210	0xbd371347	-0.04469612
211	0xbdcde2b5	-0.100530066
212	0xbd893382	-0.066992775
213	0xbc388030	-0.011261031
214	0x3d5e59a5	0.05428471
215	0xbf1ff418	-0.6248183
216	0xbea2d3e4	-0.31802285
217	0xbf070e26	-0.52755964
218	0xbf578cc9	-0.84199196
219	0x3db97f7d	0.090575196
220	0xbd6ae506	-0.05734732
221	0xbeb5e842	-0.3552876
222	0x3e926923	0.28595838
223	0xbe31d4f7	-0.17366396
224	0xbf419f40	-0.7563362
225	0xbe89b9f0	-0.26899672
226	0xbebf2f92	-0.3734098
227	0x3e602390	0.21888566
228	0x3e32f575	0.17476447
229	0x3ebb083e	0.36529726
230	0xbdfd2761	-0.123610266
231	0xbe3e08ba	-0.18558016
232	0x3d901998	0.070361316
233	0x3f0700b8	0.5273547
234	0xbe69ade5	-0.22820242
235	0x3b407303	0.0029365427
236	0xbe5f2b0f	-0.2179377
237	0x3e46bcf9	0.19408025
238	0x3e13cf3a	0.1443452
239	0x3ce67ad4	0.02813474
240	0x3e4e4cdd	0.20146509
241	0xbdf7d95f	-0.12102007
242	0x3e1698ee	0.14706776
243	0xbd770634	-0.06030865
244	0xbef7dc43	-0.48410234
245	0x3bc63ee6	0.0060499785
246	0x3d93e1f2	0.0722083
247	0x3df0a23b	0.11749693
248	0x3e69e99d	0.22843023
249	0xbe2c03fc	-0.16798395
250	0xbe0185ea	-0.1264874
251	0x3e92145e	0.28531164
252	0x3e3d4734	0.18484193
253	0xbefc96e4	-0.4933387
254	0xbee43dfe	-0.44578546
255	0xbe2772ce	-0.16352388

inp.fc.bias f4 [100]
0	0xbf58039f	-0.84380525
1	0xbf63a1dc	-0.8891885
2	0xbf95566f	-1.1667002
3	0xbf72b7d2	-0.9481174
4	0xbee0d080	-0.43909073
5	0xbf03c036	-0.51465166
6	0xbf627761	-0.8846341
7	0xbf855b59	-1.0418502
8	0xbee7fb20	-0.4530878
9	0xbf990927	-1.1955918
10	0xbf3748f3	-0.71595687
11	0xbf3788a5	-0.7169288
12	0xbf46590b	-0.7747962
13	0xbf479a30	-0.77969646
14	0xbf3f6094	-0.7475674
15	0xbf415684	-0.7552264
16	0xbf64a775	-0.8931802
17	0xbf990d5d	-1.1957203
18	0xbf5e85a4	-0.8692267
19	0xbf497cde	-0.7870616
20	0xbf07a7c7	-0.5299038
21	0xbf3eaeba	-0.7448536
22	0xbfa087e6	-1.2541473
23	0xbf326b04	-0.6969454
24	0xbedf13d3	-0.43569812
25	0xbf8eb79d	-1.1149784
26	0xbe6f9b61	-0.23399116
27	0xbf1c3d3d	-0.6103094
28	0xbf79327f	-0.97342676
29	0xbf85e8b8	-1.0461645
30	0xbf00a5ac	-0.50252795
31	0xbef8f9e1	-0.48628142
32	0xbf767df5	-0.96285945
33	0xbf68079c	-0.9063661
34	0xbe8be58e	-0.27323574
35	0xbf0f9993	-0.5609371
36	0xbf94526b	-1.1587652
37	0xbf1a402a	-0.60254157
38	0xbf503d81	-0.8134385
39	0xbf9132ce	-1.1343629
40	0xbf82222a	-1.0166676
41	0xbf506e49	-0.8141828
42	0xbef7eade	-0.48421377
43	0xbf3239e1	-0.69619566
44	0xbf1508a3	-0.58216304
45	0xbf29b43c	-0.6629064
46	0xbf148919	-0.58021694
47	0xbf11e105	-0.5698398
48	0xbf9077fd	-1.1286618
49	0xbf33d950	-0.7025347
50	0xbf476fc7	-0.77904934
51	0xbf69c7d0	-0.91320515
52	0xbf55c814	-0.8350842
53	0xbf4160c1	-0.7553826
54	0xbf2d49e5	-0.6769088
55	0xbf9aca46	-1.2092979
56	0xbfc92aa1	-1.5716134
57	0xbf86a93f	-1.05204
58	0xbf46e9db	-0.77700585
59	0xbf5285d3	-0.8223545
60	0xbf480020	-0.7812519
61	0xbf0e575d	-0.55602056
62	0xbf678f14	-0.90452695
63	0xbe94c35c	-0.29055297
64	0xbf84f733	-1.0387939
65	0xbf460d64	-0.7736418
66	0xbf37c8ed	-0.71790963
67	0xbf63f203	-0.89041156
68	0xbf6971d9	-0.9118934
69	0xbf183bec	-0.59466434
70	0xbf8cbdca	-1.0995419
71	0xbf482c5e	-0.781927
72	0xbfb24858	-1.3928328
73	0xbf770e2e	-0.9650601
74	0xbf64fdc9	-0.89449745
75	0xbf45fbf1	-0.7733756
76	0xbf8c623b	-1.0967478
77	0xbf4a836e	-0.79106796
78	0xbf26910b	-0.6506507
79	0xbf22aeda	-0.6354805
80	0xbf12524a	-0.57156813
81	0xbf68d4cc	-0.909497
82	0xbf6a0d96	-0.9142698
83	0xbf263d85	-0.6493762
84	0xbf8afc86	-1.0858314
85	0xbf5cf0ce	-0.8630494
86	0xbf462e94	-0.7741482
87	0xbf87d125	-1.0610701
88	0xbf572c47	-0.84051937
89	0xbf815785	-1.0104834
90	0xbf493625	-0.78598243
91	0xbf13859f	-0.57625765
92	0xbf33357d	-0.7000349
93	0xbf3a0c8b	-0.7267539
94	0xbf51a198	-0.818872
95	0xbf88f1ba	-1.0698769
96	0xbf1eb594	-0.61995816
97	0xbf8d19c3	-1.1023487
98	0xbf56b609	-0.83871514
99	0xbf562975	-0.8365701

layers.0.fc.weight f4 [800, 100]
0	0xbe576305	-0.21033867
1	0xbe4d8fb2	-0.20074347
2	0xbefe4dfc	-0.49668872
3	0x3d7d6f8e	0.061873965
4	0xbf5216f3	-0.8206627
5	0xbf28553a	-0.65755045
6	0x3e809730	0.25115347
7	0xbde86016	-0.11346452
8	0xbdac7bb2	-0.084220305
9	0xbf0b8619	-0.5450149
10	0x3ec66d1a	0.38755113
11	0xbf0ab55b	-0.54182976
12	0x3e180648	0.14846146
13	0x3e3e9499	0.18611373
14	0xbf8215da	-1.0162919
15	0xbd86cd7d	-0.065821625
16	0xbf420f79	-0.7580486
17	0xbe8a9842	-0.27069288
18	0xbf1697aa	-0.5882517
19	0xbf36a11f	-0.713396
20	0xbd2fdc69	-0.04293481
21	0xbf84a54b	-1.0362943
22	0x3edeb9f1	0.43501237
23	0x3e300675	0.17189963
24	0x3e4f2315	0.20228226
25	0xbe61c58b	-0.22048013
26	0x3e911f40	0.28344154
27	0xbe6835d3	-0.22676782
28	0xbdd82a3e	-0.10554932
29	0xbec4712c	-0.38367593
30	0xbf2070dd	-0.62672216
31	0xbf02a809	-0.5103765
32	0xbe354787	-0.17703067
33	0x3ebde200	0.37086487
34	0xbe05bb3c	-0.13059705
35	0xbed5967b	-0.4171637
36	0xbded97a9	-0.116011925
37	0xbdb22353	-0.08698144
38	0xbeca2a6b	-0.39485487
39	0xbec0fd38	-0.3769319
40	0xbe8e8e9d	-0.2784318
41	0xbe1ea53b	-0.15492718
42	0xbf5f74f0	-0.8728781
43	0xbe592895	-0.21206887
44	0x3df0edb2	0.11764087
45	0xbf3e8ebe	-0.7443656
46	0xbec55d24	-0.38547623
47	0xbe8636df	-0.26213738
48	0xbe273f1a	-0.16332665
49	0x3e1abc87	0.1511098
50	0x3e98e109	0.29859188
51	0x3ddec367	0.10877114
52	0xbe1a6d00	-0.15080643
53	0xbf624fb3	-0.8840286
54	0xbf1e1cb4	-0.6176255
55	0xbf3abcc1	-0.72944266
56	0xbf9c089d	-1.2190129
57	0xbe2caf2b	-0.16863696
58	0x3dfd3e97	0.12365454
59	0xbe639af9	-0.22227086
60	0x3e8a8e17	0.2706153
61	0x3e6f3a66	0.23362121
62	0xbf262612	-0.6490184
63	0x3f1be47c	0.60895514
64	0xbd3abe4f	-0.04559165
65	0xbeb860c0	-0.36011314
66	0x3d72705f	0.059189197
67	0xbe9b645e	-0.30350012
68	0xbf31f32e	-0.6951169
69	0xbe449302	-0.19196704
70	0xbe959ee5	-0.2922279
71	0xbf222be9	-0.6334825
72	0x3c410184	0.0117801465
73	0x3d21588d	0.03939109
74	0x3e5997ef	0.21249364
75	0xbe155a00	-0.14585114
76	0x3e164265	0.14673765
77	0x3e0cbaf4	0.13743192
78	0xbf0969c1	-0.5367699
79	0x3ecfd4fe	0.40592188
80	0xbd9a9d34	-0.07549515
81	0xbec5c1fa	-0.38624555
82	0x3f388829	0.72082764
83	0xbefb7900	-0.49115753
84	0xbd52ad91	-0.051435057
85	0xbf70493b	-0.9386174
86	0xbe25bb24	-0.1618467
87	0x3d6caed7	0.057783928
88	0xbe6861b2	-0.22693518
89	0x3d257e9b	0.040403944
90	0x3e893012	0.26794487
91	0xbf033c57	-0.51263946
92	0xbf4709fa	-0.777496
93	0xbebf7aea	-0.37398463
94	0xbf27ff7c	-0.65624213
95	0xbeb22169	-0.34791115
96	0xbd67f0dc	-0.056626186
97	0xbf492fea	-0.78588736
98	0x3ebcb801	0.36859134
99	0xbf4660cd	-0.77491456
100	0x3b7ee308	0.0038892645
101	0xbeb73a1e	-0.35786527
102	0xbd64636c	-0.05575888
103	0xbe0b8a64	-0.1362701
104	0xbe9f00d9	-0.31055334
105	0xbbfbd8fc	-0.0076857787
106	0xbe89a9fe	-0.26887506
107	0x3e854a32	0.2603317
108	0xbf17fbae	-0.5936841
109	0xbe621cba	-0.22081271
110	0xbe863650	-0.26213312
111	0xbecd53dd	-0.40103045
112	0xbea59b10	-0.32344866
113	0xbf072a1c	-0.5279863
114	0xbd372a0a	-0.044717826
115	0xbd9aaa64	-0.07552031
116	0xbdf4902e	-0.119415626
117	0xbe87c6a1	-0.2651873
118	0xbe90cd3c	-0.2828158
119	0xbe020de4	-0.12700611
120	0xbcd40e62	-0.025885765
121	0xbed4cac5	-0.4156095
122	0x3c250ddd	0.010074106
123	0xbeffa896	-0.49933308
124	0xbe9d35a2	-0.3070498
125	0xbce499fd	-0.027905459
126	0xbe08272f	-0.13296197
127	0xbbedc3aa	-0.007255991
128	0x3de50ed0	0.11184466
129	0xbdca59c5	-0.098804034
130	0x3e42a337	0.19007574
131	0xbee3927b	-0.44447693
132	0x3c116195	0.008873363
133	0xbe1c8b95	-0.15287621
134	0xbeefc1fc	-0.46827686
135	0xbed306e2	-0.4121619
136	0x3e828d0d	0.25498238
137	0xbe7212d1	-0.2363999
138	0xbf015383	-0.50518054
139	0x3e9ff005	0.31237808
140	0xbe4f8601	-0.20265962
141	0xbeb9165b	-0.36149868
142	0xbe730849	-0.2373363
143	0xbe99fb2e	-0.30074447
144	0xbe25a258	-0.1617521
145	0xbebc1987	-0.36738226
146	0xbb6a9e8d	-0.003580007
147	0x3b454770	0.0030102395
148	0xbe70eb21	-0.23527195
149	0xbdb664ee	-0.089059696
150	0xbec98b85	-0.39364257
151	0xbe8120ca	-0.2522033
152	0xbe840647	-0.2578604
153	0xbece864b	-0.40336832
154	0xbe0729b4	-0.13199502
155	0xbe11d881	-0.14242746
156	0xbe9e85f5	-0.30961576
157	0x3c2c2039	0.010505729
158	0xbe995f28	-0.2995541
159	0xbeb0f420	-0.34561253
160	0xbd640c18	-0.055675596
161	0xbed45a60	-0.414752
162	0x3d6dc6f0	0.05805105
163	0xbee91854	-0.45526373
164	0x3e1076d0	0.14107823
165	0xbd794c8f	-0.060864028
166	0xbe850cdd	-0.25986376
167	0xbe2bca21	-0.16776325
168	0xbdb68b49	-0.08913285
169	0x3d9cdd2c	0.07659373
170	0xbe0242f5	-0.12720855
171	0xbded875d	-0.11598084
172	0xbecdff40	-0.40233803
173	0xbece03c3	-0.40237245
174	0xbb115f42	-0.0022182022
175	0x3edf432a	0.4360593
176	0xbea35a6d	-0.31904927
177	0xbe8e751e	-0.27823728
178	0xbe72b6dc	-0.23702568
179	0xbea84692	-0.3286634
180	0xbdd8e753	-0.105909966
181	0x3df306e7	0.11866551
182	0xbe4f1e45	-0.2022639
183	0xbece124f	-0.40248343
184	0x3e3e2db6	0.18572125
185	0xbee7f2ab	-0.45302328
186	0xbe03aaf2	-0.12858179
187	0xbe8138b6	-0.2523858
188	0xbdd8bb79	-0.105826326
189	0x3db4f386	0.08835511
190	0xbde06aaa	-0.109578446
191	0xbf17c598	-0.5928588
192	0xbeca2a71	-0.39485505
193	0xbe5fa29a	-0.21839371
194	0xbdd63d0b	-0.10460862
195	0x3f23eb79	0.6403118
196	0xbf3eaf8c	-0.74486613
197	0xbee58a56	-0.44832104
198	0xbdaa0fea	-0.083038166
199	0xbe9811c9	-0.2970107
200	0x3eb57daa	0.35447437
201	0x3e740f70	0.23834014
202	0x3ead3f61	0.33837417
203	0xbeb89f7b	-0.36059174
204	0x3cbf3985	0.023342857
205	0xbdd36f42	-0.10323955
206	0xbe4aed07	-0.19816981
207	0x3e8e396e	0.2777819
208	0xb99c01bc	-0.0002975593
209	0xbe8fe0c7	-0.2810118
210	0x3d5fc3fe	0.054630272
211	0x3d42acd1	0.04752809
212	0xbd092798	-0.033485025
213	0x3d34cff2	0.044143625
214	0xbcf1a95c	-0.029499702
215	0x3d51a2e4	0.051180735
216	0xbeb9a714	-0.36260283
217	0x3eab4ab3	0.33455428
218	0xbe8c5157	-0.27405807
219	0xbeafe509	-0.34354427
220	0xbe24b9c3	-0.16086487
221	0x3d63701e	0.055526845
222	0xbdec2840	-0.115311146
223	0x3da1aa9d	0.0789387
224	0xbea99801	-0.33123782
225	0xbe82fc41	-0.2558308
226	0xbe29bf47	-0.16576873
227	0xbebdff6d	-0.37108937
228	0xbe659061	-0.22418357
229	0xbe9a266a	-0.30107433
230	0xbe8f6cc6	-0.28012675
231	0xbe0d3537	-0.13789831
232	0x3d1ef2c2	0.03880573
233	0xbe8c3e18	-0.27391124
234	0xbeade019	-0.33960035
235	0x3a17d708	0.0005792235
236	0xbe883fdc	-0.2661122
237	0xbec6b6f8	-0.3881147
238	0xbea0fba7	-0.31441996
239	0xbd5398c0	-0.051659346
240	0xbd994163	-0.07483175
241	0x3e4b68ad	0.1986415
242	0x3d2efb86	0.04272034
243	0xbdff7a7c	-0.12474534
244	0xbde5e763	-0.11225774
245	0xbe21051c	-0.15724605
246	0xbd78e085	-0.060760994
247	0xbe4d5776	-0.20052895
248	0x3e8d6afd	0.27620688
249	0xbeb45905	-0.35224167
250	0xbd7ef85d	-0.062248576
251	0xbdec47ef	-0.11537158
252	0xbf09a9ae	-0.53774536
253	0xbef7778a	-0.4833339
254	0xbdda2809	-0.10652167
255	0xbe080573	-0.13283329

layers.0.fc.bias f4 [800]
0	0xbf08c7c6	-0.5342983
1	0xbf02ca01	-0.51089483
2	0xbea07207	-0.31336996
3	0xbdb9eb42	-0.09078075
4	0xbf0afe6a	-0.54294455
5	0xbeaee061	-0.34155563
6	0xbf0b5de4	-0.5444014
7	0xbe756060	-0.23962545
8	0xbed11343	-0.40835008
9	0xbe7691a9	-0.24079002
10	0xbed7530a	-0.4205554
11	0xbf1f837d	-0.6231001
12	0xbe809062	-0.25110155
13	0xbf0835a8	-0.5320687
14	0xbec80819	-0.39068678
15	0xbeb54d48	-0.35410523
16	0xbe70f0da	-0.23529378
17	0xbefabb87	-0.48971197
18	0xbe6524b2	-0.2237728
19	0xbe948e89	-0.29014996
20	0xbec4045d	-0.3828458
21	0xbf46d752	-0.776723
22	0xbe8f1623	-0.27946576
23	0xbeac7f8c	-0.3369106
24	0xbe27a854	-0.16372806
25	0xbd933c45	-0.0718923
26	0xbee86207	-0.4538729
27	0xbe51dd96	-0.20494685
28	0xbe91d4fb	-0.28482804
29	0xbe00ac94	-0.12565833
30	0xbe9b8cbd	-0.30380812
31	0xbe883f51	-0.26610807
32	0xbf122d95	-0.571008
33	0xbea7c404	-0.32766736
34	0xbecd3703	-0.40081033
35	0xbeb7b7d9	-0.35882452
36	0xbe8ca198	-0.27467036
37	0xbca1aa4d	-0.019734526
38	0xbe764733	-0.24050598
39	0xbe8938b6	-0.2680108
40	0xbf290798	-0.6602721
41	0xbd1fcfa0	-0.039016366
42	0xbe2bcf0e	-0.16778204
43	0xbddbb06a	-0.10727008
44	0xbe5cb376	-0.21552834
45	0xbeb80eef	-0.35948893
46	0xbe5d718a	-0.21625343
47	0xbe72ae18	-0.23699224
48	0xbe252897	-0.16128765
49	0xbdda5344	-0.10660413
50	0xbec45a5a	-0.38350183
51	0xbf1a64a1	-0.603098
52	0xbe331f8e	-0.17492506
53	0xbeaa6612	-0.33280998
54	0xbe1c4e4f	-0.15264247
55	0xbee16872	-0.44024998
56	0xbea886d8	-0.32915378
57	0xbe5ceffe	-0.21575925
58	0xbed6e3cd	-0.41970673
59	0xbd846a87	-0.06465631
60	0xbeddb440	-0.43301582
61	0xbe709f88	-0.23498356
62	0xbecb96b1	-0.39763406
63	0xbe4b7305	-0.19868095
64	0xbf3b362c	-0.73129535
65	0xbeb95290	-0.36195803
66	0xbe538a91	-0.20658328
67	0xbe565ba2	-0.20933393
68	0xbef0ea49	-0.47053745
69	0xbe8b2284	-0.2717477
70	0xbe8eb6f6	-0.27873963
71	0xbdae339e	-0.08505939
72	0xbe28f980	-0.16501427
73	0xbebe9bfd	-0.37228385
74	0xbe7a9cba	-0.24473849
75	0xbe863c77	-0.26218006
76	0xbec0018f	-0.3750119
77	0xbe053630	-0.13008952
78	0xbe3065a9	-0.1722628
79	0xbef50643	-0.4785634
80	0xbe7f023e	-0.24903199
81	0xbe3803d0	-0.17970204
82	0xbea4a6f0	-0.32158613
83	0xbdf66d7c	-0.12032601
84	0xbeb3d78c	-0.35125387
85	0xbeb60655	-0.35551706
86	0xbeb03cd4	-0.34421408
87	0x3dd1bafc	0.102407426
88	0xbf02d2bf	-0.51102823
89	0xbe5016a1	-0.20321132
90	0xbe809c35	-0.25119177
91	0xbe3ce842	-0.18447974
92	0xbeae7b77	-0.3407857
93	0x3d9410c0	0.07229757
94	0xbf0a4e70	-0.54025936
95	0xbd2f8e37	-0.042860236
96	0xbe81e088	-0.25366616
97	0xbe31d3ca	-0.17365947
98	0xbeb659ae	-0.35615295
99	0xbe652ac1	-0.2237959
100	0xbe098712	-0.13430431
101	0xbeabaad7	-0.33528778
102	0xbeb6c04c	-0.35693586
103	0xbe4457ad	-0.1917407
104	0xbd92eb28	-0.07173759
105	0xbf207be6	-0.62689054
106	0xbeace9a7	-0.33772013
107	0xbedb887c	-0.42877567
108	0xbe5ee85d	-0.21768327
109	0xbe916efa	-0.2840498
110	0xbe280014	-0.1640628
111	0xbeccf189	-0.40028027
112	0xbf0d6ea0	-0.55246925
113	0xbee296b8	-0.44255614
114	0xbece284d	-0.40265122
115	0xbe9e2048	-0.30884004
116	0xbd823643	-0.06358006
117	0xbe792357	-0.24329887
118	0xbdb15cac	-0.08660254
119	0xbe05c2aa	-0.1306254
120	0xbe34bd95	-0.17650445
121	0xbec247ac	-0.37945306
122	0xbc574094	-0.013137955
123	0xbee220de	-0.441657
124	0xbe288de8	-0.16460383
125	0xbec3cafb	-0.382408
126	0xbe15961c	-0.14608043
127	0xbebe3188	-0.37147164
128	0xbec8ac0c	-0.3919376
129	0xbee4dce9	-0.4469979
130	0xbe88d2cb	-0.26723322
131	0xbf08fbeb	-0.53509396
132	0xbec36641	-0.3816395
133	0xbe79744d	-0.24360771
134	0xbf3d4e61	-0.7394772
135	0xbeca97f1	-0.39569047
136	0xbdbf58e3	-0.09343126
137	0xbf15d8b7	-0.58533806
138	0xbeeef37a	-0.46670133
139	0xbf0c9a55	-0.5492299
140	0xbebc380c	-0.3676151
141	0xbefebe59	-0.497546
142	0xbda71af5	-0.081594385
143	0xbe3f13bf	-0.18659876
144	0xbd3a6ce5	-0.045514006
145	0xbe58bafe	-0.21165082
146	0xbe663a88	-0.22483265
147	0xbeff4817	-0.49859688
148	0xbf5e6c80	-0.8688431
149	0xbe0502bd	-0.12989326
150	0xbef30c38	-0.4747026
151	0xbd3f85bb	-0.046758395
152	0xbda33583	-0.07969191
153	0xbf3764f4	-0.7163842
154	0xbf0f5e5b	-0.5600335
155	0xbe3a83ba	-0.18214312
156	0xbe40e5bf	-0.18837641
157	0xbee0e395	-0.4392363
158	0xbe6b2a2c	-0.22965306
159	0xbeac7d12	-0.3368917
160	0xbe8db560	-0.2767744
161	0xbef164ab	-0.47147116
162	0xbeb6cbd6	-0.3570239
163	0xbea9e2b1	-0.33180764
164	0xbcfeb984	-0.03109432
165	0xbe8fbc3b	-0.28073296
166	0xbf1fa7cc	-0.6236541
167	0xbee285ed	-0.44242802
168	0xbece1196	-0.40247792
169	0xbe83f369	-0.25771645
170	0xbe33fae4	-0.17576176
171	0xbcd3bce1	-0.0258469
172	0xbe4e6acb	-0.20157926
173	0xbf44663a	-0.76718485
174	0xbec9158e	-0.39274257
175	0xbe73743d	-0.2377481
176	0xbec1953b	-0.37809166
177	0xbe728c05	-0.23686226
178	0xbe92425d	-0.28566256
179	0x3c90cf04	0.017676838
180	0xbe9acb5c	-0.30233276
181	0xbf3cc0c0	-0.73731613
182	0xbd2ae8b9	-0.041725848
183	0xbed4574f	-0.4147286
184	0xbdd0aea9	-0.10189564
185	0xbe655da8	-0.22399008
186	0xbeaba9a2	-0.33527857
187	0xbef3ede4	-0.47642434
188	0xbeabd2e1	-0.33559325
189	0xbead6802	-0.33868414
190	0xbe4eee14	-0.20208007
191	0xbf513d13	-0.81733817
192	0xbefa2719	-0.48857954
193	0xbee3c0a0	-0.444829
194	0xbf061ce7	-0.5238785
195	0xbe9427a9	-0.28936508
196	0xbf058eb8	-0.52170897
197	0xbe8a1cca	-0.2697509
198	0xbe96cd11	-0.29453328
199	0xbefe75d4	-0.4969927
200	0xbe99ecf5	-0.30063596
201	0xbf0c5793	-0.5482113
202	0x3c4621ea	0.012093047
203	0xbea12e40	-0.31480598
204	0xbe4e7887	-0.20163165
205	0xbe841661	-0.25798324
206	0xbf181111	-0.5940104
207	0xbf4557bf	-0.77087015
208	0xbf198bb8	-0.5997882
209	0xbe9136ba	-0.28362066
210	0xbe107b51	-0.14109541
211	0xbe8e6eb9	-0.2781885
212	0xbe9d063f	-0.30668828
213	0xbec0bc4e	-0.37643665
214	0xbe5773fd	-0.2104034
215	0xbf0e99e9	-0.557036
216	0xbf0aaa6b	-0.5416629
217	0xbef9309e	-0.48669904
218	0xbe869722	-0.2628718
219	0xbe9d918c	-0.30775106
220	0xbe9836c9	-0.29729298
221	0xbe5282be	-0.20557687
222	0xbe83f060	-0.2576933
223	0xbeb12168	-0.345958
224	0xbebf596b	-0.37372908
225	0xbe0b195a	-0.1358389
226	0xbf0315fb	-0.51205415
227	0xbcd5cff5	-0.026100138
228	0xbd28e34f	-0.041232403
229	0xbe40f9a1	-0.18845226
230	0xbe0c2f29	-0.13689865
231	0xbeb6e97e	-0.35725015
232	0xbeeabcdf	-0.45847222
233	0xbe596970	-0.21231627
234	0xbeefdc4a	-0.46847755
235	0xbebd5e29	-0.369859
236	0xbe6528a7	-0.22378789
237	0xbf2ce5fe	-0.6753844
238	0xbe462ac0	-0.19352245
239	0xbf11d7c0	-0.56969833
240	0xbe086f6c	-0.13323754
241	0xbf306958	-0.6891074
242	0xbe79fdba	-0.24413195
243	0xbe8eeec2	-0.27916533
244	0xbe80363b	-0.25041375
245	0xbf200fdd	-0.62524205
246	0xbed0fdee	-0.40818733
247	0xbf55dca6	-0.8353981
248	0xbe82dd22	-0.25559336
249	0xbdcd2c67	-0.10018235
250	0xbe50cb54	-0.20390064
251	0xbddc7c5e	-0.10765909
252	0xbd59f330	-0.053210437
253	0xbe896916	-0.26837987
254	0xbe54a977	-0.2076777
255	0xbedafbc5	-0.4277021

out_cat.weight f4 [3, 800]
0	0xbe754a6d	-0.23954172
1	0xbe555c71	-0.20836045
2	0x3d0446b1	0.03229398
3	0xbd72dd3f	-0.059293028
4	0xbd5b661a	-0.05356417
5	0x3df3717c	0.1188688
6	0xbeaef420	-0.34170628
7	0x3e05ddbc	0.13072866
8	0xbb82ddfd	-0.003993748
9	0x3eb33169	0.34998634
10	0x3e41fd6f	0.18944333
11	0x3e3fae03	0.18718724
12	0xbd848290	-0.06470215
13	0xba874c5f	-0.0010322443
14	0x3bf916b1	0.007601582
15	0x3cb9688e	0.022632863
16	0xbe17dd8d	-0.14830609
17	0x3b76363f	0.0037568954
18	0xbe339fba	-0.175414
19	0x3e8a5a4c	0.27022016
20	0xbbd083da	-0.006363374
21	0x3d9edeed	0.077573635
22	0xbc3069da	-0.0107674245
23	0xbac05968	-0.0014675083
24	0xbe03f3bd	-0.12885948
25	0xbdca7e83	-0.098874114
26	0xba93ed9e	-0.0011286025
27	0xbe76e139	-0.24109353
28	0x3d30ceb8	0.043165892
29	0x3d42e9db	0.047586303
30	0x3d9fe00c	0.078064054
31	0xbb59f7b4	-0.0033259215
32	0xbe59beec	-0.21264237
33	0x3dcb5d62	0.09929921
34	0xbb3d5f5f	-0.0028895957
35	0xbb5c941a	-0.0033657611
36	0x3c157c10	0.009123817
37	0xbc2396cb	-0.009984682
38	0x3e4d1d11	0.20030619
39	0xbe66fe1c	-0.22557873
40	0x3e2b78a9	0.16745247
41	0xbbdeb9c4	-0.0067970473
42	0x3c44c9ae	0.012010975
43	0x3d00544c	0.03133039
44	0xbd0274c2	-0.03184963
45	0x3d7f9728	0.062400013
46	0x3ceb5f64	0.02873201
47	0xbe52dbbc	-0.20591635
48	0xbe995f90	-0.2995572
49	0xbc7044a4	-0.014664803
50	0xbd61f8d0	-0.055168927
51	0x3c9686d0	0.01837483
52	0xbc63bea6	-0.013900435
53	0xbea41112	-0.32044274
54	0xbd3d4e65	-0.04621734
55	0xbe147d29	-0.1450087
56	0x3df61a9a	0.120167926
57	0x3de8348a	0.11338146
58	0x3da5417d	0.080691315
59	0xbc5cbc4f	-0.013472631
60	0xbe1a4258	-0.1506437
61	0x3daad7ad	0.08341918
62	0xbe098140	-0.13428211
63	0xbc66082e	-0.014040036
64	0x3d6474a3	0.055775296
65	0xbd225c67	-0.039638903
66	0xbd3d6c56	-0.046245895
67	0xbc3ce6c1	-0.011529625
68	0x3d445321	0.04793084
69	0xbd92f16c	-0.07174954
70	0x3d95692c	0.072954506
71	0xbeffd697	-0.49968407
72	0xbde0a788	-0.10969454
73	0xbe2e2ffd	-0.17010494
74	0x3d995c85	0.0748835
75	0xbd37fcea	-0.044918932
76	0x3c18a920	0.009317666
77	0x3e16c397	0.14723049
78	0xbc88a3a0	-0.016679585
79	0xbed421f3	-0.4143215
80	0xbd7d4277	-0.061830964
81	0xbcc39e12	-0.023879085
82	0xbeb2cc89	-0.34921673
83	0x3d41f564	0.047353163
84	0xbb485669	-0.0030569083
85	0x3dd8722c	0.105686516
86	0xbe97f1ee	-0.29676765
87	0xbe08068c	-0.13283747
88	0x3dbe969d	0.09306071
89	0xbc149f1d	-0.009071139
90	0xbe167d3e	-0.14696214
91	0x3deb6105	0.114931144
92	0xbdecf503	-0.1157017
93	0xbe0de823	-0.13858084
94	0x3d455bb6	0.048183165
95	0xbe49d470	-0.19709945
96	0xbdc4aaf0	-0.09602916
97	0xbc12e1d1	-0.008964972
98	0x3cbfb9fb	0.023404112
99	0x3e1d814c	0.15381354
100	0x3eabbe2d	0.3354353
101	0xbe388086	-0.18017778
102	0xbd490be8	-0.04908362
103	0x3b481534	0.0030530216
104	0xbdbf2bcf	-0.09334528
105	0x3d829d3d	0.06377647
106	0x3c9bf100	0.019035816
107	0x3d1a4817	0.037666406
108	0xbe94f3ad	-0.2909216
109	0xbd304099	-0.043030355
110	0x3e84ba81	0.2592354
111	0xbe34581f	-0.1761174
112	0xbc5cee68	-0.013484575
113	0xbd023e47	-0.031797674
114	0x3c3fba82	0.011702182
115	0x3cde45ae	0.027132835
116	0xbd0cbc63	-0.034359347
117	0xbd00ac9e	-0.03141462
118	0x3dc2a8cf	0.09504854
119	0xbdd84dd2	-0.10561718
120	0xbc0be68c	-0.008538853
121	0xbd8c44b3	-0.06849041
122	0x3e62d7c6	0.22152624
123	0x3c959f54	0.01826445
124	0x3e1b66fc	0.15176004
125	0x3e16b18f	0.1471617
126	0x3dceaf3f	0.10092019
127	0x3db605bd	0.08887813
128	0xbe22ddfc	-0.15904993
129	0x3cd20b46	0.025640141
130	0xbe94e830	-0.29083395
131	0xbe48242b	-0.19545047
132	0x3defe7c2	0.11714126
133	0xbe99bb69	-0.30025795
134	0xbda68e8b	-0.08132657
135	0xbe0c665c	-0.13710922
136	0xbe1f8266	-0.15577087
137	0xbe08e659	-0.1336912
138	0xbe54f259	-0.20795573
139	0x3e89592e	0.2682585
140	0xbc3c5f38	-0.011497311
141	0x3d44611f	0.047944184
142	0xbc4a4b1c	-0.012347009
143	0x3d3a43e9	0.04547492
144	0x3daf812e	0.08569561
145	0xbd9e2662	-0.07722165
146	0xbe051ac8	-0.12998497
147	0x3d9a68c6	0.07539515
148	0xbe408b6f	-0.1880319
149	0xbe24132b	-0.16022937
150	0xbd05c1ee	-0.03265565
151	0xbd6ee246	-0.05832126
152	0x3dfdab59	0.123861976
153	0x3e1e5b6e	0.15464565
154	0x3d5c1069	0.053726587
155	0xbda64d57	-0.0812022
156	0xbd919c87	-0.07109933
157	0x3da51351	0.08060325
158	0xbdb45505	-0.08805279
159	0xbe02e34c	-0.1278202
160	0xbd02adb2	-0.03190393
161	0xbddb4f14	-0.10708442
162	0x3e3b04f4	0.18263608
163	0x3e907231	0.2821212
164	0xbd8d9a36	-0.06914179
165	0xbcce7be3	-0.025205558
166	0xbdd97a64	-0.10619047
167	0x3e13ee42	0.14446357
168	0x3c97447d	0.018465275
169	0xbe6ab9f5	-0.229225
170	0x3e03e5dc	0.12880653
171	0xbddfa4f0	-0.10920131
172	0x3addfe44	0.0016936739
173	0xbcd16a85	-0.025563488
174	0xbde430f4	-0.111421496
175	0xbe90b3a9	-0.2826207
176	0xbe51eba6	-0.20500049
177	0x3e23dd3a	0.1600236
178	0x3d850f06	0.06497006
179	0xbef4354f	-0.4769692
180	0xbd007e50	-0.03137046
181	0x3da4a3b4	0.080390364
182	0xbe0a7135	-0.13519748
183	0x3c3834da	0.01124307
184	0x3df38470	0.11890495
185	0xbd7cba8d	-0.061701346
186	0xbc965acb	-0.01835384
187	0x3dc02af6	0.09383194
188	0x3d0a6f52	0.03379757
189	0x3d437dde	0.04772746
190	0x3d999401	0.07498933
191	0x3c01cfbe	0.007923065
192	0x3d0ea99e	0.03482973
193	0x3d6a3669	0.057180796
194	0x3d8592ae	0.065221176
195	0x3e88ff6e	0.26757377
196	0x3d6a1ac5	0.057154436
197	0xbcaceac8	-0.021108046
198	0x3cf16917	0.029469056
199	0x3dcac823	0.09901454
200	0xbcef4dcd	-0.029211903
201	0xbe35b98b	-0.1774656
202	0x3e5ac8a9	0.21365608
203	0xbb68245f	-0.003542207
204	0xbd9b1294	-0.07571903
205	0xbdff051e	-0.12452148
206	0xbefb4067	-0.49072573
207	0xbe7b50da	-0.24542561
208	0x3d38bb4c	0.045100495
209	0xbe6d6eb6	-0.23186764
210	0xbe361d21	-0.1778455
211	0xbca593dd	-0.020212108
212	0x3c79d806	0.015249258
213	0x3c7205d4	0.014771897
214	0x3d8773b5	0.06613866
215	0x3c591643	0.0132499365
216	0xbe0e9dd3	-0.13927393
217	0xbd7726b4	-0.060339645
218	0xbe07c0ad	-0.13257094
219	0xbd622c31	-0.055217925
220	0xbe7096b6	-0.23494992
221	0x3af62adc	0.0018781084
222	0x3c661ee8	0.014045455
223	0xbef120f0	-0.47095442
224	0x3cad9262	0.021187965
225	0xbdc5df28	-0.09661704
226	0xbec7b51a	-0.39005357
227	0x3d506d40	0.05088544
228	0x3db3d235	0.08780328
229	0xbd073b91	-0.03301579
230	0x3d3b0022	0.045654424
231	0xbd5d6fd0	-0.05406171
232	0x3e49f6e9	0.19723095
233	0x3d546cde	0.051861636
234	0xbd36349c	-0.044483766
235	0xbc5b5017	-0.013385794
236	0xbdfef9df	-0.12450003
237	0xbed6d955	-0.41962686
238	0xbd7281d8	-0.05920586
239	0xbddd42ea	-0.108037785
240	0x3ccd870f	0.025088815
241	0xbd509ce2	-0.050930865
242	0xbe11dcff	-0.1424446
243	0x3d2388e0	0.039925456
244	0x3e2957b3	0.16537361
245	0x3e1cbdad	0.1530673
246	0x3ebf3e62	0.37352282
247	0xbe6c2b09	-0.23063292
248	0xbd2cd6db	-0.04219709
249	0x3d874000	0.06604004
250	0x3c05862a	0.008149663
251	0x3cb7ce69	0.022437291
252	0xbd9ad773	-0.07560625
253	0x3c2ab711	0.010419623
254	0x3cef782b	0.029232105
255	0x3d7b42e8	0.061343104

out_cat.bias f4 [3]
0	0xbeb44166	-0.35206145
1	0x3f4c0784	0.7969897
2	0xbf3b1599	-0.7307983
