models/ncls3-dex50/scenario1_epoch18.pt (torch, 847211 bytes, 6 tensors)

inp.fc.weight f4 [600, 49]
0	0x3c727261	0.014797778
1	0x3d64e98a	0.055886783
2	0x3e0d370d	0.13790531
3	0x3e087ac1	0.13328077
4	0xbdbf654f	-0.09345495
5	0x3d4a772b	0.049430054
6	0x3e2d945f	0.1695113
7	0x3e078b1b	0.13236658
8	0xbdef564b	-0.11686381
9	0x3db9b9db	0.09068652
10	0xbc9913a0	-0.018686116
11	0x3d4da545	0.05020644
12	0x3c934f26	0.017982077
13	0xbcd45a0f	-0.02592185
14	0x3dfbe2e9	0.12299139
15	0xbd532b23	-0.05155481
16	0x3bb28513	0.0054479926
17	0xbdd58187	-0.10425096
18	0xbdc6e9e7	-0.09712582
19	0xbbe7d1d9	-0.0070745763
20	0x3b26aa99	0.0025431274
21	0x3db248f7	0.08705323
22	0xbe0a2716	-0.13491473
23	0xbdd35047	-0.10318046
24	0x3d6d147e	0.05788087
25	0x3e12c567	0.14333116
26	0x3e2c8cee	0.16850635
27	0xbd3da6db	-0.046301704
28	0xbe11a5fd	-0.14223476
29	0x3da589d0	0.08082926
30	0x3d717948	0.058953553
31	0xbdc1cfd2	-0.09463467
32	0x3c284de3	0.010272476
33	0x3e3c5e7b	0.18395416
34	0x3ddb0847	0.10694938
35	0xbd042ed1	-0.03227121
36	0xbcde5f70	-0.027145118
37	0xbb8e3953	-0.0043403297
38	0xbe360223	-0.17774253
39	0xbd89d2c5	-0.06729654
40	0xbda3fbc9	-0.080070086
41	0x3d60a297	0.054842558
42	0x3c281723	0.0102594225
43	0x3e0d9ed7	0.13830124
44	0xbd45e6fd	-0.04831599
45	0xbc2e8d3f	-0.010653793
46	0xbda7792f	-0.08177411
47	0x3e51bd77	0.20482431
48	0x3e1e3661	0.15450431
49	0xbe093bd7	-0.13401733
50	0x3dd2c0fd	0.10290716
51	0xbce18f4d	-0.027534151
52	0xbe089e20	-0.1334157
53	0xbd803939	-0.06260914
54	0xbd8660a1	-0.06561399
55	0x3d26caeb	0.04072086
56	0x3db06d5e	0.0861461
57	0xbde6304a	-0.11239679
58	0x3e02ae62	0.12761834
59	0x3d823eb5	0.06359617
60	0x3e0064bd	0.12538429
61	0x3db12468	0.08649522
62	0x3afa9a9b	0.0019119562
63	0x3d77e3de	0.060520045
64	0xbc794c87	-0.015215999
65	0x3e025391	0.1272719
66	0xbddebd52	-0.10875954
67	0xbc216baa	-0.009852329
68	0x3e42fc3d	0.19041534
69	0xbe0c98be	-0.13730142
70	0xbdd60d5a	-0.10451765
71	0x3b0dcdc2	0.0021637534
72	0xbdd15d01	-0.10222817
73	0xbdd1bcb9	-0.10241074
74	0xbd452786	-0.048133396
75	0x3dba86c9	0.091077395
76	0xbd8b0b1c	-0.06789228
77	0x3e0b81f5	0.13623793
78	0x3d134cd7	0.035961952
79	0x3e6b3bb3	0.22971992
80	0xbd480949	-0.04883698
81	0x3c733fcf	0.014846756
82	0xbb35ef88	-0.002776118
83	0x3dcde767	0.10053902
84	0xbdb4e8f3	-0.08833494
85	0xbe0eba76	-0.13938317
86	0xbe73fb1c	-0.2382626
87	0xbd8c003f	-0.068359844
88	0xbe10d6ee	-0.14144489
89	0x3df42e04	0.11922839
90	0x3be29970	0.006915264
91	0xbda3b0a8	-0.07992679
92	0x3d2f9794	0.042869166
93	0xbe093ce3	-0.13402133
94	0xbc910a54	-0.01770512
95	0x3cbaa165	0.022782037
96	0x3d4f5acf	0.05062371
97	0xbe2c24aa	-0.16810861
98	0xbdfe7247	-0.124241404
99	0x3d8ccefa	0.06875415
100	0xbde195be	-0.11014889
101	0xbd795a4e	-0.060877137
102	0x3df1731c	0.117895335
103	0xbdb386fe	-0.08765982
104	0xbe076df4	-0.13225538
105	0x3ca2d4ca	0.019876856
106	0x3e5d8050	0.21630979
107	0xbe312ec2	-0.17302993
108	0xbd99f50e	-0.075174436
109	0x3e12dc22	0.14341787
110	0xbda5d270	-0.080967784
111	0xbe0f7e08	-0.14012921
112	0x3cda224f	0.026627688
113	0x3d80a110	0.0628072
114	0x3ca1381a	0.019680072
115	0xbd3a2793	-0.045447897
116	0x3d34b901	0.044121746
117	0x3e4ee845	0.20205791
118	0x3e795257	0.24347816
119	0x3d7edd5c	0.062222824
120	0xbdd6e2de	-0.1049249
121	0x3df425ae	0.11921249
122	0x3e0db00d	0.1383669
123	0x3cc1985f	0.023632227
124	0x3d908c82	0.0705805
125	0x3d729f68	0.059234053
126	0x3c4a2ddc	0.012340035
127	0x3d7da71c	0.061926946
128	0x3d349a56	0.0440925
129	0xbd0befa3	-0.034164082
130	0x3ca17c1e	0.019712504
131	0x39d9ca1e	0.00041540054
132	0x3d7a67d6	0.061134182
133	0x3d21ddd3	0.03951819
134	0x3da199c4	0.078906566
135	0xbceba073	-0.028763032
136	0x3e082428	0.13295043
137	0xbd918542	-0.07105495
138	0x3c908e81	0.017646076
139	0xbd8468cf	-0.06465303
140	0xbdb08c35	-0.08620492
141	0x3dc7dc74	0.09758845
142	0xbe4a2d61	-0.19743873
143	0x3c325909	0.010885485
144	0x3dbc47ca	0.0919338
145	0x3cb5c147	0.022186888
146	0x3d1e09b4	0.038583472
147	0x3d5a31e7	0.053270247
148	0x3d5b1ae7	0.053492453
149	0xbd863376	-0.06552784
150	0x3d41b6f9	0.047293637
151	0x3cfe4725	0.031039784
152	0x3dd4ae08	0.10384756
153	0x3c2e24ee	0.010628922
154	0xbd9c256e	-0.07624327
155	0xbdf9600d	-0.12176523
156	0x3d4f2a74	0.050577596
157	0x3dd6bfed	0.10485826
158	0x3d8a27cd	0.06745873
159	0x3d4ecc42	0.050487764
160	0x3d8c238f	0.0684272
161	0xbc8b8606	-0.01703168
162	0x3ddcb975	0.107775606
163	0xbb852bfb	-0.004064081
164	0xbddda612	-0.10822691
165	0x3d30c9e6	0.043161295
166	0x3e0bc9b5	0.13651164
167	0xbe1eea6d	-0.15519114
168	0x3dd6c445	0.10486654
169	0x3ca89033	0.020576572
170	0xbde95e06	-0.11394887
171	0xbe3d64a2	-0.1849542
172	0x3bb497dd	0.0055112676
173	0xbd7dd3b1	-0.061969463
174	0x3b5325d0	0.0032218583
175	0xbd95705e	-0.07296823
176	0x3dcf8f49	0.10134751
177	0x3c8bc43e	0.017061349
178	0xbd8d72fc	-0.06906697
179	0xbcb04f85	-0.021522293
180	0xbdef3277	-0.11679547
181	0x3e2189ad	0.15775175
182	0xbe3af1cd	-0.18256302
183	0x3e2fec27	0.17179929
184	0x3cb01f70	0.021499366
185	0x3decbf89	0.1155997
186	0x3e0bed8d	0.13664837
187	0x3ca39e44	0.019972928
188	0x3c853138	0.01625882
189	0xbc228682	-0.0099197645
190	0x3d752116	0.059846006
191	0x3d5438bd	0.051811922
192	0x3b7ee0ce	0.0038891318
193	0x3b13b3a7	0.00225375
194	0xbe242ba9	-0.1603228
195	0xbe3da8d3	-0.18521433
196	0xbd8eedc1	-0.06978942
197	0xbc8c4269	-0.01712151
198	0x3e054470	0.13014388
199	0x3dcda531	0.100412734
200	0xbd802e8e	-0.062588796
201	0x3d6a0d71	0.057141725
202	0x3dffe18d	0.12494192
203	0x3e259e3d	0.16173644
204	0xbe04c831	-0.12966992
205	0x3d3a826b	0.045534533
206	0x3d6a65bd	0.05722593
207	0xbe3f69bd	-0.1869268
208	0x3dae4e8a	0.08511074
209	0xbcfd5ce8	-0.03092809
210	0xbdc2849e	-0.09497951
211	0xbda7255e	-0.08161424
212	0x3d4f9579	0.050679658
213	0xbdb420a5	-0.08795289
214	0xbe224c58	-0.15849435
215	0x3e33ba2c	0.17551488
216	0x3de2ab61	0.11067844
217	0x3e2bcaca	0.16776577
218	0xbb4cbc56	-0.0031240187
219	0x3d6f6bcf	0.058452424
220	0x3cd371c5	0.025811085
221	0x3df6d35c	0.12052032
222	0x3dfa21ea	0.122135
223	0xbdc7eaba	-0.097615674
224	0xbdec15f4	-0.11527625
225	0x3e521a65	0.20517881
226	0x3cb2be87	0.021819366
227	0xbd70d160	-0.058793426
228	0x3e2858e8	0.16440165
229	0xbe034c61	-0.12822105
230	0x3d961dcb	0.07329901
231	0xbd0e28d0	-0.03470689
232	0xbbda8890	-0.0066691115
233	0xbd826f8a	-0.06368931
234	0x3dd615b4	0.10453358
235	0x3d90bcc9	0.07067258
236	0x3d845472	0.06461419
237	0xbd9b935d	-0.07596467
238	0x3e04171d	0.12899442
239	0x3dd4946d	0.103798725
240	0x3df32bf6	0.11873619
241	0x3dfd5df6	0.12371437
242	0xbe2836e1	-0.16427185
243	0x3dd00fe3	0.1015928
244	0xbcf72420	-0.030168593
245	0xbdc3752f	-0.09543835
246	0x3c073594	0.00825252
247	0x3dab8672	0.08375253
248	0xbd1ffeb4	-0.039061263
249	0xbe23120d	-0.15924855
250	0x3d38e0e7	0.04513636
251	0xbc231a43	-0.009954992
252	0xbe443a60	-0.19162893
253	0xbe4fa592	-0.20278004
254	0xbd57ba7a	-0.052668072
255	0xbd21b94b	-0.03948335

inp.fc.bias f4 [600]
0	0xbcc1e878	-0.02367042
1	0xbe369820	-0.17831469
2	0xbdb60a24	-0.08888653
3	0xbc21dd14	-0.009879369
4	0xbddf0298	-0.108891666
5	0x3accb910	0.0015619118
6	0xbd9737f4	-0.07383719
7	0xbc6d9aa0	-0.0145021975
8	0xbaada938	-0.0013249284
9	0xbde0b5aa	-0.1097215
10	0xbded014d	-0.11572514
11	0xbd802a6a	-0.0625809
12	0x3d21577b	0.03939007
13	0xbdb1da01	-0.08684159
14	0x3b3d0025	0.0028839197
15	0xbe3cc5cc	-0.18434829
16	0xbe29d3e0	-0.1658473
17	0x3ca786c2	0.02045
18	0xbd2ac0a0	-0.041687608
19	0xbce0c5bd	-0.027438039
20	0xbcb3c53d	-0.021944636
21	0xbdfef906	-0.12449841
22	0xbda2dd64	-0.07952383
23	0x3d673847	0.056450155
24	0xbd7aa80f	-0.06119543
25	0xbcda7ea2	-0.026671711
26	0xbda36126	-0.07977514
27	0xbd5f66b6	-0.054541312
28	0xbe2de199	-0.1698059
29	0xbd77cba6	-0.06049695
30	0xbb32ebaa	-0.0027301111
31	0xbd40981e	-0.04702007
32	0x3dbed382	0.09317686
33	0xbb40b9d7	-0.0029407644
34	0xbdf26212	-0.11835112
35	0xbe02f008	-0.12786877
36	0x3d7d3476	0.06181761
37	0xbe4d7dda	-0.2006754
38	0xbdd6367d	-0.104596116
39	0xbe057f03	-0.13036732
40	0xbd8615dc	-0.06547138
41	0x3d4edd1a	0.050503828
42	0xbd9fbd5b	-0.077997886
43	0xbc8f579d	-0.017497832
44	0xbbdc90b7	-0.0067311185
45	0x3da8c6ed	0.08241067
46	0xbda9de71	-0.082943805
47	0xbbc1f7b5	-0.0059194216
48	0xbd3696ef	-0.044577535
49	0x3d9f7f11	0.07787908
50	0xbdb166bc	-0.08662173
51	0xbd22e58b	-0.03976969
52	0xbca19c43	-0.019727832
53	0xbca48df5	-0.020087222
54	0xbc6550fd	-0.01399636
55	0x3b1073a3	0.002204158
56	0x3d900acb	0.070333086
57	0x3d1c62e0	0.038180232
58	0xbdd47232	-0.103733435
59	0xbe0f5f54	-0.14001209
60	0x3c25be98	0.010116242
61	0xbc9e3010	-0.019310027
62	0xbdb79b17	-0.08965128
63	0x3d93555d	0.07194016
64	0xbdbc012d	-0.09179912
65	0xbd13e19b	-0.036103826
66	0x3ce75611	0.028239282
67	0xbdfc41e5	-0.12317256
68	0x3cc33135	0.023827175
69	0x3dbf2821	0.09333826
70	0xbe0972cb	-0.13422696
71	0xbe3450e3	-0.17608981
72	0x3c66e018	0.014091514
73	0xbd1f6440	-0.038913965
74	0x3c230067	0.009948826
75	0xbe219f7b	-0.15783493
76	0xbcbe4ec9	-0.023230927
77	0x3d060754	0.032721832
78	0x3c894b73	0.01675961
79	0xbcf898ed	-0.030346358
80	0x3dc2dbf4	0.09514609
81	0x3db6879e	0.08912586
82	0x3d137e47	0.0360091
83	0xbd55f364	-0.05223407
84	0x3d214483	0.03937198
85	0xbd8a45b9	-0.0675158
86	0xbd8f16e5	-0.06986789
87	0xbdd17bd2	-0.10228695
88	0xbdd75690	-0.10514557
89	0xbe16b7d0	-0.14718556
90	0xbd4df047	-0.050277974
91	0xbd1ae73a	-0.03781817
92	0xbcce482f	-0.025180904
93	0xbc1b5464	-0.0094805695
94	0xbe2b8a1c	-0.16751903
95	0xbdaabb31	-0.08336485
96	0x3d12859e	0.03577196
97	0xbc5ebe3e	-0.013595162
98	0xbdf4364e	-0.1192442
99	0xbca1ea33	-0.019764995
100	0x3c48c2e2	0.012253495
101	0xbd00725d	-0.031359065
102	0xbd2051b2	-0.03914041
103	0xba8bd043	-0.0010666925
104	0xbd9c853a	-0.076425985
105	0xbc9b490a	-0.018955726
106	0x3da65ee5	0.081235684
107	0xbe3ab6b5	-0.1823376
108	0x3ddc23da	0.10749026
109	0xbe2b73a5	-0.16743334
110	0x3d0835b5	0.033254344
111	0xbd3affd3	-0.04565413
112	0xbe0b7f12	-0.13622692
113	0x3cb6a7cd	0.02229681
114	0xbd93fe70	-0.072262645
115	0xbe1acc25	-0.15116937
116	0xbddbda0e	-0.1073495
117	0x3df043d5	0.11731688
118	0xbd9b76bb	-0.075910054
119	0xbd1493ed	-0.036273886
120	0xbda033e3	-0.078223966
121	0xbc8234ab	-0.015894255
122	0xbe259a3f	-0.16172121
123	0xbd68503e	-0.05671715
124	0x3d7a0cba	0.061047293
125	0xbe1eb3b4	-0.15498239
126	0xbcb8d4fa	-0.022562493
127	0xbdb90386	-0.09033875
128	0xbd5e3065	-0.05424537
129	0x3cff57fc	0.031169884
130	0x3da0c80c	0.07850656
131	0xbe1cb3cb	-0.1530296
132	0x3d122b33	0.03568573
133	0x3a02a6d2	0.00049839646
134	0xbd8f180b	-0.06987008
135	0xbc25e3a7	-0.010125077
136	0x3c5ff1d4	0.013668496
137	0x3d1bb569	0.038014803
138	0x3c8fb83a	0.0175439
139	0xbce57f2f	-0.028014747
140	0x3c0038e0	0.00782606
141	0xbe0f9e7c	-0.140253
142	0xbe346543	-0.17616753
143	0xbe00f5f5	-0.12593825
144	0xbad48f20	-0.0016216971
145	0xbd97361e	-0.07383369
146	0xbd9509fc	-0.07277295
147	0x3c71dd65	0.014762257
148	0xbc785249	-0.015156337
149	0x3c1ba0d8	0.009498797
150	0xbe4c1c1d	-0.199326
151	0xbdd9699f	-0.10615849
152	0x3e049f65	0.12951429
153	0x3d34fda7	0.044187214
154	0xbdad2c5d	-0.08455727
155	0x3df30ce8	0.11867696
156	0xbe3196e8	-0.17342722
157	0xbe3749d7	-0.17899261
158	0x3d947b0b	0.07250031
159	0xbddc44b6	-0.10755293
160	0xbda34458	-0.0797202
161	0x3c8c4742	0.017123822
162	0xbda6691e	-0.08125518
163	0x3e2f5c85	0.17125137
164	0xbe451dc9	-0.19249643
165	0xbbdcaa00	-0.0067341328
166	0xbcbbe7dd	-0.02293771
167	0xbe16f2ad	-0.14741011
168	0xbbf0cac7	-0.0073483917
169	0x3ca77935	0.020443538
170	0x3d9871b0	0.07443559
171	0xbdf0f48d	-0.11765394
172	0x3d38d0e2	0.04512108
173	0xbd9da2f0	-0.076970935
174	0xbbd39883	-0.00645739
175	0xbde009f8	-0.109394014
176	0xbc31017e	-0.010803578
177	0xbe3e20c6	-0.1856719
178	0xbe2bb0ad	-0.16766615
179	0x3c0efc78	0.008727185
180	0xbcbe506a	-0.023231704
181	0x3c843556	0.016138714
182	0x3cc82653	0.024432337
183	0xbd6f7034	-0.058456615
184	0x3cfc7828	0.030819014
185	0xbdd54487	-0.10413461
186	0xbd383b2c	-0.044978306
187	0x3b97c150	0.004631199
188	0xbd2d4ad7	-0.0423077
189	0xbd3eb907	-0.046563175
190	0x3d62a377	0.055331673
191	0xbe13b3ea	-0.144241
192	0xbe43bace	-0.19114229
193	0xbdeea9fe	-0.11653517
194	0xbd9f5d9a	-0.07781525
195	0xbdd9f5db	-0.10642596
196	0xbd9d60a8	-0.07684451
197	0xbd10afd6	-0.03532394
198	0x3d8fe5bf	0.070262425
199	0xbe20d49a	-0.15706101
200	0xbe098bfe	-0.13432309
201	0xbd2e7ffe	-0.04260253
202	0x3e0b58f4	0.13608152
203	0x3c5b493a	0.013384158
204	0x3de5bf12	0.112180844
205	0x3b1860ea	0.0023251125
206	0xbd11a782	-0.03556014
207	0x3c3b779f	0.011442094
208	0xbd3737fd	-0.04473113
209	0xbda91301	-0.08255578
210	0x3d3d60fe	0.046235077
211	0x3b810843	0.0039377525
212	0x3d191b9a	0.03737984
213	0xbe337b94	-0.1752761
214	0xbe072efd	-0.13201518
215	0xbd0d60e2	-0.034516223
216	0xbd3588fb	-0.044320088
217	0xbdeddece	-0.11614762
218	0xbdfb22a0	-0.122624636
219	0xbd856223	-0.06512859
220	0xbe0cb374	-0.13740331
221	0xbd80c640	-0.06287813
222	0xbd91e6f2	-0.071241274
223	0xbdf63bf5	-0.12023155
224	0x3a038cf2	0.0005018256
225	0xbe3c904b	-0.18414418
226	0xbe0d820f	-0.13819145
227	0x3c9c9ca2	0.019117657
228	0xbdef863b	-0.11695524
229	0xbd1f67d6	-0.038917385
230	0xbd5f625f	-0.054537173
231	0x3b69d9b6	0.0035682744
232	0xbd81ada8	-0.063319504
233	0xbdd2be22	-0.10290171
234	0xbd5997d9	-0.05312333
235	0x3d32d797	0.043662634
236	0xbe4a9ced	-0.19786425
237	0xbe1cb4a1	-0.1530328
238	0xbda8d672	-0.08244027
239	0xbe1da74f	-0.15395854
240	0xbe429f57	-0.19006096
241	0xbe0fe06a	-0.14050451
242	0x3d694757	0.0569528
243	0xbe162743	-0.14663415
244	0xbd6f68ea	-0.058449663
245	0x3df83439	0.12119336
246	0xbcce24aa	-0.025163967
247	0xbddb881d	-0.10719321
248	0xbd99898a	-0.074969366
249	0x3df1a8a8	0.11799747
250	0x3c8cac34	0.017171957
251	0xbd81f918	-0.06346339
252	0xbdf30d77	-0.118678026
253	0x3d1f4072	0.03887982
254	0xbe05bd17	-0.13060413
255	0xbdeebf62	-0.11657597

layers.0.fc.weight f4 [300, 600]
0	0xbc9ab7b0	-0.018886417
1	0x3c8a575e	0.016887363
2	0xbd2c9797	-0.042136755
3	0xbc4ac7d3	-0.012376743
4	0xbcd9ec8d	-0.026602054
5	0x3d187f1a	0.03723059
6	0xbd6503e0	-0.0559119
7	0xbc7e4d79	-0.015521401
8	0xbb28f2a6	-0.0025779395
9	0xbd212526	-0.039342068
10	0xbd24ab4b	-0.04020242
11	0xbd6b014b	-0.05737428
12	0x3b5927b5	0.003313524
13	0xbcd16a84	-0.025563486
14	0xbd902e4c	-0.070400804
15	0x3d08b904	0.03337957
16	0xbd468819	-0.048469637
17	0x3c61805f	0.013763516
18	0xbd459024	-0.048233166
19	0xbcad0a4b	-0.021123072
20	0xbcc83ead	-0.024443949
21	0xbd4eace8	-0.050457865
22	0xbcc3f188	-0.023918882
23	0xba2ba153	-0.00065471715
24	0xbd266ec5	-0.04063298
25	0xbcf574a8	-0.029962853
26	0xbc607ee0	-0.013702124
27	0xbd54f0d1	-0.051987473
28	0xbd4dba89	-0.050226722
29	0xbd64f6c4	-0.055899397
30	0xbd00fee3	-0.03149308
31	0x3bfd0eb5	0.0077227005
32	0xbd871cf8	-0.06597322
33	0x3c14caa4	0.009081516
34	0x3c8e5624	0.01737506
35	0xbc8bd66d	-0.01707002
36	0xbd856eec	-0.06515297
37	0x3ce09ac1	0.027417542
38	0xbb1fb741	-0.0024370702
39	0xbd13c8c4	-0.036080137
40	0x3c8c27ea	0.017108876
41	0xbb889765	-0.0041684383
42	0xbd58a7a8	-0.052894264
43	0x3d12b2e6	0.035815142
44	0xbc84fcf7	-0.016233904
45	0xbbe63f64	-0.0070265997
46	0xbce8dac6	-0.028424632
47	0xbd24d6e1	-0.040243987
48	0xbc123b74	-0.008925308
49	0xbd5476a2	-0.05187095
50	0xbcd31dec	-0.025771104
51	0xbc98b817	-0.018642468
52	0xbd88ca0c	-0.066791624
53	0xbd863238	-0.06552547
54	0x3ce66bf3	0.028127646
55	0x3c5d41e6	0.013504481
56	0xbd036934	-0.03208275
57	0xbd3a5145	-0.04548766
58	0xbcdbab23	-0.026815003
59	0xbce75a4e	-0.028241303
60	0xbd3c0652	-0.045904465
61	0x3bc70c36	0.0060744537
62	0xbd5dc775	-0.054145295
63	0xbcae3f2d	-0.021270359
64	0xbcc4894f	-0.023991255
65	0xbd14587e	-0.036217205
66	0x3bb15031	0.005411171
67	0xbd0ca9c1	-0.034341577
68	0xbb81716e	-0.0039502895
69	0x3d0ddd89	0.0346351
70	0xbd49378d	-0.049125243
71	0xbd67bc8c	-0.056576297
72	0xbcab5c43	-0.020918017
73	0xbc282b1e	-0.010264186
74	0x3b98021b	0.004638923
75	0xbd37d0db	-0.044876914
76	0xbcf4137c	-0.029794447
77	0xbd0e4f04	-0.034743324
78	0xbd425ffe	-0.047454827
79	0xbcbb1f9d	-0.022842223
80	0xbc4e17f8	-0.012578957
81	0xbbc57621	-0.006026045
82	0xbd32607b	-0.043549042
83	0xb99aaf75	-0.00029503895
84	0xbd12d6e7	-0.035849478
85	0xbd4cb350	-0.049975693
86	0x3b496dab	0.0030735533
87	0xbd7cb374	-0.061694577
88	0xbd7c8490	-0.06164986
89	0xbcf39eae	-0.02973875
90	0xbd2a5c01	-0.041591648
91	0x3b4ae785	0.003096075
92	0xbd38dff0	-0.04513544
93	0xbce2d708	-0.027690426
94	0xbd0187d8	-0.03162369
95	0xbd2cac7b	-0.042156678
96	0xbd37b8c2	-0.044853933
97	0xbbebc216	-0.0071947677
98	0xbd8ddf47	-0.069273524
99	0xbd2ce723	-0.042212617
100	0xbd238a61	-0.03992689
101	0xbceef41e	-0.029169139
102	0xbb93da2c	-0.004512092
103	0xbc94dee8	-0.018172696
104	0xbbbcabad	-0.00575777
105	0xbd1b453b	-0.03790782
106	0xbcbdad10	-0.023153812
107	0xbd2db2d8	-0.042406887
108	0xbd8b2762	-0.06794621
109	0x3b8c9440	0.0042901337
110	0xbc9d774e	-0.019221928
111	0x3b0bab1f	0.0021311713
112	0xbd7bdf10	-0.061492026
113	0xbd275ea5	-0.040861744
114	0xbca48d43	-0.02008689
115	0x3c2f4cc3	0.010699454
116	0x3b64dc5b	0.003492138
117	0xbd7e3f34	-0.062071994
118	0x3c4bb963	0.012434336
119	0xbd2dbab1	-0.04241437
120	0xbc82cc9b	-0.015966704
121	0x3c233629	0.009961643
122	0xbd871b2b	-0.06596979
123	0x3ca002e6	0.019532632
124	0xbd0b5c83	-0.034023773
125	0xbc4f0028	-0.012634315
126	0x3c1143ee	0.008866293
127	0xbd8113e2	-0.063026205
128	0x3c391a76	0.011297813
129	0xbd84140e	-0.06449138
130	0xbc611b40	-0.013739407
131	0xbd7f1a6e	-0.062281065
132	0xbd162153	-0.036652874
133	0xbd2491a4	-0.040177956
134	0xbd40d957	-0.04708227
135	0xbbf26685	-0.007397475
136	0xbd901305	-0.07034878
137	0x3b398784	0.0028309533
138	0xbd03bf2f	-0.03216475
139	0xbc8559f3	-0.016278243
140	0x3c9368f9	0.01799439
141	0xbd4bb932	-0.049737163
142	0xbd177774	-0.036979154
143	0xbd024b3e	-0.031810038
144	0xbc34077f	-0.010988115
145	0xbc0c4608	-0.008561619
146	0xbd83f2d0	-0.06442797
147	0xbc36e93a	-0.011164004
148	0x3c029cee	0.007971985
149	0x3be91ebd	0.00711426
150	0xbd2125cd	-0.03934269
151	0xbd698da2	-0.057019837
152	0xbca4f9bc	-0.020138614
153	0xbd05feb0	-0.032713592
154	0x3be323b4	0.0069317464
155	0xbd160a83	-0.03663112
156	0xbc8076fe	-0.01568174
157	0x3b095761	0.0020956623
158	0xbac634e5	-0.0015121965
159	0xbd061c1e	-0.03274166
160	0xbd03a000	-0.03213501
161	0x3b616709	0.003439369
162	0x3b33db0f	0.0027443802
163	0xbc30a249	-0.010780879
164	0xbc0b4c67	-0.008502102
165	0x3c6002c8	0.013672538
166	0xbcbabff4	-0.022796609
167	0x3d17118c	0.03688197
168	0x3bb487f4	0.005509371
169	0xbc628f89	-0.013828167
170	0xbc879722	-0.016551558
171	0xbbe54369	-0.0069965613
172	0xbd26e306	-0.04074385
173	0xbd6f8bb8	-0.058482856
174	0x3cd6d09c	0.02622252
175	0xbce19866	-0.02753849
176	0xbd67ce02	-0.05659295
177	0xbc992b11	-0.018697293
178	0xba8dca9d	-0.001081783
179	0xbd845dd2	-0.06463207
180	0xbc3c3ebe	-0.011489568
181	0xbd582c58	-0.052776664
182	0xbc8796c5	-0.016551385
183	0xbd7747b8	-0.06037113
184	0x3bfa07de	0.0076303324
185	0xbc9fb7ab	-0.01949676
186	0x3c8bf601	0.017085077
187	0xbd7a0512	-0.06103999
188	0xbd61e0ee	-0.05514615
189	0xbc3bd44a	-0.011464188
190	0xbc8e54ec	-0.017374478
191	0xbcad9b1a	-0.021192122
192	0x3aacb30e	0.0013175921
193	0x3be9d99d	0.007136537
194	0x3c4de03a	0.012565667
195	0xbcda8036	-0.026672464
196	0xbc28497e	-0.010271428
197	0x3cf56757	0.029956503
198	0xbd7086b8	-0.058722228
199	0xba710f4c	-0.00091957
200	0xbbe14e75	-0.006875808
201	0xbd01c4ae	-0.03168171
202	0x3c2823d1	0.010262446
203	0xbbbf049c	-0.005829407
204	0xbd7c268c	-0.0615602
205	0xbd0794d1	-0.033100907
206	0xbd89b8a1	-0.06724668
207	0xbd2d4750	-0.042304337
208	0xbcdcaeec	-0.026938878
209	0xbc8e8907	-0.017399324
210	0xbd0d16f9	-0.034445737
211	0xbd4622b7	-0.04837295
212	0xbb9d07e2	-0.0047921995
213	0x3ab2ca30	0.0013640579
214	0xba4f2ebf	-0.0007903389
215	0xbc62f908	-0.013853319
216	0xbd7e2fe6	-0.0620574
217	0xbd79cf3b	-0.060988646
218	0xbcb2c4f6	-0.021822434
219	0xbcced776	-0.025249224
220	0xbd5803b1	-0.052737895
221	0xbbe62bc0	-0.0070242584
222	0xbb9d3121	-0.0047971164
223	0xbd8678e8	-0.0656603
224	0xbd6a5293	-0.057207655
225	0xbca0797f	-0.019589184
226	0xbd2de5cf	-0.04245549
227	0xbd5ca66c	-0.05386965
228	0xbc5c83c2	-0.013459148
229	0xbc8706dd	-0.016482765
230	0xbc1d8ecf	-0.009616568
231	0xbd1d0896	-0.038338266
232	0x3c066e88	0.008205064
233	0xbd60136c	-0.054706022
234	0xbc9792f6	-0.018502694
235	0xbb0077ab	-0.0019602578
236	0xbd18fec6	-0.037352346
237	0xbd80db85	-0.0629187
238	0xbd6d95fd	-0.058004368
239	0xbcab287c	-0.020893328
240	0xbd12a10b	-0.035798114
241	0xbc3d3432	-0.011548089
242	0x3d2251f0	0.039628923
243	0x3c8a374a	0.016872067
244	0x3abb20a7	0.0014276699
245	0xb893468b	-7.022646e-05
246	0xba9ff5e4	-0.0012204018
247	0x3c73dac4	0.014883701
248	0xbd604062	-0.0547489
249	0x3ab02eda	0.0013441697
250	0xbd0cc4be	-0.034367315
251	0xbd1bc6cb	-0.03803138
252	0x3c00cb31	0.007860945
253	0xbcb9bab6	-0.022672039
254	0xbc4471dd	-0.011990038
255	0xbd2a0636	-0.04150983

layers.0.fc.bias f4 [300]
0	0xbb00929d	-0.0019618638
1	0xbca23aec	-0.019803487
2	0x3c854a6d	0.01627084
3	0xbd2a44a4	-0.041569367
4	0xbce92a7b	-0.02846264
5	0xbd25851a	-0.04041014
6	0x3d0e9b8f	0.03481632
7	0x3c57ecdd	0.013179031
8	0x3d29588f	0.04134422
9	0x3c736627	0.014855898
10	0x3ce9dbb0	0.028547138
11	0xbc085a47	-0.008322305
12	0x3b01ba7e	0.0019794996
13	0xbc575649	-0.013143131
14	0xbcda701e	-0.02666479
15	0xbc5470f0	-0.0129663795
16	0x3ba2cfc4	0.0049686152
17	0x3bc91a2b	0.0061371527
18	0x3d3d6d7f	0.046247
19	0x3d1d5af0	0.038416803
20	0xbc843597	-0.016138835
21	0x3b67184d	0.0035262287
22	0xbd1157d8	-0.035484165
23	0x3c9ee0bb	0.01939427
24	0x3dab488a	0.08363445
25	0xbd2799c5	-0.04091813
26	0xbb2c6ca5	-0.0026309874
27	0xbbb2d1d2	-0.0054571414
28	0x3d0a6932	0.03379173
29	0xbd5e5df7	-0.05428883
30	0x3d1c973c	0.038230166
31	0xbc9ae86e	-0.01890966
32	0x3d589d50	0.0528844
33	0x3c3c0798	0.01147642
34	0xbd305c2e	-0.04305666
35	0x3d00ff69	0.031493578
36	0xbca6a896	-0.02034406
37	0xbd376d54	-0.044781998
38	0xbc9ddba0	-0.019269764
39	0xbb566f1a	-0.003272003
40	0xbcf7525f	-0.030190645
41	0xbd97018e	-0.073733434
42	0x3cd9d40d	0.026590372
43	0xbd08e58c	-0.033422038
44	0x3d0170e6	0.03160181
45	0xbd854aee	-0.06508432
46	0xbc357c7e	-0.0110770445
47	0xbc142d1c	-0.009043958
48	0x3cb3fc16	0.02197079
49	0xbd1d97e9	-0.03847495
50	0xbd2a2a90	-0.041544497
51	0xbd2933ef	-0.041309293
52	0xbd2d2689	-0.042273078
53	0x3ae45705	0.0017420953
54	0xbcacd4c4	-0.021097548
55	0xbc0e4ab5	-0.008684804
56	0xbcd50f19	-0.026008176
57	0x3d35a3be	0.04434561
58	0xbb524563	-0.0032084815
59	0x3d01118d	0.03151088
60	0x3bc209ec	0.005921593
61	0x3d164b90	0.036693156
62	0x3b83593d	0.0040084408
63	0xbc105217	-0.008808634
64	0xbc85f2d6	-0.016351145
65	0xbd28c771	-0.041205827
66	0xbaa3c15a	-0.0012493536
67	0xbd004b05	-0.031321544
68	0xbc73024b	-0.01483209
69	0x3c1df69a	0.009641314
70	0x3d15c152	0.036561318
71	0xbd4d5f8c	-0.05013995
72	0x3c5918bf	0.013250529
73	0xbc9a1ced	-0.018812621
74	0xbd760193	-0.060060095
75	0xbd0420a0	-0.032257676
76	0xbd733f96	-0.059386812
77	0x3d0fc4d6	0.035099827
78	0xbcc272f5	-0.023736456
79	0xbd111c89	-0.035427604
80	0x3c23b412	0.009991663
81	0x3ca965a4	0.020678349
82	0xbc8bafe1	-0.017051639
83	0xbc67f79e	-0.014158158
84	0xbd02be6e	-0.03191989
85	0xbd2e97f0	-0.042625368
86	0x3c90237a	0.017595042
87	0xbce77a78	-0.02825664
88	0xbd3ffdb4	-0.04687281
89	0xbd08a75d	-0.033362735
90	0xbd26df9a	-0.040740587
91	0xbcd896f3	-0.026439166
92	0xbd06b974	-0.032891706
93	0x3bdd52f0	0.0067542717
94	0xbb74fe7e	-0.0037383134
95	0xbd133a27	-0.03594413
96	0xbcf9f5bc	-0.030512683
97	0xbc73d1d5	-0.014881571
98	0xbcf2ed32	-0.02965412
99	0xbd1dbc78	-0.038509816
100	0x3d3db2ed	0.046313215
101	0x3c5fed0b	0.013667355
102	0x3cba7710	0.022761852
103	0x3d094512	0.033513136
104	0xbc66549e	-0.01405826
105	0x3ca6a2cf	0.020341305
106	0x3cad23cd	0.021135235
107	0xbcd300b9	-0.02575718
108	0xbcf9ad5f	-0.030478178
109	0x3bbef1c3	0.00582716
110	0xbc94af57	-0.018150015
111	0x3d2d862e	0.04236429
112	0x3b3838e2	0.0028110077
113	0xbd07c877	-0.033150163
114	0x39f4cf6f	0.00046693857
115	0xbb54d9ce	-0.0032478455
116	0xbcb15211	-0.021645578
117	0x3d3737d1	0.044730965
118	0x3c81e856	0.015857857
119	0x3d88bc6f	0.06676566
120	0x3ca66b73	0.020314908
121	0x3c7700c2	0.015075864
122	0x3d4df3b4	0.05028124
123	0x3c12dffa	0.008964533
124	0xbc7d521c	-0.015461471
125	0xbd4ec437	-0.050480094
126	0xbc31dccd	-0.010855866
127	0x3c18948a	0.009312758
128	0x3cc28839	0.023746597
129	0xbd412116	-0.047150694
130	0x3c39460d	0.011308205
131	0x3c665076	0.014057269
132	0x39b9349b	0.00035325144
133	0x3d8dbd9f	0.06920933
134	0xbccdca9b	-0.025121024
135	0x3bce1758	0.006289404
136	0xba6dd6db	-0.00090728485
137	0xbd879cea	-0.06621726
138	0xbcb60173	-0.022217488
139	0x3b8653e8	0.004099358
140	0xbcdbb75a	-0.026820827
141	0xbcaaaa30	-0.020833105
142	0x3c8410e9	0.016121345
143	0xbd253a16	-0.0403386
144	0xbd0f77e1	-0.035026435
145	0xba4e3059	-0.0007865481
146	0xbd0ba364	-0.03409137
147	0xbd0fd908	-0.035119087
148	0x3cb19017	0.021675153
149	0x3cf1adc0	0.029501796
150	0x3cb045a3	0.02151758
151	0x3d1adc40	0.037807703
152	0x3be09ca5	0.006854611
153	0x3d0ea2b0	0.03482312
154	0x3d3751fc	0.04475592
155	0xbd84f0dc	-0.06491253
156	0x3d054dd9	0.032544944
157	0xbd0fe506	-0.035130523
158	0xbca547a8	-0.02017577
159	0x3cb7e186	0.022446405
160	0xbb46438f	-0.003025267
161	0xbd9fa78b	-0.07795628
162	0x3cabb546	0.020960461
163	0xbd25e14d	-0.040498067
164	0xbca3525f	-0.019936739
165	0x3afbfe54	0.0019225576
166	0xbd14d88e	-0.036339335
167	0xbd0d5fdf	-0.034515258
168	0xbd6bfeb5	-0.057615954
169	0x3d067b8c	0.032832667
170	0x3c6796c6	0.014135068
171	0xbbb80286	-0.005615535
172	0xbcee3639	-0.02907859
173	0xbcb866e6	-0.022510003
174	0x3d71877e	0.058967106
175	0xbce41a13	-0.027844464
176	0x3d517bba	0.051143385
177	0xbd7bccf4	-0.061474755
178	0xbc845557	-0.016153974
179	0x3cc0aa96	0.023518842
180	0x3d0f345b	0.03496204
181	0x3bfa7439	0.0076432494
182	0xbd81eeaf	-0.063443534
183	0xbd1c21c7	-0.03811815
184	0xbac0e635	-0.0014717045
185	0x3c8b5570	0.017008513
186	0xbcb325cf	-0.021868614
187	0x3cc4fb43	0.024045592
188	0x3bc1809a	0.005905223
189	0xbcb85b21	-0.022504391
190	0xbc3c88f3	-0.011507261
191	0x3d7345f6	0.05939289
192	0x3d4464d1	0.04794771
193	0xbd77d805	-0.060508747
194	0x3d01d696	0.031698786
195	0xbc091202	-0.00836611
196	0xbbf47329	-0.007460017
197	0x3be05c95	0.006846974
198	0x3c8b512b	0.017006477
199	0x3c1d4eb8	0.009601288
200	0xbc7b14a9	-0.01532475
201	0xbc17f3a6	-0.009274399
202	0xbca014a4	-0.019541092
203	0xbca2a85d	-0.019855672
204	0x3c55c7f7	0.013048164
205	0x3c6121eb	0.013740997
206	0x3bffabc6	0.0078024594
207	0xbd53917a	-0.05165241
208	0xbd140619	-0.036138628
209	0xbd2e607b	-0.04257248
210	0x3b43b93a	0.0029865042
211	0xbdb98613	-0.09058776
212	0xbc26a97a	-0.010172242
213	0xbd0a2183	-0.033723366
214	0x3d27d945	0.04097869
215	0xbcb40fa1	-0.021980109
216	0xbcd2839f	-0.025697527
217	0xbd148886	-0.03626301
218	0xbd2736fb	-0.040823918
219	0xbc334a2e	-0.010942979
220	0x3c0ccc46	0.008593624
221	0xbbe49bb2	-0.006976568
222	0xbd9b9323	-0.075964235
223	0x3d51b621	0.051199082
224	0x3ccaef56	0.024772327
225	0x3d1fb6d8	0.038992733
226	0xbab425a9	-0.0013744134
227	0xbd085ee7	-0.03329363
228	0x3d45a1f7	0.048250165
229	0xbd7af385	-0.061267395
230	0xbca456f2	-0.02006099
231	0xbc0c8e88	-0.008578904
232	0x39e71ae4	0.00044079788
233	0xbd7e4a61	-0.062082652
234	0xba669c9f	-0.0008797142
235	0x3c665a30	0.014059588
236	0xbd000097	-0.031250563
237	0x3b93e950	0.004513897
238	0xbbc78026	-0.0060882745
239	0x3d0164fa	0.03159044
240	0xbc121331	-0.008915708
241	0xbd15dcb8	-0.036587447
242	0xbc648e01	-0.013949872
243	0xbd204fcd	-0.039138604
244	0x3d74dd09	0.059781108
245	0xba4b5886	-0.00077570265
246	0x3cee6f1d	0.029105717
247	0xbd4c3795	-0.049857695
248	0x3cfb810a	0.030701179
249	0xbd39ee53	-0.0453933
250	0xbd23859a	-0.039922334
251	0x3c2ba8e7	0.010477281
252	0x3c0daa81	0.008646608
253	0x3d0b67ad	0.03403442
254	0xbcb2e450	-0.021837384
255	0xbd10a0bc	-0.03530954

out_cat.weight f4 [3, 300]
0	0x3d2dac89	0.04240087
1	0xbcc6e6ce	-0.024279978
2	0x3cd7ad64	0.026327796
3	0x3baad881	0.0052137976
4	0xbcad5b9c	-0.021161847
5	0xbc0c6d99	-0.008571052
6	0x3cd719d4	0.026257433
7	0x3d5e6ad4	0.054301098
8	0x3b183452	0.0023224545
9	0x3d5b74f1	0.05357832
10	0xbd690466	-0.05688896
11	0xbd8fc891	-0.07020677
12	0xbd86536b	-0.065588795
13	0x3bf1791f	0.007369175
14	0x3c53b070	0.012920484
15	0xbd995f33	-0.07488861
16	0xbd2de2f0	-0.042452753
17	0xbd85446b	-0.0650719
18	0xbde76764	-0.11299017
19	0xbda95824	-0.082687646
20	0xbd95c2ea	-0.073125675
21	0xbd3d173a	-0.04616473
22	0xbbe6082b	-0.0070200167
23	0x3c6424cd	0.01392479
24	0xbd8ead76	-0.06966679
25	0x39fd0c18	0.0004826493
26	0x3ccec892	0.025242124
27	0x3db99b4e	0.09062825
28	0x3d3c0d82	0.04591132
29	0xbc029fd2	-0.007972674
30	0xbdbd33e7	-0.09238415
31	0x3d3cd592	0.046102114
32	0xbc851bdc	-0.016248636
33	0x3ce3814d	0.027771616
34	0x3cc5cc32	0.02414522
35	0xbc7941fb	-0.015213485
36	0x3d959410	0.07303631
37	0x3cc2c5ea	0.023776013
38	0xbc105099	-0.0088082785
39	0x3d8390f0	0.06424129
40	0xbc65b00c	-0.014019024
41	0x3d2d7b96	0.04235419
42	0x3ce5bbd2	0.028043661
43	0xbdc05810	-0.093917966
44	0xbdd6c637	-0.10487025
45	0x3d1f387e	0.038872235
46	0x3daa5310	0.08316624
47	0xbdba480a	-0.090957716
48	0xbbc5cb5b	-0.0060362048
49	0xbc0ed288	-0.008717187
50	0xbd4cda59	-0.05001292
51	0x3d233b98	0.039851755
52	0x3dc2909b	0.095002376
53	0xbc3e1683	-0.011602047
54	0xbbde2526	-0.006779331
55	0x3c19d3a2	0.009388836
56	0xbe2874bd	-0.16450782
57	0xbd42600b	-0.047454875
58	0x3d3b42ed	0.045718122
59	0xbdef4ec1	-0.11684943
60	0xbdc4db4e	-0.096121415
61	0xbd9c2ab2	-0.07625331
62	0xbe005d52	-0.12535599
63	0x3d1c52c9	0.038164888
64	0x3d2e417f	0.04254293
65	0x3d054c4b	0.03254346
66	0x3c2f6437	0.010705045
67	0xbbe566ec	-0.0070007946
68	0x3d5e3c11	0.054256503
69	0x3db189ba	0.086688474
70	0xbd5682a4	-0.052370682
71	0xbc71d448	-0.014760084
72	0xbd92307c	-0.07138154
73	0x3bf20e73	0.0073869764
74	0xbb6d58b3	-0.00362162
75	0xbd20f74d	-0.039298344
76	0x3b881cc1	0.0041538184
77	0xbdc23e45	-0.09484533
78	0xbdf04396	-0.11731641
79	0xbd0a0215	-0.03369339
80	0x3ce9db40	0.02854693
81	0xbde1cbca	-0.11025198
82	0xbd764eb5	-0.060133655
83	0xbbefd0e2	-0.007318602
84	0x3d8869d0	0.06660807
85	0x3d0654a3	0.03279556
86	0xbd9e11d7	-0.077182464
87	0xbd25afcc	-0.040450856
88	0xbbdf4e60	-0.006814763
89	0xbd8ab7cc	-0.06773338
90	0x3cc54dd0	0.024084955
91	0xbd396135	-0.04525872
92	0xbda2ea4c	-0.07954845
93	0xbd94e825	-0.072708406
94	0x3bc02366	0.005863595
95	0xbcd7a3f2	-0.026323292
96	0x3c31d9fa	0.010855192
97	0x3a4a7c13	0.0007724177
98	0x3ce1b010	0.027549773
99	0xbcf70490	-0.030153543
100	0xbd0df13c	-0.034653887
101	0xbc990f30	-0.018684
102	0x3d9efe6f	0.07763373
103	0xbc7b30b6	-0.015331438
104	0xbda1c0a7	-0.07898074
105	0x3bd82caf	0.0065971236
106	0xbdf651d6	-0.12027328
107	0xbdb23f80	-0.08703518
108	0x3cf2746e	0.029596534
109	0xbcab96df	-0.020945964
110	0xbe223d54	-0.15843707
111	0xbd80a1c7	-0.062808566
112	0xbd6978a2	-0.05699981
113	0xbb494040	-0.0030708462
114	0x3c39ef29	0.011348524
115	0xbc51f8ec	-0.012815695
116	0xbdd633bf	-0.104590885
117	0xbd6f43be	-0.058414213
118	0x3c0b6e37	0.008510164
119	0xbe0c1275	-0.13678916
120	0xbd3761b8	-0.044770926
121	0xbdaa5add	-0.08318112
122	0x3bbba3ff	0.005726337
123	0xbc13d21e	-0.009022264
124	0xbb85777a	-0.0040730806
125	0xb93a0d63	-0.00017743329
126	0x3d253509	0.04033378
127	0x3d4d43fd	0.050113667
128	0x3d1d0621	0.038335923
129	0x3d09e2da	0.033663608
130	0xbd124e83	-0.035719406
131	0xbd2459a0	-0.040124536
132	0x3d9e4dc2	0.07729675
133	0xbdefbbba	-0.11705728
134	0x3b489bf4	0.0030610533
135	0xbd0bcf27	-0.034133103
136	0xbd9eeea2	-0.07760359
137	0x3ccf3dd8	0.025298044
138	0x3bfb5ad1	0.0076707383
139	0x3d9e40d7	0.07727211
140	0x3d3fecb8	0.046856612
141	0x3d8cad36	0.06868975
142	0x3d23c848	0.039985925
143	0xbde33b39	-0.1109528
144	0x3db3642c	0.08759341
145	0xbde4aed7	-0.111661606
146	0xbd14f91b	-0.036370378
147	0x3d0e5f19	0.03475866
148	0xbda9dd46	-0.08294158
149	0xbd49f53f	-0.04930615
150	0x3cc155a4	0.023600407
151	0xbd789266	-0.06068649
152	0xbe0a0a0b	-0.13480394
153	0x3be9ba5e	0.0071328124
154	0xbdc2a0c8	-0.09503323
155	0x3c80bf94	0.015716352
156	0xbc79381a	-0.01521113
157	0x3c3c2115	0.011482497
158	0x3cc36ff5	0.023857096
159	0x3c22f2c8	0.009945579
160	0x3d150929	0.03638569
161	0x3bd1191f	0.0063811685
162	0xbc9f4614	-0.019442596
163	0x3c32aba8	0.010905184
164	0xbc1a6ff8	-0.0094261095
165	0x3c300ab6	0.010744741
166	0xbdb005bd	-0.085948445
167	0xbdc6e99a	-0.09712525
168	0x3d95c16e	0.073122844
169	0xbdb47371	-0.08811081
170	0xbd324855	-0.043526012
171	0x3b9868ab	0.0046511493
172	0xbdb50f2d	-0.08840785
173	0x3da7e1ec	0.08197388
174	0xbd49e27e	-0.049288265
175	0x3d3a2a69	0.0454506
176	0xbd5d51d6	-0.054033123
177	0x3d3e6565	0.046483416
178	0xbc8a096e	-0.0168502
179	0xbd6dbadd	-0.058039535
180	0xba9ca191	-0.0011950006
181	0xbaeb572f	-0.001795506
182	0xbc8a42b2	-0.016877506
183	0x3dbc689f	0.091996424
184	0x3c9fef74	0.01952336
185	0xbe00f091	-0.12591769
186	0xbdb09a74	-0.086232096
187	0xbdca3780	-0.09873867
188	0x3ce61931	0.028088184
189	0x3d9b22e2	0.07575013
190	0xbd8dc836	-0.06922953
191	0xbdcd4d85	-0.10024551
192	0xbdc60997	-0.09669798
193	0x3d25b70a	0.040457763
194	0xbde18ee1	-0.1101358
195	0x3ca9dc49	0.020734923
196	0xbdfd6fa3	-0.12374809
197	0x3c70d392	0.01469888
198	0x3d86d085	0.06582741
199	0xbd9ee8c8	-0.07759243
200	0xbc45e48e	-0.012078417
201	0xbc996c9b	-0.018728545
202	0x3cc466f8	0.02397488
203	0x3d43baea	0.047785677
204	0x3d1ef53e	0.0388081
205	0xbd3d3317	-0.0461913
206	0x3a32787c	0.00068081147
207	0x3c120d0d	0.008914244
208	0x3d6c5310	0.057696402
209	0x3c85f238	0.01635085
210	0xbbda9351	-0.0066703935
211	0x3dbaa4ce	0.09113465
212	0xbd49eac0	-0.04929614
213	0xbd8efe54	-0.06982103
214	0xbdb0cd0a	-0.08632858
215	0xbdd2cc61	-0.102928884
216	0xbd61a4f4	-0.055088952
217	0x3d928d6a	0.07155879
218	0xbc005689	-0.007833132
219	0xbd59ab75	-0.05314203
220	0xbd0fec88	-0.035137683
221	0x3d97923d	0.074009396
222	0x3c81c5b2	0.015841339
223	0xbb85139c	-0.0040611755
224	0xbcac5b3b	-0.021039596
225	0xbd75581c	-0.05989848
226	0xbd2ef00a	-0.042709388
227	0x3cd626eb	0.026141604
228	0xbd89be53	-0.067257546
229	0x3d5436e3	0.051810157
230	0x3abc0a72	0.0014346375
231	0xbcd51595	-0.026011268
232	0xbd7313c5	-0.059345026
233	0x3cc560a6	0.024093937
234	0x3d363bfc	0.0444908
235	0xbdcd7541	-0.1003213
236	0xbcfedb16	-0.031110328
237	0xbd559373	-0.05214257
238	0x3c0f1741	0.0087335715
239	0xbc458c6c	-0.012057405
240	0x3ba72a92	0.0051015103
241	0x3c0300cc	0.007995795
242	0xbc97d576	-0.018534403
243	0x3d5de4d2	0.0541733
244	0xbd90ad07	-0.07064252
245	0x3d83d9df	0.0643804
246	0xbda74a8d	-0.08168516
247	0xba9d560d	-0.0012003795
248	0xbe229fa7	-0.15881215
249	0x3de821a5	0.11334542
250	0xbdd1c4d8	-0.10242623
251	0x3de66341	0.112494
252	0x3dca435f	0.09876131
253	0x3d83faf4	0.0644435
254	0x3da024c6	0.07819514
255	0x3d4b4403	0.049625408

out_cat.bias f4 [3]
0	0x3cfc26d3	0.030780232
1	0xbbf3593c	-0.007426409
2	0xbce47997	-0.02789001
