models/sum/epoch-42.pt (torch, 533611 bytes, 6 tensors)

inp.fc.weight f4 [200, 51]
000000 39 6c f1 3b 0d 3c af bd af 2e 3b be 87 ff 0c 3e
       0.0073676375 -0.08556376 -0.18279527 0.13769351
000010 3a 97 cd bd 1a b3 2d bd ee a9 a6 3d e0 5f b4 bd
       -0.1003861 -0.042407133 0.0813788 -0.08807349
000020 13 5f c5 bd 7d f6 c0 3d 1c 7e 33 be 85 f2 50 be
       -0.096372746 0.09422014 -0.17528576 -0.20405014
000030 cf a4 a6 3b 38 21 18 3e 4c 4a f6 bc dd 9c 0f 3c
       0.0050855647 0.14856422 -0.030064724 0.008765426
000040 46 b5 49 be 20 c0 0a 3e 7f ad 8c be 30 c2 68 ba
       -0.19698057 0.13549852 -0.27476117 -0.0008879034
000050 b1 8d 31 3c 4d 6d f1 bd fd 63 47 3d 08 a0 13 3d
       0.0108370045 -0.117884256 0.04867934 0.03604129
000060 55 df bc 3c 22 93 7e 3b 99 66 c3 bd f3 df 44 3d
       0.023055712 0.0038845022 -0.09541053 0.048065137
000070 f7 b4 b3 3b 55 09 10 be 4e 30 a9 3d 63 9d ed bd
       0.005484219 -0.1406606 0.082611665 -0.11602285
000080 a6 0d 2b 3c 86 fe d0 bd 8c fd 53 bd 77 2f 5c be
       0.010440266 -0.102047965 -0.051755473 -0.21502481
000090 d9 22 6f bd 21 b1 55 bd 55 25 77 3d c8 12 cc 3d
       -0.058382843 -0.052170876 0.060338337 0.0996452
0000a0 ba 78 f2 bd db 84 f3 bd 37 22 ad 3d 98 3a d5 3d
       -0.11839433 -0.118905745 0.084537916 0.104115665
0000b0 4e 90 ce bd d9 d5 db 3d 75 f7 7b bb 2f 29 7f 3d
       -0.10086118 0.107341476 -0.0038447056 0.062295135
0000c0 08 a8 a3 bd 0a 21 bc bb a6 bd bd 3d 3a 87 47 3d
       -0.07991034 -0.0057412433 0.09264688 0.048712946
0000d0 f6 ab 48 3d 58 0e 65 be 03 03 35 3d d7 31 a8 3e
       0.04899212 -0.22368753 0.044192325 0.32850525
0000e0 a4 f5 7b 3d 2e c3 e8 bd 24 3b d3 3d 42 81 7f 3e
       0.061513558 -0.113653526 0.103140146 0.24951652
0000f0 fd 9a 7d 3d 87 e8 4d bc 9a 55 25 3c f8 78 fd bd
       0.061915386 -0.012567646 0.01009121 -0.123765886
000100 32 09 be bd 53 ad d1 bd 11 4f 8f 3d 4e 22 0c 3e
       -0.092790976 -0.10238137 0.069975026 0.13684961
000110 f4 8b a2 bc 70 6a 8b 3d 24 79 11 3e 1b 13 cb 3d
       -0.019842125 0.06807411 0.14206368 0.099157535
000120 47 e1 01 3e a6 88 f4 bd 47 6b c2 bd fe c9 e8 bc
       0.12683593 -0.11940126 -0.09493118 -0.02841663
000130 ae 39 0e 3e ab 15 7e bd e8 13 b4 3d be d0 9f 3e
       0.1388919 -0.062032383 0.08792859 0.31213945
000140 71 30 8c 3d 26 b1 cf 3d 1d 0e 0c 3b 29 bf 94 be
       0.06845177 0.1014121 0.0021370717 -0.29052094
000150 79 0b d0 bd 15 c4 dd 3d f2 7d a5 bb fb cb 49 be
       -0.10158438 0.10828415 -0.0050504142 -0.19706719
000160 c1 6b 06 be 7e e1 37 be 89 60 19 3d 4b 59 97 bd
       -0.13127042 -0.17957112 0.03744558 -0.07390078
000170 a9 17 85 bd 4d d9 65 be 80 22 72 bc 2d 1b 62 be
       -0.064986534 -0.22446175 -0.014778733 -0.22080679
000180 36 d8 af 3d 3f a3 2a 3d de 95 90 bd db 2b c3 bd
       0.08586161 0.04165959 -0.07059835 -0.09529849
000190 77 5e 83 bc df 33 8b 3d 0c e3 c0 3d 15 f0 07 3e
       -0.016036255 0.06797003 0.09418306 0.13275178
0001a0 2d ef 0c be 87 d7 ee 3c 96 76 b4 bd 22 ad 9c bd
       -0.13763113 0.029155506 -0.08811681 -0.0765021
0001b0 1b 0c 6d 3c 50 5f 73 bd 57 9b 5e 3e f0 fd 3e 3e
       0.014468218 -0.05941707 0.21738945 0.18651557
0001c0 39 b0 f0 bc df b3 5b 3d 1f a5 01 be 11 32 c2 bd
       -0.029380905 0.053638335 -0.12660645 -0.09482206
0001d0 38 ed e2 bd cf 0d ba bc 3c 4e 58 be cc e2 4c bd
       -0.11080402 -0.022711663 -0.21123594 -0.050020978
0001e0 ff 07 2b be cc d8 3c bc 28 a4 d6 bd ae e0 cb bb
       -0.16702269 -0.011526298 -0.10480529 -0.0062218523
0001f0 06 c3 6e 3d 4a 70 71 3d be a2 96 bd e8 f3 0e 3e
       0.058291458 0.058944978 -0.07355259 0.1396023
000200 cf c5 6f be 79 64 95 bd cc 26 21 3e 6f 5d 29 3d
       -0.23415302 -0.07294554 0.15737456 0.04134887
000210 47 9e e6 3d 2e 97 b9 3c 55 9d 2a 3d 7e ee 85 3e
       0.11260658 0.022655096 0.04165395 0.26158518
000220 b2 81 73 bd 5f 65 62 3c aa 51 4e be 96 f7 33 3e
       -0.05944986 0.013818114 -0.2014834 0.17574915
000230 4e a6 ba 3d 00 70 0f be 29 6a 1c be 51 51 46 3d
       0.09113751 -0.14007568 -0.15274872 0.048417393
000240 94 e2 18 bd ba 0a e0 bd 50 50 40 bc 07 c2 5f 3e
       -0.037325457 -0.10939546 -0.011737898 0.2185136
000250 76 5b 83 bd 7d ab dc 3d a1 d8 bc 3c c8 3b 96 bd
       -0.06413929 0.10774896 0.023052515 -0.07335621
000260 4a 7c 29 3e 49 9f 08 3d 85 7e 70 3d bb bd b2 bd
       0.16551319 0.03335503 0.05871441 -0.087275945
000270 49 98 a5 3d 27 ff 91 3d 84 f6 2f bd 2f 40 39 3d
       0.08085687 0.071287446 -0.042959705 0.045227226
000280 48 c2 54 3a 8d 0c 62 bd 68 ac b9 bd 8c 65 f0 3c
       0.00081161084 -0.05518775 -0.09066087 0.029345296
000290 f0 0b 3c 3e 30 a3 14 3c c6 ff 68 bd 94 83 d4 3d
       0.18363929 0.00907211 -0.05688455 0.10376659
0002a0 85 a2 6c 3d 68 e2 09 3e 30 00 d4 bd a5 d5 c9 3d
       0.05777218 0.13465273 -0.10351598 0.098552026
0002b0 ef 9a f7 3d d0 6f 64 3d ef 7b 5b bc a7 68 4f bd
       0.12090098 0.055770695 -0.013396247 -0.050636914
0002c0 3a 63 ab bd 5c c1 95 bc 61 a2 1a 3e d3 a6 8a bd
       -0.08368535 -0.018280677 0.15101005 -0.067701004
0002d0 04 f2 41 38 5b 7d ab bd d1 f7 03 3e 13 5c 66 3e
       4.624018e-05 -0.08373519 0.12887503 0.22496061
0002e0 d2 e7 a0 3c 18 f9 7b 3d d5 72 25 3e 1e 96 14 be
       0.01964179 0.06151685 0.16157086 -0.1451039
0002f0 0f 1d 43 bc 82 16 72 3b d0 51 a9 bd 3f 22 87 3d
       -0.011908784 0.0036939685 -0.082675576 0.06598329
000300 db f4 e3 3c 38 2e a8 3d 2b 00 49 bc 8b 57 8f 3c
       0.027826717 0.082119405 -0.012268106 0.017497798
000310 f2 b1 8f bd d8 ef ea 3c f9 2d 42 3d c0 71 39 be
       -0.07016362 0.02867882 0.047407124 -0.18109798
000320 32 9d 38 3e 5f a6 c8 3d 69 b4 10 3d 1c 9a 84 3e
       0.18028715 0.09797358 0.035328303 0.25898826
000330 61 48 ce bd 2c 81 cc bd 19 22 93 bd 7a 4a df bd
       -0.10072399 -0.09985575 -0.07184238 -0.10902877
000340 06 13 39 be 0c ec 81 3e 7a 46 38 bd 11 5e de 3c
       -0.18073663 0.25375402 -0.044989087 0.027144464
000350 74 8d b6 3d e4 db 05 be 73 46 86 bd ca b1 4f 3d
       0.08913699 -0.13072163 -0.06556406 0.050706662
000360 d8 dd 6b bd 38 54 cf bc 97 21 09 3e d0 d9 00 3d
       -0.057584614 -0.025308713 0.1339172 0.031457722
000370 a1 3e 6f bc aa 7e 06 bd f9 60 a8 3c e4 e4 16 3d
       -0.014602334 -0.03283564 0.020554053 0.03683938
000380 8d 42 3f 3e a0 3f 22 3d 0d db ec bd 0e 46 d4 bb
       0.18677731 0.03961146 -0.11565218 -0.0064780777
000390 b8 29 b4 bd 3f 4e 3a bd 4b 92 b8 3d 95 ad e8 bd
       -0.0879702 -0.045484778 0.09012278 -0.11361233
0003a0 c2 6a d4 3d 27 1d 27 bd 0d 01 d7 3c 66 73 ba 3d
       0.10371925 -0.040799286 0.026245618 0.09104042
0003b0 30 74 20 be 56 41 36 3c ff 85 28 3c 05 e5 f0 3d
       -0.15669322 0.011123976 0.010285853 0.11762432
0003c0 28 f5 a0 bd 01 c7 54 bc 52 9e 1b be 18 68 e7 3b
       -0.0785926 -0.012986899 -0.15197113 0.0070619695
0003d0 08 22 b9 3c b8 ca b8 3d 04 dd aa 3c 4f 9a 0a 3e
       0.022599235 0.090230405 0.020857342 0.13535427
0003e0 42 bc fe bd 62 3b 8f 3d 4d 2a 9d 3c 83 83 88 bd
       -0.12438251 0.06993748 0.01918521 -0.06665709
0003f0 66 4c 0c 3d cf 07 12 be 5c b4 4b 3e 95 8f 4c bd
       0.034252547 -0.14260791 0.1989302 -0.049941618

inp.fc.bias f4 [200]
000000 f5 71 98 3d e3 97 22 be 81 ba e7 bd 03 94 bd bd
       0.074436106 -0.15878253 -0.1131487 -0.092567466
000010 87 69 7e 3d 85 a1 3b 3d 8c b0 8f bd d5 cf b4 bd
       0.062112357 0.045808334 -0.070160955 -0.08828703
000020 47 2d df 3d 19 4c a3 3d 30 d4 db 3d 88 ec d7 bd
       0.10897308 0.07973499 0.10733831 -0.10543162
000030 31 06 a4 3d c5 3c 90 bd 4d a3 fd bd ce 33 a6 3d
       0.080089934 -0.07042841 -0.12384663 0.0811535
000040 d2 3e 57 bb a3 6d 76 bd e9 2e eb 3d 30 38 e3 ba
       -0.003284384 -0.06016315 0.11483557 -0.0017335471
000050 bb 62 98 bc 1a 87 c5 3b 5a 67 7d bd 3e b7 13 be
       -0.018601766 0.0060280683 -0.06186614 -0.1442537
000060 d8 e3 e1 3d 4e 17 02 be 24 f1 44 bd 99 ab ae 3d
       0.11029786 -0.12704203 -0.048081532 0.085288234
000070 7f 50 dd bc 62 5e 31 bd be 85 02 bc 2f f2 bb 3d
       -0.027015923 -0.0433029 -0.007966457 0.09177052
000080 b1 4b c8 bd 20 e3 a5 3d c3 35 4e bd e9 69 2d be
       -0.09780062 0.08099961 -0.05034424 -0.16934933
000090 cb a7 66 3d cc 81 e1 bc a7 f2 cf 3c aa 99 3c be
       0.056312364 -0.027527712 0.02538426 -0.18417993
0000a0 9b 1c 11 be b4 3b a1 bd dd 73 b0 bc 56 d7 85 3c
       -0.14171068 -0.078727156 -0.021539623 0.016338032
0000b0 e3 5c 0a 3e b5 20 dc 3c 97 ec 74 bd 97 3e bb 3d
       0.13511996 0.026871065 -0.059795942 0.091427974
0000c0 10 66 23 be 58 08 22 3c 13 16 d1 3b ac b8 20 be
       -0.15956903 0.009889685 0.0063808053 -0.15695447
0000d0 af 1f 0a be 8c e1 0b 3e 5e c7 07 be 32 af f8 bd
       -0.13488649 0.13660258 -0.13259646 -0.12142791
0000e0 be df e4 bd 25 da 0e be f9 d7 f4 bc ca ab f0 3d
       -0.11175488 -0.13950403 -0.02988814 0.11751516
0000f0 4d ca 81 bc 26 ad c7 3c 57 43 c6 3d bd b6 47 bd
       -0.015843535 0.024374556 0.09680813 -0.048758257
000100 17 3a d7 3d 32 26 2a 3e c2 04 24 3d 1f dc ec bd
       0.10509127 0.16616133 0.0400436 -0.11565422
000110 3a de cb 3d 93 7b 05 be b6 59 b6 3c 5c 8d 6b 3c
       0.09954496 -0.13035421 0.022259574 0.014376964
000120 7a e4 90 bd 99 78 03 bd a5 ad 95 bd 46 81 ef bd
       -0.070748284 -0.032097433 -0.07308511 -0.11694579
000130 a1 30 42 bc 93 dd 9a bd 3b bd cb bd 65 fe 10 be
       -0.011852414 -0.07561793 -0.09948202 -0.14159544
000140 7c 2a f8 bd 60 cd b7 3d bb fe 3d 3d 3f e9 bd 3d
       -0.12117478 0.08974719 0.046385508 0.09273004
000150 24 25 4b 3d 3a 9b 0a be db 25 8c 3d 82 e9 08 3c
       0.049595967 -0.13535777 0.06843158 0.008356454
000160 ef c4 1f be be 1e c7 bd 4b b0 ac 3d 30 96 00 bd
       -0.15602468 -0.097226605 0.08432063 -0.03139323
000170 69 f9 74 3d e9 97 34 bd ed 3d 2c be eb d7 c8 3d
       0.05980817 -0.044090185 -0.16820498 0.09806808
000180 42 e4 f9 bd b2 77 cb bd 81 c2 2e be 0b 56 84 bd
       -0.1220174 -0.099349394 -0.17066385 -0.06461724
000190 ae 21 15 3e 98 2b 0b 3e b2 cc f3 3c ef 2e 5a 3d
       0.14563629 0.13590848 0.029760692 0.053267416
0001a0 31 88 1d be 6e df bd bd 95 08 22 be 86 b5 5f bb
       -0.15383984 -0.092711315 -0.15823586 -0.0034135296
0001b0 f5 43 85 bd c9 b5 ed 3d 61 e1 37 3d 30 9e a2 bd
       -0.065071024 0.116069384 0.044892672 -0.07940328
0001c0 dc a6 0d bd 6e b5 47 3d 0e 4d c5 3c e2 02 c7 3d
       -0.034582958 0.04875701 0.024084594 0.09717347
0001d0 43 54 7a bd 4c 7a 18 bd 7c b1 b3 3c 71 30 ab bd
       -0.061115514 -0.037226006 0.021935217 -0.08358849
0001e0 02 c0 40 bd cc 77 c5 bd e2 2d be bd f7 4f f1 3d
       -0.047058113 -0.0964199 -0.09286095 0.1178283
0001f0 95 bb 19 be 74 87 c1 3c 42 8e 1a 3d 4d 89 71 3d
       -0.15012963 0.02362416 0.037733324 0.05896883
000200 ad 94 8e 3d 6a 3b b8 bd ac d1 2c 3d 73 b1 26 bc
       0.069619514 -0.08995707 0.042192146 -0.010174143
000210 38 09 10 be 7f 04 0b be 38 22 25 3d 9f 12 29 be
       -0.14066017 -0.13575934 0.040315837 -0.1651101
000220 6a 1a d5 3d 45 54 96 bd 8c a4 80 3c 10 5b fd bd
       0.10405429 -0.07340292 0.015703462 -0.123708844
000230 02 4c 33 bd c6 4c 06 be f1 e3 d9 bd 46 bd ac bd
       -0.04377366 -0.13115224 -0.106391795 -0.084345385
000240 9a 01 81 bd 32 44 e2 3c a9 bc 50 ba 04 8d b0 bc
       -0.062991336 0.027620409 -0.0007962683 -0.021551616
000250 47 76 b7 3d a6 a7 f5 3d 93 ce 91 3d 51 fa ce bc
       0.089581065 0.11994867 0.07119479 -0.025265845
000260 3e 95 47 bd e7 3b d8 3d e7 45 48 3d f6 43 28 3d
       -0.048726313 0.105583005 0.04889479 0.041080438
000270 94 a9 10 bd a4 01 8f 3d 46 8a 28 3c e6 74 ce bd
       -0.035317972 0.06982735 0.010286873 -0.1008089
000280 9c 82 af 3d 95 3b a3 3d d4 c8 8b 3d ab c4 da 3c
       0.08569834 0.07970349 0.06825414 0.026705107
000290 ec a9 a8 bd 2a fb 85 3d 99 f5 58 bd ab 84 af bc
       -0.08235535 0.06542046 -0.052968595 -0.021425566
0002a0 db 21 1e be 5d 88 88 3d b7 60 b7 3c 36 56 09 bd
       -0.15442602 0.06666634 0.022384984 -0.033529483
0002b0 51 ac 04 be da bc 86 3d 20 3f 31 3d 62 77 a9 bc
       -0.12956358 0.06578989 0.04327309 -0.020686809
0002c0 5d b3 0c be 95 c8 11 bd 4e 31 8d 3d 3c 79 86 bd
       -0.13740297 -0.03559168 0.0689417 -0.06566092
0002d0 91 a9 02 be 36 64 39 bd f0 e1 0f be e1 62 bf bd
       -0.12759997 -0.045261584 -0.14051032 -0.093450315
0002e0 11 45 e0 3d d5 68 ea 3d ea bd 2d be c0 a3 85 bd
       0.10950673 0.114457764 -0.16966978 -0.065253735
0002f0 61 61 6e 3c fe f3 38 be 2c ce b2 3c 31 88 0c be
       0.014549584 -0.18061826 0.021826826 -0.13723828
000300 0a ab 97 bd b8 ef 6c 3c d4 87 e3 bd d9 46 ae 3d
       -0.0740567 0.01446145 -0.111098915 0.08509607
000310 76 bf 39 3d 2f b1 07 be eb a9 1a 3e 7b a8 26 bd
       0.045348607 -0.13251184 0.15103881 -0.04068802

layers.0.fc.weight f4 [600, 200]
000000 40 76 41 bd 73 7f 95 3c c5 b2 b7 bd e8 39 04 3c
       -0.047231913 0.01824925 -0.089696445 0.008070447
000010 b7 66 95 bd 31 c3 9d bd fa f3 c9 bd 7d 4b 82 bd
       -0.07294982 -0.077032454 -0.09860988 -0.063620545
000020 4b b2 d0 bb 0d b5 ba bc 14 69 cb bc d2 6c ed bc
       -0.0063689104 -0.02279141 -0.024830379 -0.028982554
000030 b8 db 70 bb c1 cd ca bd f8 f5 74 bc 61 a6 a9 bd
       -0.0036752056 -0.09902526 -0.014951222 -0.082836874
000040 95 a1 f9 3c e1 17 90 bc 8a 5c fa bc fb 19 56 3c
       0.030472556 -0.017589511 -0.030561704 0.013067718
000050 bf 98 06 3d a7 d2 78 bd 92 2e c7 bd 84 6f c1 bc
       0.032860514 -0.06074777 -0.097256795 -0.023612745
000060 a6 3f 30 bd 72 8b 6e bc ef 05 cc bd 70 a0 73 3a
       -0.04302945 -0.014559614 -0.09962069 0.00092936214
000070 46 6b d0 3c 7b 6e 25 bd 31 da c0 bd b3 ad 07 3d
       0.025441777 -0.040388566 -0.09416617 0.033124637
000080 36 da a3 3c 07 03 aa bd 12 0e 50 bd 2b d4 af bd
       0.020001512 -0.08301359 -0.05079467 -0.0858539
000090 71 03 9f bd 68 e2 26 bd 30 55 72 3c 8e cf 24 bd
       -0.07764328 -0.04074326 0.014790818 -0.040237002
0000a0 7d 86 00 bd 3d 8f dd 3c f8 07 65 bc 66 45 d8 3c
       -0.031378258 0.02704584 -0.013978951 0.02640028
0000b0 d5 3b a9 39 fc ff 42 bd 30 51 f6 3c 42 40 c0 bd
       0.0003227877 -0.047607407 0.03006801 -0.09387256
0000c0 e8 b4 07 3d 42 08 83 bd 02 6b fc 3b 57 9b 8c 3c
       0.03313151 -0.063980594 0.007703186 0.017163916
0000d0 56 53 36 3d 87 f3 af bc bf af 32 3d 98 2f 53 3a
       0.04451307 -0.021478428 0.043624636 0.0008056103
0000e0 be 3c 81 bc ff 44 ac bc 6f 90 1f bc 4a 33 d0 bd
       -0.015776034 -0.021028994 -0.0097390255 -0.101660326
0000f0 a0 b8 1b bd 0b 42 b1 bb 56 86 a2 3b 25 8d c7 bb
       -0.03801787 -0.0054094843 0.0049598617 -0.006089824
000100 10 e2 b4 bc a9 98 c2 3b b7 96 fa bc fa b3 a2 bd
       -0.022080451 0.0059386087 -0.030589445 -0.07944484
000110 14 00 e1 bc 78 9b 3d bd 94 55 75 bd c3 14 b8 bc
       -0.027465858 -0.046290845 -0.059896067 -0.022470837
000120 8d ca 23 bd 93 e1 d4 3a 49 9f 0a bc cc d5 08 bd
       -0.03998809 0.0016241543 -0.008460828 -0.033407018
000130 91 05 07 bd 7f e5 ca 3c 0c a5 31 3d aa 57 c0 3c
       -0.032964293 0.024767635 0.04337029 0.023479301
000140 f2 10 b4 bd f4 10 b7 bd 82 17 6a bc d9 26 ba bd
       -0.087922946 -0.089387804 -0.014287831 -0.09089441
000150 6e bf ff bb d4 69 c9 bd 1b 82 83 bd 7b a9 06 3d
       -0.0078048026 -0.09834638 -0.064213 0.032876473
000160 df ba 48 3c 32 73 dc 3c a4 f5 b0 bd f7 9b 32 bd
       0.012251585 0.026910398 -0.08640602 -0.04360577
000170 84 59 67 bd 97 e0 be bd fd 86 c3 3c 1d b6 cd bc
       -0.056481853 -0.09320181 0.023868078 -0.025111252
000180 3e 95 1a 3d 65 43 f1 3c 47 f6 93 bd 5f 92 6c bc
       0.037739985 0.029451082 -0.07224708 -0.014439194
000190 e4 5e 03 3d f1 fb c0 bd 7c 27 06 3d 92 06 f7 3b
       0.032072917 -0.09423054 0.0327525 0.007538625
0001a0 4c 59 87 bd c9 d8 9b bd a4 d7 59 bc c1 ff 5d 3c
       -0.06608829 -0.07609708 -0.013296042 0.013549746
0001b0 ac 58 14 bd fc 0b a0 bd be 30 5a bd 41 95 37 bc
       -0.036217377 -0.07814786 -0.05326914 -0.0112050185
0001c0 a4 c5 bb bb 62 1e 8a 3c 83 f6 cc bd 0b 28 a1 bd
       -0.0057303477 0.01686019 -0.10007956 -0.07868966
0001d0 d3 72 1f bc 0b 65 9e bc d6 f5 7f bd 33 da 8a bd
       -0.009731966 -0.01933529 -0.062490307 -0.067798994
0001e0 fe da fa bc ec 15 a7 bd 63 42 40 bd c3 8e 1c 3d
       -0.030622002 -0.08158478 -0.04693831 0.038222086
0001f0 72 27 09 3d 3e 09 2e bd 85 24 7b bc 41 55 b2 3a
       0.033484884 -0.042489283 -0.015328531 0.001360573
000200 b0 3c 8c 3c d3 5b 8d bd e9 f2 92 bd 3f 4e db 3c
       0.017118782 -0.0690228 -0.07175238 0.02677071
000210 49 e0 00 3d 85 49 98 3b a0 76 bd 3c 83 bd 84 bd
       0.031463895 0.004647436 0.023127854 -0.06481459
000220 56 6c e8 bc 28 9c 19 bd ed 68 18 bc 93 b3 14 bd
       -0.028371971 -0.037502438 -0.00930236 -0.036304068
000230 7d e0 11 3c 64 b8 03 bc 14 aa 7c bd f7 18 14 3d
       0.00890362 -0.008039568 -0.061685637 0.03615662
000240 45 b1 26 bd 87 44 a6 bd 1c 5a 87 bc a2 bb 25 bd
       -0.0406964 -0.08118539 -0.01652246 -0.040462144
000250 66 a8 20 bc 97 5f fb bc 9a f7 07 3b 21 75 dc b8
       -0.009805774 -0.03068523 0.0020746947 -0.000105122344
000260 49 23 16 bd b0 18 7b bd 52 28 93 bd 22 38 20 bd
       -0.036654744 -0.06130284 -0.07185425 -0.039116032
000270 c7 57 ba bd 9a 4a 76 3b c0 d4 97 bc cf 9d 44 bd
       -0.090987734 0.0037581087 -0.018534064 -0.04800206
000280 7e a1 da bb 94 17 e0 bb 03 02 2f bd cf 19 e3 bb
       -0.0066720834 -0.006838748 -0.042726528 -0.006930567
000290 21 e7 f1 3a 8a cc 96 bd bd b1 0f bd f1 38 8e bd
       0.0018455723 -0.073632315 -0.035081614 -0.069444545
0002a0 fd d5 15 3d 7c 5b a5 3c 69 99 29 3c 3d 8b 53 bd
       0.03658103 0.020185225 0.010351517 -0.05164646
0002b0 7c 93 d9 3c 01 da 0c bd a9 f4 bf bd ad 8f 0d bd
       0.026559584 -0.034387592 -0.09372837 -0.034560848
0002c0 eb 74 5a bd ee 52 5f bb 29 0b f3 bc ba cb 8f bd
       -0.053334158 -0.003407653 -0.029668408 -0.0702128
0002d0 af c7 20 3d 17 ee 62 bd 57 ee 6a bc c9 d3 84 bb
       0.039252933 -0.05540284 -0.014339051 -0.004053567
0002e0 90 ee 2b bd 71 f1 82 3c 89 f3 7f bd 40 12 d3 3c
       -0.041975558 0.015984269 -0.062488113 0.025765538
0002f0 f3 7d 62 bd e3 6e a5 bd 88 1f a7 3c 18 b6 5d bd
       -0.055295896 -0.080777906 0.020400777 -0.054128736
000300 1d ba 11 3d 97 c1 cf bd cb 95 ac bc a7 8b 40 3d
       0.035577882 -0.10144346 -0.02106752 0.047008183
000310 88 9b f1 bc fc f3 d8 bc 3e 2a 5e 3c 7c e0 b1 bc
       -0.029493108 -0.026483528 0.013559876 -0.021713488
000320 10 f5 5b bd f1 63 db bd 1d 1c 67 bc 39 fd 77 3d
       -0.053700507 -0.10712422 -0.014105824 0.060544226
000330 24 f4 bf bd a7 c9 1d 3d fa 19 16 3d 87 91 92 bd
       -0.09372738 0.03852239 0.036645867 -0.071566634
000340 9d 9d 0b bd 0c 33 e1 bc 31 20 19 bd 31 ec 73 3d
       -0.03408586 -0.027490161 -0.037384216 0.05955142
000350 95 11 2c bd fb 53 1c bd fb 35 1a 3d 57 fd 8c 3d
       -0.042008955 -0.038166028 0.037649136 0.06884258
000360 d2 54 0e 3d dd 50 e2 bd 23 c0 95 3d bd 40 a4 bb
       0.03474886 -0.1105058 0.07312038 -0.0050126
000370 fb b6 98 bd 9d c1 55 bd b2 f1 f1 3b e0 65 37 3b
       -0.07456776 -0.052186597 0.0073835487 0.0027984306
000380 fb b1 c9 3d 14 c3 9c 3d 0a 09 86 bd c0 fc e9 b9
       0.098484 0.07654396 -0.06544693 -0.00044629537
000390 84 59 0d 3d 26 af 08 3e 15 88 96 3d 1f 1c de 3d
       0.034509197 0.13348064 0.07350174 0.108452074
0003a0 ec a6 8d bd 59 fb 8f bc 90 95 a4 3b 93 5a d6 3d
       -0.069166034 -0.017575907 0.005022712 0.104664944
0003b0 60 ec a5 bb 0f 6e 56 3c 2c e3 35 bd 23 ae a9 bc
       -0.0050635785 0.013087763 -0.0444061 -0.020712918
0003c0 0b c1 4d 3c 20 e6 27 3d 80 e7 9f 3d 25 c7 9e 3d
       0.012558232 0.04099095 0.07807827 0.077528276
0003d0 11 89 bd bb 41 b3 5f bd 54 19 b1 bd 80 5f 14 bd
       -0.005784162 -0.05461431 -0.08647409 -0.03622389
0003e0 ff c0 0a be 88 56 aa 3d 79 0d 3a 3c 84 48 9c bd
       -0.13550185 0.08317286 0.011355751 -0.07631019
0003f0 bf f5 24 3c 4a 70 98 bc 20 be b9 3c b1 8f 59 3d
       0.010068356 -0.018608231 0.022673666 0.05311555

layers.0.fc.bias f4 [600]
000000 8b 6a 15 bd ef c7 bb 3c fc 67 0b 3d fd 7c 82 bd
       -0.03647856 0.022922484 0.034034714 -0.06371496
000010 24 18 af bd 90 71 dd bc 9f c9 3b 3c 7d e7 39 bd
       -0.08549526 -0.02703169 0.011461644 -0.04538678
000020 98 ce dc 3b 73 e2 a5 bd 4f 89 0c bd a0 e0 5e 3c
       0.006738495 -0.080998324 -0.034310635 0.013603359
000030 57 10 92 3d 23 ad 03 3c 4c c4 4d 3d 73 f7 1e 3d
       0.07132023 0.0080368845 0.05023603 0.038810205
000040 55 c4 38 bd f3 34 10 3d 08 a6 88 bd e4 f0 a8 bd
       -0.04510911 0.035206746 -0.06672293 -0.08249071
000050 50 45 7b bd 87 0d ef 3c ab 02 dd 3c 24 e0 3e 3c
       -0.0613454 0.029181255 0.026978811 0.011650119
000060 e5 9d fb 3b 51 cd 9f 3c 96 d6 3c bd 51 08 bb 3d
       0.0076787346 0.019507082 -0.046103083 0.091324456
000070 bc f3 95 bd 67 fb 71 3d 52 1b 62 bd 59 e0 92 3d
       -0.07321879 0.059077647 -0.055201836 0.07171697
000080 ae 8e 90 3c 5c de 05 bd c7 31 d1 bc 6d 4b b5 bc
       0.01764616 -0.03268276 -0.025536431 -0.022130692
000090 29 cd 26 bd c2 17 7e bd 5d ff 00 3e ac 45 d5 3d
       -0.040723 -0.062034376 0.12597413 0.104136795
0000a0 fb f8 af bd 6b f4 02 3c b6 89 95 bd 42 e4 77 bd
       -0.08592411 0.007992844 -0.07301657 -0.060520418
0000b0 5d 34 a9 bd 78 1a 0e 3d 32 62 12 3c 84 c6 82 bd
       -0.08261941 0.03469321 0.008934544 -0.0638552
0000c0 9e dd b5 bc 51 8d fb bc d0 a1 27 3d 99 1c 14 bd
       -0.022200402 -0.030707033 0.0409258 -0.036160085
0000d0 5b 4b e9 bb 6d e7 d8 3c f4 a0 9e ba ce 9c c1 3d
       -0.007119579 0.02647754 -0.0012102411 0.09453736
0000e0 6c 95 59 bb 2d 2a d3 bc a8 09 24 bc 44 29 eb 3d
       -0.0033200635 -0.025776947 -0.010012068 0.1148248
0000f0 c0 6b 54 bd 26 84 c0 3c 10 d1 73 b9 29 ae e8 3c
       -0.05186057 0.023500513 -0.00023252168 0.028403359
000100 0f 22 c9 bd 1c 43 f5 bc 3f 1e 60 3d 05 19 0c 3d
       -0.09820949 -0.029939227 0.054716345 0.034203548
000110 17 a2 8b ba 01 58 3c 3d a7 19 3a 3c 6b 6f 4c bd
       -0.0010653165 0.045982365 0.011358655 -0.049910944
000120 88 74 5c bd af 2d c5 3c f1 5f ce 3b 6f b5 0c 3e
       -0.05382207 0.024069635 0.006298058 0.13741086
000130 57 a9 25 bc 0f df 93 bc 0d a5 98 bc 13 12 19 3d
       -0.010111175 -0.018050699 -0.01863339 0.037370753
000140 7c 88 d9 bc 82 f6 90 bb 83 7e e5 bb 01 1d a8 3d
       -0.026554339 -0.0044239173 -0.0070036068 0.08208657
000150 6f b9 0f 3d d4 69 0f 3d 6c e2 b0 bd 63 10 f7 3d
       0.035088953 0.035013035 -0.086369365 0.120636724
000160 08 c3 95 bc 9a e1 75 bd 7b 97 8b 3d 1b 96 30 3d
       -0.018281475 -0.060029604 0.06816002 0.0431119
000170 ca b6 38 bd f5 a4 0e 3d d2 e8 73 bd 2e 47 60 bd
       -0.045096196 0.034825284 -0.059548207 -0.054755382
000180 1e ce 5c 3c 18 99 33 3c 89 24 51 bd 6a 1d e9 bc
       0.013476877 0.010961793 -0.051060233 -0.028456409
000190 0b ae 1c bc 8a 06 74 3d 8a 94 29 bd 44 b0 8d bc
       -0.009562979 0.05957655 -0.041401424 -0.017295964
0001a0 5f 54 b5 bd e1 6b dd bd 17 9b 4b bd 41 dd c4 3c
       -0.08853983 -0.10811592 -0.049708452 0.024031283
0001b0 c3 b4 b6 3c 44 45 7d bb 04 99 a3 bd d8 17 b2 3c
       0.02230299 -0.0038646022 -0.0798817 0.021739885
0001c0 25 e1 33 3d 39 90 04 bb 64 f8 89 bc b3 98 ef 3c
       0.043915886 -0.0020227565 -0.016842075 0.029247617
0001d0 ab ea c6 3c e4 25 c1 3b 64 c6 29 bd 5a f4 21 bd
       0.02428182 0.0058944095 -0.041448966 -0.039539672
0001e0 d4 4e 5b bd 98 32 5a bd 46 4a 9f bd 29 6f 63 bd
       -0.053541973 -0.053270906 -0.077778384 -0.055525932
0001f0 55 9e 1c 3c fa b9 90 3d 49 7c 21 3d a2 68 ab bb
       0.009559234 0.07066722 0.03942517 -0.005230979
000200 22 6f 4b bd 04 cc ab 3d 72 74 06 bc f0 1d d9 3c
       -0.04966653 0.08388522 -0.008206474 0.026503533
000210 6c f5 3c bd 56 6d ff 3c ad 98 62 bd a0 83 02 3d
       -0.04613249 0.031180065 -0.055321384 0.03186381
000220 b0 86 9c bd 83 f8 0e bb eb b0 23 3d b3 04 c4 3d
       -0.07642877 -0.0021815605 0.039963644 0.09571209
000230 79 32 a2 bd f6 02 b8 bb f5 a2 64 bd 00 ab 61 3c
       -0.07919783 -0.0056155873 -0.05581947 0.01377368
000240 72 cb d5 3c d0 25 b3 3c 57 61 b9 3d 23 80 44 3d
       0.026097987 0.021868616 0.09051769 0.047973763
000250 03 c7 f0 bc f9 93 ae 3c 1a 23 c9 bc f2 81 e3 bb
       -0.029391771 0.021310793 -0.02455287 -0.006942981
000260 68 3e f4 3c fa e2 a3 bd 33 5a 48 bd e6 b3 8a bc
       0.029814914 -0.08002277 -0.048914146 -0.016931485
000270 0e a3 d5 3c ab 65 81 3d 82 55 a0 bb e9 9c 4a bc
       0.026078727 0.0631822 -0.004893006 -0.012366512
000280 1c 9a 00 3d 1d a6 37 bb cf 3c 9f 3d 23 6f c5 3c
       0.03139697 -0.0028022595 0.0777527 0.024100846
000290 f3 df 88 bc 4c 47 a0 bd 83 f9 be bc 05 bd a3 bd
       -0.01670835 -0.07826099 -0.023312336 -0.07995037
0002a0 5a 04 9a bd bd d8 20 3d 57 24 43 3c ec 7c 76 3b
       -0.07520361 0.039269198 0.01191052 0.003761108
0002b0 89 29 0e 3d ec f2 6f bd 18 7d 1b 3d 12 ae d2 3d
       0.03470758 -0.058581278 0.037961096 0.102871075
0002c0 e7 32 c2 3c a1 5c 52 3d 63 e2 3a 3d 30 b9 83 bd
       0.023705913 0.05135787 0.045626055 -0.06431806
0002d0 ba cb 0d 3e f9 be be bd 18 1e 8f 3d f5 02 3f bd
       0.13847247 -0.09313769 0.06988162 -0.04663368
0002e0 c9 ac 0d bb 69 72 d6 3c 29 8d f7 3d 18 fa 07 bc
       -0.002161788 0.026177602 0.12087471 -0.008299373
0002f0 b4 16 84 bd f2 c1 d0 bb 46 c0 b2 3c 6f c9 a2 3c
       -0.06449643 -0.0063707763 0.021820199 0.019871442
000300 93 28 ae bd 35 8d a4 3b ed 62 9a bd ae b6 ab 3c
       -0.08503833 0.005021716 -0.075384 0.020961132
000310 c8 ba 85 bd 69 51 c5 3b 61 65 55 bc 26 71 90 3d
       -0.06529766 0.0060216677 -0.013024659 0.07052831
000320 c5 1a ad 3c f0 64 b7 3c a6 6b 85 3d d2 5a ac 3d
       0.021130929 0.022386998 0.06514673 0.0841576
000330 aa ec c2 bc 17 d2 70 bd d2 5c 9e 3d 67 87 36 3d
       -0.02379449 -0.058794107 0.07732548 0.044562723
000340 bb 6c 88 bd 26 af 2c bd 07 e8 7f bd 9c 15 df bc
       -0.06661364 -0.042159222 -0.062477138 -0.027231984
000350 04 e1 94 3c 04 3f 51 bd 38 57 cc 3d 43 89 d2 3b
       0.018173702 -0.051085487 0.09977573 0.0064250543
000360 94 62 ad bd 8f 64 ab bd 01 f0 ba bd dd 44 2f 3d
       -0.08466068 -0.083687894 -0.09127808 0.042790283
000370 de 5e 86 bd 43 36 de 3c 96 18 d4 3b f4 bc 70 bd
       -0.06561063 0.027125483 0.0064726574 -0.05877395
000380 0a 1e 3c 3d 7b fe a8 3c 26 88 b7 bd 33 03 06 be
       0.045927085 0.020629158 -0.08961515 -0.13087158
000390 9e e7 d0 bd 09 7a c1 3c b9 f1 44 3c 2a 71 8d bd
       -0.102004275 0.023617761 0.012020522 -0.0690635
0003a0 b5 f8 0b bd 2d 84 8f bd 20 65 f6 bc 77 9a 78 3d
       -0.034172732 -0.070076324 -0.030077517 0.060694184
0003b0 3d 99 f9 3d 91 19 06 3d 7f a4 b0 bd dd ee 97 bd
       0.12187431 0.032739226 -0.08625125 -0.074186064
0003c0 a6 04 cd bd c6 d1 5c 3d 2b fb 3a bc 42 6c 17 bd
       -0.10010652 0.053910993 -0.011412422 -0.036968477
0003d0 20 0d 6e 3d 13 73 b0 3d 56 5b 96 b9 8f 70 a3 bd
       0.058117986 0.08615699 -0.0002867828 -0.07980453
0003e0 41 c0 9e 3d a8 fc ae bd 89 79 73 3d 0c 13 45 bc
       0.07751513 -0.08544284 0.059442077 -0.012028467
0003f0 a0 9b 5d b9 44 12 ec bd d4 9d af bc 30 79 0a 3d
       -0.00021134177 -0.115269214 -0.021437563 0.03380698

out_cat.weight f4 [3, 600]
000000 be 3d af b9 9f c5 54 bd 8b a3 ac ba bd 88 22 bd
       -0.00033424603 -0.05194628 -0.0013171298 -0.039681185
000010 82 d6 71 bd eb bd 8b 3d a9 21 a7 bd 75 f5 86 bd
       -0.05904246 0.06823333 -0.08160717 -0.06589786
000020 58 df 92 3b 7a 9f 4a bd 95 5d 74 bd 52 6e 0e 3c
       0.004482191 -0.049468495 -0.05965956 0.008693295
000030 70 0b 6b 3d 10 5e 34 be be 65 a2 bd 11 32 8f bc
       0.057383955 -0.17614007 -0.07929562 -0.017479928
000040 57 5a 00 bc e8 79 53 bd 0c 1d be bd 18 8f 35 bd
       -0.007834039 -0.05162993 -0.09282884 -0.044325918
000050 a4 88 d7 bb b4 5d 9d 3c af 28 83 bb 34 4a 45 3b
       -0.006577568 0.01920972 -0.0040026526 0.0030104043
000060 1b 46 2e be 0f 69 c1 3b dd ac 8f bd 08 17 84 3d
       -0.1701893 0.0059024165 -0.07015393 0.06449705
000070 6e 5d 52 bd 7a 16 1f bd ea c7 e3 bd 95 49 68 bd
       -0.051358633 -0.038839795 -0.11122115 -0.0567108
000080 53 3a a1 bd ca 39 bb 3b eb e6 be bc 52 c7 ab bc
       -0.078724526 0.005713676 -0.02330347 -0.020969067
000090 3a 2b f4 3a c8 aa 09 3c 34 61 28 3c 5b b7 28 3d
       0.0018628605 0.008402534 0.010277081 0.041190486
0000a0 87 05 1e bc 83 75 80 bc b4 10 41 3b a8 cd 37 3c
       -0.0096448725 -0.015681034 0.0029459419 0.011218466
0000b0 39 e4 d0 bd 2c 7b ba bc a9 3e 4d bc ee bf 16 bd
       -0.1019978 -0.022763811 -0.012527146 -0.036804132
0000c0 4d b0 38 bd 9a 47 57 bd 2d 1a 90 bd d2 02 23 3d
       -0.04509001 -0.05255852 -0.07036243 0.03979761
0000d0 57 42 90 3b 94 1a 9e bc 25 df 04 3c 47 df a2 bd
       0.0044024396 -0.019299783 0.008109842 -0.07952743
0000e0 6b ae f6 bd 22 0b c0 3c b8 5f 16 bc 10 9a e9 3d
       -0.12044986 0.023442809 -0.009178095 0.11406338
0000f0 e2 51 f9 bd ec 30 59 bd 71 a8 52 bd 95 b4 1c 3c
       -0.12173821 -0.05302517 -0.05143017 0.0095645385
000100 26 06 40 bd bc f5 8c bd bc f7 bb 3d 35 f3 05 bd
       -0.046880864 -0.068828076 0.09178111 -0.032702643
000110 c3 2d 08 bd f9 0b b7 bd 2c e5 3f bc da ce 7c bd
       -0.033246767 -0.089378305 -0.011712354 -0.061720707
000120 32 8d 26 3d 04 95 ea bd df d1 cd bc ec 53 e3 3c
       0.040661998 -0.11454204 -0.025124488 0.027749978
000130 ed 3a b3 bd fd 79 ad bd 5e 64 97 3d 72 b2 d4 bc
       -0.087514736 -0.08470533 0.073921904 -0.025963996
000140 09 3f c4 bc 84 c5 b1 bc 36 96 42 bd 05 72 2d bd
       -0.023955839 -0.021700628 -0.047506534 -0.042345066
000150 aa 17 66 3c 7c 1a a3 bc 4c 3b 2a bc 31 db 43 3d
       0.014043728 -0.01991009 -0.010390114 0.04781646
000160 51 1e fd bd 17 9c 2a 3d 59 a8 a3 bc 0c 08 8c 3c
       -0.12359298 0.041652765 -0.019977735 0.01709368
000170 e0 14 b4 3b 7f bd 71 3d c1 da 8e bd 91 de ca 3c
       0.0054956526 0.05901861 -0.06975318 0.024764331
000180 3f 6a 9c bd 88 7b 51 bc df 03 47 bd 34 17 a6 3c
       -0.07637452 -0.0127858 -0.048587676 0.020274736
000190 25 91 32 bd 39 d8 10 bd 4f 2f c0 bd 76 cb 57 bd
       -0.04359545 -0.035362456 -0.093840234 -0.05268427
0001a0 9e f5 66 bd 04 5b a2 bb 9f 61 d4 bc b3 96 0f bd
       -0.056386583 -0.0049546976 -0.025925456 -0.035055827
0001b0 c4 c3 ab bc 5b be 04 b8 b4 10 d6 bc a3 b8 00 bd
       -0.020967372 -3.1648535e-05 -0.026131012 -0.031426083
0001c0 56 68 8b bc 2c b1 4d bd d7 33 d2 3c 04 95 e8 3c
       -0.017017525 -0.050217792 0.025659485 0.028391369
0001d0 fa c7 d0 bb df 9e b1 bd a9 38 27 3c 31 42 df bc
       -0.0063714953 -0.086728804 0.01020638 -0.027253242
0001e0 4c f2 4e 3c 37 49 68 3c e7 c1 db bd 7e 95 1a be
       0.01263101 0.014177612 -0.10730343 -0.15096089
0001f0 5e 68 be bc c6 f8 3c bd 41 dd ce 3d 94 be 37 bc
       -0.023243126 -0.046135686 0.101007946 -0.011214871
000200 5a 5a 40 bd 94 21 68 bc 72 7e c8 bd 1b 4b ce 3b
       -0.046961166 -0.014168162 -0.097897425 0.0062955744
000210 2b 47 0d be 6b 59 b8 bc df 59 28 bb bf b9 2b bd
       -0.1379668 -0.022503575 -0.0025688333 -0.04192519
000220 ed 0f ba 3b c5 c9 5a 3c ba 13 93 bb 6f 1f b9 3d
       0.005678168 0.01335377 -0.0044884356 0.090391986
000230 67 9f d1 bd db a4 2a 3b 7d 33 8f bb f6 92 04 be
       -0.10235482 0.0026038203 -0.0043701516 -0.12946686
000240 7b 4a 66 bd f7 0e 81 3d be 5c aa bd d7 85 4c bd
       -0.056223374 0.063016824 -0.083184704 -0.049932327
000250 46 1c 9e bd de d0 59 3c 04 ff a9 bc 52 73 2b bd
       -0.077202365 0.013294427 -0.020751484 -0.041858025
000260 e8 1d 0d be e0 b3 51 bd 3c ad 29 bc ce 08 d1 bd
       -0.1378094 -0.051196933 -0.010356244 -0.102067575
000270 b3 b7 29 bd c7 23 b7 bd e0 18 18 bd b1 b0 10 bd
       -0.041434955 -0.08942371 -0.037133098 -0.035324756
000280 58 9e b8 bc f0 6f 99 bd e6 0a 9b 3c 38 51 b6 bd
       -0.022536442 -0.074920535 0.018926095 -0.0890221
000290 66 82 04 bd 5d 95 f2 bd 72 8a ab bc 45 96 bd bd
       -0.03235092 -0.11844895 -0.02094004 -0.09257177
0002a0 fc a2 06 bd dc 6d c5 bc b6 0d c7 3b da 69 9d 3c
       -0.032870278 -0.024100237 0.0060746325 0.019215513
0002b0 28 34 27 bc ec 7c 1b 3c c5 e8 ae bd db 7d 32 bd
       -0.010205306 0.009490233 -0.08540491 -0.043577056
0002c0 06 59 0c 3d 59 f9 df bd 9b 8b 7a bd 91 07 80 bd
       0.034264587 -0.10936231 -0.061168294 -0.06251443
0002d0 01 58 2d bd 8f 0c 0a bc f3 4b 06 3d fd dd 86 bc
       -0.042320255 -0.008425846 0.032787275 -0.016463274
0002e0 ea 3d 62 bd 8a e5 b1 bc 98 2f 9e 3d 04 49 a1 bd
       -0.055234827 -0.021715898 0.077239215 -0.07875255
0002f0 5f 0b ca bd 72 86 08 bd 0f 42 a2 bd 93 3d 7f 3d
       -0.0986545 -0.033331342 -0.07922756 0.06231458
000300 26 a1 ee 3b ff b2 fe 3c 33 1d 1f bd c3 7c 5e bd
       0.007282394 0.031091211 -0.038846206 -0.0543182
000310 79 08 b3 bd 7f 80 de bd fa f5 95 ba 04 fa 93 3d
       -0.087418504 -0.108643524 -0.0011441105 0.07225421
000320 f2 6d c6 bc 27 e3 b3 ba 3a 0c 45 3d 2d a9 af 3c
       -0.024222348 -0.0013724313 0.048107363 0.021442974
000330 28 b3 25 be ef 0c 81 bb fb 03 af 3d a8 ed f9 bd
       -0.16181624 -0.0039383094 0.08545681 -0.122035325
000340 ff 8f c8 bd 49 a3 22 bd 62 53 da bc f4 47 76 bc
       -0.0979309 -0.039706502 -0.026651088 -0.015031803
000350 0b e5 cd bc 91 d7 55 3c b8 c5 9c bd b8 2d 07 bd
       -0.02513363 0.013051883 -0.07654899 -0.033002585
000360 21 16 3e bd 9d ab a3 bd 6d fd 94 bd ff e8 2d bd
       -0.046407823 -0.07991717 -0.072749 -0.04245853
000370 ab bb d6 bc a1 ed 34 bb 51 59 c5 bd 09 0c 7e bd
       -0.026212534 -0.0027607458 -0.096361764 -0.062023196
000380 1b 3f 7d 3d 42 b8 ec bc 25 ab 75 bd 06 d2 d0 bc
       0.06182776 -0.028896455 -0.05997767 -0.025490772
000390 fa 0c 85 3c 62 f2 75 3a 5a 68 84 bc c6 5c cf bb
       0.01624154 0.0009382126 -0.01616304 -0.006328198
0003a0 5c 58 c2 bd f0 8d 1a 3d c9 7a 8e bc a3 a9 ce bc
       -0.094895095 0.03773302 -0.017392533 -0.025227373
0003b0 9b e4 c3 3d 59 ab 09 bd 6e 25 19 3c 1c d2 06 bd
       0.095650874 -0.033610675 0.009347303 -0.03291522
0003c0 91 a1 6d bd 0c 0f 65 bd 3c a9 0a be 36 42 25 bd
       -0.05801541 -0.055922553 -0.1354112 -0.040346347
0003d0 89 83 05 be 91 5e ca 3b 56 61 26 bd 64 01 e8 bd
       -0.13038458 0.006175824 -0.04062017 -0.1132839
0003e0 e0 42 6d bc 9e 8f 02 3a a9 5d a1 3c 2c 31 7a bd
       -0.014481276 0.0004980507 0.019697981 -0.06108205
0003f0 00 e5 2c 3d bd 9e 8d bd 92 7a 41 3c c5 b6 e6 3b
       0.04221058 -0.069150425 0.011809008 0.007040831

out_cat.bias f4 [3]
000000 ba 42 f1 3c 81 61 85 3c e5 ba 94 bc
       0.029450763 0.016281845 -0.018155525
