models/ncls3-dex100/scenario1_epoch50.pt (torch, 205611 bytes, 6 tensors)

inp.fc.weight f4 [200, 49]
-0.14525439 -0.40879837 -0.3438994 -0.17294233 0.028001307 -0.027801529 -0.032455534 -0.07176238
0.403884 -0.38389012 -0.36101633 -0.029503552 -0.16798888 0.032129142 0.011124438 -0.043037415
0.12533091 -0.1536657 -0.020735405 0.081917495 0.06337566 0.023636121 -0.22499198 -0.009685862
0.28818023 -0.16481806 -0.02883467 0.0963584 -0.002930088 -0.23611782 0.20862696 0.079795346
-0.14363459 -0.0273122 -0.2554823 0.25438237 0.0039239926 0.18139195 -0.21256694 -0.16185999
0.06623244 0.031700373 0.10076686 0.21809137 -0.26867503 0.039128177 0.041621305 0.078328386
0.061291773 -0.15501347 -0.23240134 0.0024227789 -0.08745525 0.024248486 -0.13707358 -0.07340855
0.31747577 -0.106234185 0.18247649 0.11027183 0.19507338 0.09876897 -0.020178625 0.10359443
0.012161401 -0.07026289 0.024639156 0.0073350626 -0.0405254 -0.14592011 0.02936223 0.031022245
0.042938665 0.020251932 0.3248624 0.087544784 -0.24634503 -0.02139299 0.2163426 -0.14332254
0.15737934 0.13435005 -0.097624935 0.047401156 -0.06337821 0.10718499 0.22673415 0.08205911
-0.08276123 -0.06025213 0.005189557 0.109964594 -0.03117678 -0.0842045 -0.051438056 -0.31811157
-0.27725405 -0.09464173 -0.09551257 -0.11126357 -0.17843758 0.0688777 0.08887791 0.15312223
0.081538476 -0.31763893 0.07581413 0.26914838 0.3727759 -0.36861658 0.06648373 0.0947535
0.19721548 0.012129086 0.058277126 0.1010934 -0.010678174 0.3852499 0.32222727 -0.042388096
-0.17239262 0.0040690885 -0.2867382 -0.042145908 -0.19111845 -0.039346203 0.2824764 0.09454939
-0.055321943 0.025087556 0.04391263 -0.10477402 0.104334354 -0.15995426 0.09876309 -0.17872481
0.07214819 -0.0574663 -0.08264991 0.011164537 0.10463576 -0.023480922 0.05547773 0.16179003
-0.24999231 -0.17157 -0.16463676 -0.017414525 -0.24299037 -0.20016415 -0.034233507 -0.34793097
-0.16785322 0.15237096 0.15509123 -0.13181482 0.3911458 -0.15071729 -0.044906557 0.17050667
-0.11545031 0.057357997 0.022863433 -0.061836664 -0.120348305 -0.010642843 -0.1520037 0.045503616
-0.005559565 -0.059533697 -0.019074703 0.18082836 0.19764799 -0.01751593 -0.15217899 -0.1114644
0.16757105 0.009281528 0.14205782 -0.037340194 -0.20674337 0.0969317 -0.07118554 0.15456006
-0.006248933 -0.101997994 0.034984183 -0.11226988 0.22319886 0.009278793 0.27322057 -0.0071671093
-0.063205786 -0.15972753 -0.17769381 -0.20046692 -0.10324039 0.0009648045 -0.077516034 -0.15077043
-0.016973605 -0.23922166 -0.22747727 0.027769068 -0.26851398 0.07764246 0.37859938 -0.04185211
-0.17233135 0.033521008 0.20622323 -0.038032174 0.021397825 -0.11608015 -0.14341551 -0.06329694
-0.05989137 0.04365024 -0.05625204 0.048302963 0.081718095 0.1870449 0.015815988 -0.09108395
0.12317466 -0.03844604 0.030280191 0.024399662 0.015465934 -0.4252119 0.1896786 -0.12542766
0.15805866 -0.112894274 0.10876281 -0.043259595 0.13273598 0.11970325 0.20387577 0.08095457
0.18837844 -0.10976107 -0.13457881 -0.013823243 0.026218202 -0.030998075 0.12774786 -0.075069435
-0.00422131 -0.00567545 0.21240486 -0.004760194 0.15934289 -0.11217728 0.09952539 0.4517076
00000000: 91bd 14be 054e d1be 9513 b0be cb17 31be
00000010: ff62 e53c 08c0 e3bc 18f0 04bd 28f8 92bd
00000020: e2c9 ce3e 3f8d c4be 22d7 b8be 6fb1 f1bc
00000030: 4705 2cbe d999 033d 4643 363c 0048 30bd
00000040: bf56 003e 8b5a 1dbe 4cdd a9bc 5cc4 a73d
00000050: 19cb 813d 8aa0 c13c 4c64 66be 73b1 1ebc
00000060: 5c8c 933e 11c6 28be b036 ecbc 8e57 c53d
00000070: b806 40bb dfc8 71be 4ea2 553e be6b a33d
00000080: f214 13be d6bd dfbc 93ce 82be 683e 823e
00000090: d694 803b d0be 393e 26ab 59be a0be 25be
000000a0: e0a4 873d 40d8 013d db5e ce3d 5853 5f3e
000000b0: c68f 89be de44 203d 1a7b 2a3d a26a a03d
000000c0: 150d 7b3d dabb 1ebe 9efa 6dbe 7cc7 1e3b
000000d0: bd1b b3bd c3a4 c63c 045d 0cbe 3957 96bd
000000e0: 2f8c a23e 4f91 d9bd 1edb 3a3e 32d6 e13d
000000f0: 51c1 473e 6347 ca3d a54d a5bc 5129 d43d
00000100: 9d40 473c fde5 8fbd 0ed8 c93c f75a f03b
00000110: f6fd 25bd 156c 15be 0f89 f03c 5d22 fe3c
00000120: 74e0 2f3d 61e7 a53c 5d54 a63e ae4a b33d
00000130: df41 7cbe 5a40 afbc ea88 5d3e 25c3 12be
00000140: 0d28 213e 0f93 093e 95ef c7bd b727 423d
00000150: 6fcc 81bd ce83 db3d ff2c 683e 9b0e a83d
00000160: b87e a9bd f0ca 76bd 290d aa3b 1e35 e13d
00000170: 7266 ffbc 6973 acbd b6b0 52bd 85df a2be
00000180: 3ef4 8dbe 86d3 c1bd 189c c3bd 28de e3bd
00000190: 57b8 36be c00f 8d3d 9f05 b63d 13cc 1c3e
000001a0: a5fd a63d 92a1 a2be 7044 9b3d d1cd 893e
000001b0: 7cdc be3e 50bb bcbe 9f28 883d 1f0e c23d
000001c0: dbf2 493e 13b9 463c ffb3 6e3d 0e0a cf3d
000001d0: 82f3 2ebc 7a3f c53e f9fa a43e 249f 2dbd
000001e0: b187 30be fd55 853b 59cf 92be 30a1 2cbd
000001f0: 8eb4 43be 7c29 21bd bfa0 903e 1ca3 c13d
00000200: 4399 62bd 6b84 cd3c bbdd 333d c393 d6bd
00000210: 40ad d53d 0dcb 23be 4e44 ca3d a303 37be
00000220: 6ec2 933d c861 6bbd 5b44 a9bd 76eb 363c
00000230: 464b d63d 105b c0bc 9e3c 633d 49ac 253e
00000240: fcfd 7fbe 0cb0 2fbe 8a96 28be e8a8 8ebc
00000250: 78d2 78be d5f7 4cbe 6f38 0cbd 0224 b2be
00000260: b7e1 2bbe 2207 1c3e 3cd0 1e3e 77fa 06be
00000270: 4344 c83e a255 1abe f0ef 37bd 4d99 2e3e
00000280: 3671 ecbd 38f0 6a3d 184c bb3c 7148 7dbd
00000290: 2c79 f6bd 525f 2ebc dca6 1bbe 0062 3a3d
000002a0: 032d b6bb 9bd9 73bd 8d42 9cbc 122b 393e
000002b0: 3c64 4a3e 917d 8fbc cfd4 1bbe 7347 e4bd
000002c0: bf97 2b3e 8d11 183c 9b77 113e 08f2 18bd
000002d0: 89b4 53be 2184 c63d b9c9 91bd fe44 1e3e
000002e0: d9c3 ccbb 53e4 d0bd 934b 0f3d c0ed e5bd
000002f0: 3e8e 643e 1406 183c 91e3 8b3e 12da eabb
00000300: 0972 81bd 9d8f 23be 5ef5 35be 3347 4dbe
00000310: b36f d3bd efea 7c3a bac0 9ebd 9063 1abe
00000320: 3b0c 8bbc 86f6 74be cdef 68be f57b e33c
00000330: aa7a 89be 0303 9f3d c7d7 c13e 1e6d 2bbd
00000340: a177 30be 534d 093d 2f2c 533e a0c7 1bbd
00000350: 7e4a af3c 6ebb edbd 84db 12be d3a1 81bd
00000360: a750 75bd 98ca 323d 8a68 66bd 54d9 453d
00000370: d15b a73d b388 3f3e 8890 813c 398a babd
00000380: ff42 fc3d 9879 1dbd 2a0e f83c cde1 c73c
00000390: d464 7d3c 60b5 d9be 1b3b 423e 1c70 00be
000003a0: 21da 213e 1d35 e7bd 09bf de3d f930 31bd
000003b0: f1eb 073e fa26 f53d cfc4 503e 82cb a53d
000003c0: 47e6 403e 69ca e0bd 07cf 09be e27a 62bc
000003d0: 8ec7 d63c adef fdbc 56d0 023e 01be 99bd
000003e0: ea52 8abb 20f9 b9bb a980 593e 67fb 9bbb
000003f0: c82a 233e 34bd e5bd f8d3 cb3d 3846 e73e

inp.fc.bias f4 [200]
-0.18939058 -0.0011925214 -0.18419503 -0.3437971 -0.38764083 -0.11859658 -0.25904793 -0.23694003
-0.14249405 -0.14553387 -0.09817072 -0.35010198 -0.124540724 -0.22650485 -0.1320446 -0.33454776
-0.3969774 -0.008450579 -0.22043158 -0.15377462 -0.31428286 -0.13641866 -0.29259947 -0.10345696
-0.19418254 -0.20776759 -0.1641712 -0.31412092 -0.28174695 -0.30549234 0.040977716 -0.26094234
-0.12787238 -0.25461757 0.079951234 -0.12944548 -0.20362961 0.020333655 -0.26046395 -0.15522929
-0.26663047 -0.008898747 -0.16319217 -0.27788258 -0.22057386 -0.28535333 0.05974976 -0.3707466
-0.13796295 -0.04429219 -0.22861576 -0.06071293 -0.19221455 -0.29761547 -0.34677017 -0.040865183
-0.1222095 -0.064638816 -0.2836322 -0.1388672 0.023921324 -0.13000706 -0.25560287 -0.10942327
-0.19508885 -0.36398548 -0.34751695 -0.11158667 -0.31326255 -0.22329088 -0.4403666 -0.23711102
-0.21346472 -0.24732704 -0.19689028 -0.11778098 -0.27858153 -0.19805625 -0.22162865 -0.19342586
-0.19273041 -0.2977418 -0.12049646 -0.24038109 -0.03370285 -0.116161786 -0.26619595 -0.13336198
-0.35760978 -0.044288386 -0.16845514 -0.041203767 -0.3517215 -0.1605114 -0.26201034 -0.39313143
-0.26821136 -0.3482825 -0.25609228 -0.22234727 -0.22614998 -0.14307976 -0.2248738 -0.17714734
-0.1650845 -0.14779414 -0.31714407 -0.14780493 -0.19780394 -0.21227102 -0.11245947 -0.23213576
-0.16893071 -0.29498693 -0.3597497 0.10882441 -0.29658067 -0.18879324 -0.20584935 -0.256003
-0.11580586 -0.26237386 -0.18918635 -0.30711398 -0.063411 -0.21234752 -0.14004321 -0.3965136
-0.41275987 -0.2056626 -0.13551553 -0.2593621 -0.20914406 -0.2867479 -0.24507825 -0.23981126
-0.28508565 -0.32570866 -0.12086703 -0.012975595 -0.3478325 -0.18100251 -0.16232173 -0.115114115
-0.20370674 -0.20468469 -0.10661064 -0.2788957 -0.07747324 -0.43346864 -0.35559452 -0.34226105
-0.07576772 -0.23004317 -0.17224447 -0.23107438 -0.26445338 -0.13920303 -0.21308315 -0.2376154
-0.4129211 -0.29538822 -0.12700425 -0.29486015 -0.24033576 -0.25745574 -0.48555824 -0.18679206
-0.36015925 -0.10858672 -0.23653597 -0.24242646 -0.23284082 -0.1585648 -0.48591334 -0.10534112
0.04881652 -0.36448222 -0.18939848 -0.3288723 -0.29197964 -0.10370033 -0.14094453 -0.30034584
-0.29516372 -0.1940201 -0.14203131 -0.22099452 -0.04919621 -0.22338152 0.03118576 -0.29981866
0.012976865 -0.031724684 -0.0382812 -0.07382152 -0.16640212 -0.22793522 -0.16446216 -0.06604636
00000000: 9bef 41be 614e 9cba 9f9d 3cbe 2c06 b0be
00000010: dc78 c6be c4e2 f2bd eea1 84be 68a0 72be
00000020: f6e9 11be d506 15be bb0d c9bd 9140 b3be
00000030: 350f ffbd e3f0 67be b336 07be d849 abbe
00000040: 9f40 cbbe 4c74 0abc d1b8 61be 1877 1dbe
00000050: afe9 a0be 55b1 0bbe 99cf 95be 3ee1 d3bd
00000060: cad7 46be 07c1 54be 7f1c 28be 75d4 a0be
00000070: 2341 90be 7e69 9cbe 40d8 273d 3c9a 85be
00000080: faf0 02be 3c5d 82be 79bd a33d 5b8d 04be
00000090: 4884 50be c492 a63c 885b 85be 6df4 1ebe
000000a0: ca83 88be 0dcc 11bc d91b 27be a046 8ebe
000000b0: 1dde 61be d519 92be 2abc 743d 80d2 bdbe
000000c0: 2946 0dbe ba6b 35bd 401a 6abe 1fae 78bd
000000d0: e4d3 44be 0e61 98be dc8b b1be 4062 27bd
000000e0: f948 fabd 5b61 84bd 3d38 91be 3433 0ebe
000000f0: a7f6 c33c 9220 05be 61de 82be 4f19 e0bd
00000100: 5fc5 47be 4e5c babe beed b1be 8d87 e4bd
00000110: f363 a0be 5da6 64be bb77 e1be 3bcd 72be
00000120: 7f96 5abe 4d43 7dbe 9b9d 49be 2837 f1bd
00000130: 3da2 8ebe 42cf 4abe 9ff2 62be 6e11 46be
00000140: 1f5b 45be 9d71 98be d9c6 f6bd 7626 76be
00000150: 000c 0abd 3be6 edbd d64a 88be 0b90 08be
00000160: a118 b7be bd67 35bd 817f 2cbe 48c5 28bd
00000170: d714 b4be 1a5d 24be 3826 86be 8648 c9be
00000180: 0053 89be 1552 b2be 871e 83be 01af 63be
00000190: dc93 67be 8083 12be 5145 66be 1d66 35be
000001a0: e90b 29be 5957 17be b560 a2be 2d5a 17be
000001b0: 1e8d 4abe 935d 59be 2751 e6bd ffb4 6dbe
000001c0: 2cfc 2cbe 8708 97be 1d31 b8be 55df de3d
000001d0: 6cd9 97be 0453 41be 2cca 52be d312 83be
000001e0: 9f2b edbd de55 86be 11ba 41be 0b3e 9dbe
000001f0: a0dd 81bd a171 59be 7d67 0fbe d503 cbbe
00000200: 4355 d3be 3799 52be 95c4 0abe 1ccb 84be
00000210: dc29 56be 9fd0 92be cbf5 7abe 1591 75be
00000220: bff6 91be 49c3 a6be 2289 f7bd 9797 54bc
00000230: 1a17 b2be b958 39be ab37 26be f3c0 ebbd
00000240: 8098 50be dd98 51be ae56 dabd 6bcb 8ebe
00000250: 4aaa 9ebd 9aef ddbe 7c10 b6be d73c afbe
00000260: 1b2c 9bbd 7090 6bbe db60 30be c39e 6cbe
00000270: 6f66 87be 3d8b 0ebe 7832 5abe 7451 73be
00000280: 656a d3be 203d 97be 670d 02be e9f7 96be
00000290: 941a 76be 3dd1 83be 179b f8be 6b46 3fbe
000002a0: cb66 b8be b762 debd 7c36 72be a43e 78be
000002b0: d36d 6ebe d05e 22be a2c9 f8be 16bd d7bd
000002c0: d5f3 473d 6a9d babe adf1 41be f361 a8be
000002d0: 5b7e 95be d760 d4bd c353 10be eec6 99be
000002e0: b31f 97be 35ad 46be a870 11be 634c 62be
000002f0: f781 49bd 20be 64be 4779 ff3c d581 99be
00000300: eb9c 543c bef1 01bd bfcc 1cbd bd2f 97bd
00000310: 5165 2abe da67 69be c568 28be 5043 87bd

layers.0.fc.weight f4 [200, 200]
0.117588624 -0.10696279 0.028336458 0.0444311 -0.020623147 -0.048209716 0.038890824 -0.09086863
-0.09772484 -0.058835853 -0.050457872 0.093691155 -0.25644985 0.029173898 -0.0074228477 -0.021383949
-0.03290488 -0.16468744 -0.15061954 -0.1827033 0.081813216 0.088548064 0.22889048 0.116944276
0.013129521 -0.12897572 0.16985871 -0.065422386 0.03586174 -0.012542463 0.03134567 -0.021331122
-0.095367484 0.0072002904 0.103868775 -0.045959268 -0.08912236 -0.039373502 0.007845284 0.18517894
-0.0017982945 -0.14904174 -0.05909304 -0.088890076 -0.097588405 0.075099505 0.07582925 -0.1374818
-0.05670712 -0.0045669847 -0.15257363 -0.1506969 -0.0921563 -0.09683168 -0.06670728 0.004248182
0.18319792 0.024634458 0.025752854 0.09032585 0.1159408 -0.10638518 0.045682393 -0.2733025
-0.100876465 -0.03492438 0.010390134 0.04936385 0.06680249 -0.01616526 0.13409895 0.03305311
0.03863146 -0.14181802 -0.14210464 -0.20215133 -0.06212465 0.008541805 0.0247127 0.090272754
-0.06007461 0.099801 -0.07012409 -0.2001457 -0.059612006 0.12066551 0.16105315 -0.1002777
-0.013785098 -0.0024688751 0.18115234 -0.06639682 -0.0066421684 -0.020424908 0.008096014 0.21029675
-0.17825788 0.09646093 0.060864072 -0.14662084 -0.015754003 -0.07618003 -0.03746388 0.036637254
0.04922231 0.06279768 0.15505922 -0.023507727 0.2565494 0.12748465 0.091517076 -0.0830232
-0.02365442 -0.0021889484 0.06871349 -0.06018156 0.091058955 -0.17501241 0.18786725 -0.091271475
-0.09899618 0.08593708 -0.130392 0.12874138 0.018410027 -0.10654514 -0.034161866 0.054404184
0.13145415 0.095565066 -0.12560432 0.07584532 0.016135259 -0.14537922 0.23680077 0.025931265
-0.13126007 -0.030380528 0.032819398 0.052434932 0.21627 0.07435882 -8.61389e-05 -0.0007009764
-0.050912417 -0.06314535 0.0032399516 0.15272984 -0.009493596 -0.05767824 0.050086748 0.014204457
-0.032083903 -0.045331363 0.25622448 -0.006381846 -0.201923 0.09350357 0.053528678 0.068448946
0.2617614 0.13271245 -0.21591479 -0.08839478 -0.008944671 -0.00922475 0.10315746 -0.0455219
-0.0011523594 0.06441396 0.12543951 0.10870406 -0.23993936 0.099886715 0.21484907 0.019214261
0.15720132 0.041576568 0.06895659 0.11086949 0.02748597 -0.15212826 -0.0003312406 0.052621804
-0.030933809 -0.029676545 -0.07281654 0.035283368 -0.105990335 -0.06600985 0.14058296 -0.17664197
0.064319275 0.0075913095 0.22020468 -0.06870132 0.059545457 0.17847233 -0.03267788 -0.16208726
0.07694482 -0.012370185 0.040490188 -0.10263445 0.13430148 0.033294685 -0.022826055 0.104342684
-0.14870033 0.012451376 -0.08735814 0.06920897 0.19367316 -0.19602445 -0.14733426 0.0019818523
-0.32059214 -0.0763733 -0.095268175 0.19227062 -0.08325507 -0.2932869 0.078140035 0.10972334
0.1073294 -0.06518319 -0.08953834 -0.034871396 -0.12082172 -0.11653765 0.06826851 0.026255574
-0.05473025 -0.066259205 0.019207079 -0.32939884 0.03962237 0.021688418 -0.061671887 0.115361825
0.1796368 0.019630862 -0.06994188 -0.0032977778 -0.25224993 -0.1484568 0.09014091 -0.019406352
0.043060374 0.16347976 -0.10969441 -0.23584436 0.19295633 -0.06969694 0.025181606 0.08826017
00000000: 4ed2 f03d 4f0f dbbd dc21 e83c 63fd 353d
00000010: e0f1 a8bc 8d77 45bd fc4b 1f3d 5519 babd
00000020: f623 c8bd ddfd 70bd eaac 4ebd 26e1 bf3d
00000030: 654d 83be 19fe ee3c 5c3b f3bb 642d afbc
00000040: 44c7 06bd d3a3 28be 023c 1abe 9316 3bbe
00000050: b08d a73d b058 b53d 4462 6a3e 7b80 ef3d
00000060: 341d 573c 3612 04be 71ef 2d3e 2cfc 85bd
00000070: c3e3 123d e77e 4dbc 5164 003d 9bbe aebc
00000080: 0750 c3bd 6af0 eb3b 27b9 d43d c93f 3cbd
00000090: c985 b6bd 1c46 21bd 8289 003c 8c9f 3d3e
000000a0: c0b4 ebba 669e 18be 8b0b 72bd 000c b6bd
000000b0: 6edc c7bd c5cd 993d 5e4c 9b3d 07c8 0cbe
000000c0: ba45 68bd a5a6 95bb 433c 1cbe 4a50 1abe
000000d0: 71bc bcbd b04f c6bd d49d 88bd 5534 8b3b
000000e0: 3c98 3b3e 34ce c93c a6f7 d23c c2fc b83d
000000f0: 5f72 ed3d 79e0 d9bd 761d 3b3d 4eee 8bbe
00000100: 5298 cebd de0c 0fbd 613b 2a3c c031 4a3d
00000110: becf 883d 026d 84bc 3c51 093e b362 073d
00000120: 063c 1e3d be38 11be e183 11be c200 4fbe
00000130: 6b76 7ebd edf2 0b3c 4a72 ca3c ece0 b83d
00000140: cb10 76bd 7764 cc3d 389d 8fbd fff2 4cbe
00000150: b82b 74bd 7b1f f73d 1eeb 243e 655e cdbd
00000160: e4da 61bc dacc 21bb 0080 393e 0efb 87bd
00000170: 8ca6 d9bb 2352 a7bc 25a5 043c 0858 573e
00000180: 3c89 36be 4f8d c53d 9b4c 793d c623 16be
00000190: 8a0e 81bc 4704 9cbd ba73 19bd f210 163d
000001a0: 559d 493d 129c 803d d8c7 1e3e 4793 c0bc
000001b0: 715a 833e 568b 023e 4e6d bb3d 1108 aabd
000001c0: eac6 c1bc 7674 0fbb a9b9 8c3d f180 76bd
000001d0: 1e7d ba3d 7436 33be 4660 403e 8aec babd
000001e0: 82be cabd c8ff af3d 7b85 05be c8d4 033e
000001f0: a0d0 963c 5734 dabd 50ed 0bbd ecd6 5e3d
00000200: eb9b 063e 9eb7 c33d 6b9e 00be cb54 9b3d
00000210: 172e 843c 4ade 14be e77b 723e ce6d d43c
00000220: 0a69 06be 96e0 f8bc a26d 063d 03c6 563d
00000230: e275 5d3e 7049 983d 78a5 b4b8 bbc1 37ba
00000240: 8a89 50bd 5952 81bd 5e55 543b 3665 1c3e
00000250: 078b 1bbc 0540 6cbd c327 4d3d d0b9 683c
00000260: 696a 03bd 61ad 39bd db2f 833e ce1e d1bb
00000270: e7c4 4ebe cd7e bf3d e340 5b3d f62e 8c3d
00000280: 9705 863e c6e5 073e c418 5dbe 5308 b5bd
00000290: ab8c 12bc 6823 17bc 3844 d33d 2c75 3abd
000002a0: c40a 97ba 77eb 833d 3773 003e 3ca0 de3d
000002b0: aab2 75be 6891 cc3d 6501 5c3e 3a67 9d3c
000002c0: 62f9 203e 314c 2a3d 1d39 8d3d 8b0f e33d
000002d0: 422a e13c 83c7 1bbe 5caa adb9 f689 573d
000002e0: e668 fdbc 3a1c f3bc d720 95bd 4b85 103d
000002f0: 7611 d9bd 2c30 87bd fbf4 0f3e a2e1 34be
00000300: d3b9 833d 85c0 f83b 567d 613e 47b3 8cbd
00000310: f0e5 733d 73c1 363e 3ed9 05bd 34fa 25be
00000320: 3f95 9d3d 51ac 4abc 0ad9 253d 0332 d2bd
00000330: 5486 093e 0260 083d b5fd babc 9eb1 d53d
00000340: e644 18be db00 4c3c d3e8 b2bd 6fbd 8d3d
00000350: 4252 463e a2ba 48be cbde 16be f7e1 013b
00000360: a724 a4be 9b69 9cbd f61b c3bd 97e2 443e
00000370: a281 aabd b329 96be e207 a03d a1b6 e03d
00000380: 84cf db3d c47e 85bd e15f b7bd 4fd5 0ebd
00000390: 6171 f7bd 4bab eebd 5cd0 8b3d ee15 d73c
000003a0: d42c 60bd e8b2 87bd 2a58 9d3c f7a6 a8be
000003b0: 114b 223d e9ab b13c a99b 7cbd d242 ec3d
000003c0: b6f2 373e e7d0 a03c b03d 8fbd 881f 58bb
000003d0: e726 81be 0f05 18be cc9b b83d 12fa 9ebc
000003e0: 1360 303d 3d67 273e 76a7 e0bd 2f81 71be
000003f0: 5896 453e 45bd 8ebd a849 ce3c bfc1 b43d

layers.0.fc.bias f4 [200]
-0.041222077 -0.037030615 0.00091346406 -0.1446317 -0.08348976 -0.036117423 -0.024585357 -0.06517784
-0.004750698 0.031094475 -0.04311044 0.054077946 0.025872344 -0.05968534 -0.005163749 -0.008926247
-0.09284725 0.030777143 -0.10047768 -0.011533749 0.04380806 0.06128627 -0.008020307 -0.0049690045
0.032628883 0.10003621 -0.05686664 -0.0015339473 0.04179539 -0.0002920268 -0.18725401 0.08171291
-0.069905505 0.0070974347 0.04496047 0.12044009 0.004937976 -0.01987368 0.015280995 0.004148797
-0.035576593 -0.0413908 -0.07194458 -0.01309133 -0.038192905 0.022516243 -0.032065004 0.14670809
0.039099973 0.048584662 0.017973678 -0.03157934 0.15821254 -0.09205564 0.044209458 -0.052079096
0.018301023 0.053589586 0.013560146 0.03554924 -0.09970993 -0.030054772 -0.10507502 -0.053817846
-0.116403796 -0.10359758 0.030465415 -0.041767433 -0.03145673 -0.024546498 -0.0519342 -0.06554584
-0.037025977 0.009735353 0.043050896 -0.09376403 0.088765934 -0.028895516 -0.041747443 0.020857058
-0.06819955 0.06635598 -0.0067507983 -0.018000085 -0.08769173 0.02994799 -0.05607732 -0.10820544
0.016003633 -0.06156371 -0.0074238335 0.11863769 0.043772087 0.051740453 -0.029513141 -0.020616766
-0.061475504 0.08466811 0.011202995 0.036209963 -0.0037482334 -0.11001053 0.04166923 -0.029594392
0.05878281 0.05241497 -0.0062625282 -0.10714072 -0.0052920254 -0.113649465 -0.008803657 -0.073991194
-0.05953329 -0.09545656 -0.05954211 -0.060767572 -0.01757125 -0.1124891 0.014934548 0.034093928
0.0024587861 -0.034837175 -0.10360606 0.057459652 -0.1496215 -0.07502008 0.023254698 -0.08258056
0.0046388507 -0.119449146 0.07217514 -0.17956398 -0.06473662 0.021972297 0.07760673 -0.058854822
-0.012217568 -0.036219608 -0.1467103 -0.008966655 -0.039774936 0.0162717 -0.031235784 -0.09650111
-0.053378757 0.044167053 -0.026390696 0.06726643 0.077817805 0.020432632 0.02021124 0.045661993
0.07757958 -0.026106223 0.018071763 -0.038821746 -0.11090876 -0.051186923 0.004164849 0.05655192
-0.039035525 0.0014537622 -0.0067049866 -0.06404913 -0.012250275 0.037186656 -0.11785433 -0.06467134
0.012324787 -0.010965464 0.028658628 -0.031389665 -0.013242061 -0.018636663 -0.017600533 -0.018012868
0.015631113 -0.0037568486 -0.054253142 -0.044262882 0.06846363 -0.04449305 -0.039876055 0.016566725
0.03540226 0.053393062 -0.05183992 -0.01665948 -0.01704886 0.012291131 0.051128052 -0.09340926
0.101779826 -0.039215475 0.025130004 -0.002608951 0.044643708 0.02680092 0.008574273 -0.01864815
00000000: 7bd8 28bd 6aad 17bd 8975 6f3a 551a 14be
00000010: aefc aabd ddef 13bd 3b67 c9bc f67b 85bd
00000020: beab 9bbb d7b9 fe3c 9394 30bd d680 5d3d
00000030: 3df2 d33c 9d78 74bd ab34 a9bb 653f 12bc
00000040: b326 bebd 5920 fc3c 3ec7 cdbd 0df8 3cbc
00000050: 1570 333d 5007 7b3d 9b67 03bc 08d3 a2bb
00000060: dda5 053d c9df cc3d feec 68bd bb0e c9ba
00000070: a531 2b3d 2c1b 99b9 84bf 3fbe 1959 a73d
00000080: 9e2a 8fbd 9991 e83b 7828 383d 4ba9 f63d
00000090: bfce a13b 21ce a2bc 235d 7a3c a2f2 873b
000000a0: c3b8 11bd 6689 29bd ae57 93bd 057d 56bc
000000b0: 2a70 1cbd fc73 b83c 9856 03bd a53a 163e
000000c0: 4b27 203d b600 473d 893d 933c 5759 01bd
000000d0: 7802 223e ab87 bcbd fa14 353d e450 55bd
000000e0: 07ec 953c c180 5b3d 602b 5e3c 149c 113d
000000f0: b834 ccbd 6d35 f6bc 9231 d7bd 1a70 5cbd
00000100: 1d65 eebd f82a d4bd 9b92 f93c 5414 2bbd
00000110: c6d8 00bd bd15 c9bc f5b8 54bd e63c 86bd
00000120: 8da8 17bd 0881 1f3c 2356 303d 5b07 c0bd
00000130: eaca b53d 4ab6 ecbc 5eff 2abd 6cdc aa3c
00000140: 35ac 8bbd a5e5 873d cd35 ddbb ea74 93bc
00000150: b997 b3bd 7d55 f53c 55b1 65bd d09a ddbd
00000160: 0d1a 833c 3b2a 7cbd a143 f3bb 51f8 f23d
00000170: 5c4a 333d cced 533d 8bc5 f1bc 7ee4 a8bc
00000180: bdcd 7bbd 7966 ad3d c48c 373c e650 143d
00000190: eca4 75bb 334d e1bd 5bad 2a3d f06f f2bc
000001a0: 3ec6 703d 14b1 563d e535 cdbb 986c dbbd
000001b0: ba68 adbb 0dc1 e8bd 373d 10bc b288 97bd
000001c0: 2ed9 73bd bb7e c3bd 6de2 73bd 6be7 78bd
000001d0: 95f1 8fbc af60 e6bd 09b0 743c 13a6 0b3d
000001e0: 9623 213b 6db1 0ebd 6a2f d4bd d05a 6b3d
000001f0: 6136 19be 21a4 99bd a380 be3c ff1f a9bd
00000200: 8001 983b c1a1 f4bd 8fd0 933d 9fdf 37be
00000210: a294 84bd 3fff b33c 47f0 9e3d c111 71bd
00000220: 322c 48bc 035b 14bd 3a3b 16be e0e8 12bc
00000230: 0beb 22bd 3a4c 853c 30e2 ffbc 60a2 c5bd
00000240: afa3 5abd 83e8 343d 4d31 d8bc fbc2 893d
00000250: f15e 9f3d 5662 a73c 0b92 a53c 1208 3b3d
00000260: 0be2 9e3d b8dc d5bc 3c0b 943c 8d03 1fbd
00000270: 2224 e3bd 61a9 51bd 4979 883b fca2 673d
00000280: b7e3 1fbd 2a8c be3a 81b5 dbbb 312c 83bd
00000290: 61b5 48bc 0951 183d 9c5d f1bd 6872 84bd
000002a0: e7ed 493c 7da8 33bc 80c5 ea3c 7392 00bd
000002b0: 3bf5 58bc eaab 98bc fe2e 90bc b98f 93bc
000002c0: d20c 803c 7635 76bb 8b38 5ebd ff4c 35bd
000002d0: a936 8c3d 583e 36bd 1355 23bd f1b6 873c
000002e0: f601 113d afb2 5a3d 1956 54bd 7679 88bc
000002f0: 0daa 8bbc bd60 493c a66b 513d 5b4d bfbd
00000300: f171 d03d 68a0 20bd 70dd cd3c effa 2abb
00000310: 52dc 363d 9a8d db3c 1c7b 0c3c 01c4 98bc

out_cat.weight f4 [3, 200]
0.045252994 -0.25043195 -0.052534554 0.032361913 -0.030856978 -0.0295015 0.0038779578 0.05992902
0.14561692 -0.0028945883 -0.18429033 0.15985005 0.038554356 0.06766388 -0.160215 -0.072469614
-0.13822462 -0.12945479 -0.04266768 -0.13907214 -0.15807445 -0.11308162 -0.34134698 0.0014729956
-0.097724 -0.077541344 -0.0018799518 0.06500424 0.0028457511 0.04258506 -0.02127864 -0.12714465
0.13285652 0.056526322 -0.07789767 -0.13400918 -0.008475724 0.14264245 -0.13488221 -0.12178392
-0.13299675 0.04442002 -0.0041583152 -0.20307226 -0.042649306 0.043789644 0.077828884 -0.14725071
-0.11505632 -0.14160505 -0.06593253 0.032414533 -0.04958509 0.090255 0.09846781 -0.08655365
-0.12959859 -0.06736445 -0.05527635 -0.09383477 -0.078750975 0.017906593 0.13766009 -0.008055163
-0.011181549 0.032900833 -0.17409384 0.11803886 0.025754523 -0.06574408 -0.005880722 -0.08731882
0.06318506 0.0068387133 -0.13818894 -0.017632455 -0.12520254 0.021064138 -0.13257603 -0.13377851
0.09090151 -0.17514604 -0.25635687 0.02465032 0.04538052 -0.062024556 0.04374603 0.09008056
0.10662059 0.01658957 0.05959094 -0.12575208 -0.03611912 -0.049081318 -0.18550122 0.0076027266
0.16177583 0.12695456 0.15219104 -0.05615792 -0.06856554 0.0043846467 -0.022774586 -0.05382218
-0.18120693 -0.022841144 0.1747699 0.026896583 0.067326434 -0.043269776 -0.025838163 0.06340223
0.17097965 -0.25225297 -0.10452049 -0.092037134 0.006612534 0.08681878 0.057194844 -0.030721214
0.00674568 0.09202305 -0.0051954216 0.027590489 -0.11091483 -0.001997816 -0.17480646 0.14593361
0.16407168 -0.008743239 -0.009375319 -0.058613133 -0.008452246 -0.29453322 -0.058816675 -0.0036809277
-0.32435453 -0.01958491 -0.09509975 -0.0027237844 -0.13157731 -0.18196993 0.08276262 0.013191044
0.0055232667 -0.07690654 0.031483598 -0.080942765 -0.17779228 0.107190676 0.080224134 0.017595328
-0.11969381 -0.06967218 -0.038528044 -0.007711179 -0.20146316 -0.0061315135 -0.11520997 -0.071077794
0.10408801 0.016525479 -0.13079561 -0.011723318 -0.0048252847 -0.12547767 0.06383024 0.09084898
0.08364002 -0.13572995 0.058769144 -0.12346278 -0.015360179 -0.18920988 0.022769008 -0.115521654
-0.00055546546 -0.10421237 -0.019736644 0.010071269 0.13783866 0.0054319473 0.05918122 0.0015956037
-0.024207253 -0.10681489 -0.0398261 -0.046149917 -0.0073874863 -0.037855834 -0.078198425 0.056252748
0.027176566 -0.12921338 -0.039232284 -0.08640652 -0.16803183 -0.28612682 0.021925196 -0.0040742834
-0.04851989 -0.0990011 0.0707172 -0.041189928 -0.025730746 0.015725449 0.024950624 -0.059172742
-0.10974314 0.016150612 0.22434601 -0.15309533 -0.019241465 -0.06251998 0.06733287 0.026593747
-0.05180533 0.11043237 -0.17332035 -0.15222363 0.05476447 0.08652137 -0.17580007 0.04354953
-0.059771698 0.050639186 -0.06685991 -0.017211987 0.017398922 -0.09078162 -0.056856584 -0.20274587
-0.08742613 -0.035560433 0.099943474 -0.19698822 -0.0018820124 -0.17030226 0.077542454 0.052856833
0.056101944 -0.013459813 0.01640907 -0.066666976 0.021535695 -0.032691304 -0.08157612 -0.22288427
0.09584945 0.10521565 0.08499072 0.051672917 -0.32833344 -0.0859708 -0.033850193 -0.18439507
00000000: 345b 393d 9e38 80be 792e 57bd ed8d 043d
00000010: c6c7 fcbc 21ad f1bc 5625 7e3b 2278 753d
00000020: 9a1c 153e 22b3 3dbb 9bb6 3cbe bbaf 233e
00000030: 2ceb 1d3d 5c93 8a3d 670f 24be f36a 94bd
00000040: c18a 0dbe cc8f 04be 4ec4 2ebd ed68 0ebe
00000050: 45de 21be 5697 e7bd 08c5 aebe 8811 c13a
00000060: 8523 c8bd ffcd 9ebd b768 f6ba f120 853d
00000070: c87f 3a3b ac6d 2e3d 8b50 aebc 3532 02be
00000080: 8a0b 083e 2588 673d d088 9fbd b439 09be
00000090: c3dd 0abc dd10 123e 901e 0abe d969 f9bd
000000a0: 4d30 08be c4f1 353d 7a42 88bb 2df2 4fbe
000000b0: 0ab1 2ebd c55c 333d c064 9f3d e4c8 16be
000000c0: a6a2 ebbd ea00 11be a207 87bd 1ac5 043d
000000d0: bc19 4bbd 9dd7 b83d 7ea9 c93d 0a43 b1bd
000000e0: 7eb5 04be 5ff6 89bd 7469 62bd 722c c0bd
000000f0: 3148 a1bd d9b0 923c c4f6 0c3e cdf9 03bc
00000100: d132 37bc 06c3 063d a845 32be 5cbe f13d
00000110: 26fb d23c d5a4 86bd 12b3 c0bb 36d4 b2bd
00000120: 2b67 813d 4917 e03b 6781 0dbe f071 90bc
00000130: 1835 00be b38e ac3c 03c2 07be 3cfd 08be
00000140: 922a ba3d 7c59 33be 3541 83be 78ef c93c
00000150: ede0 393d 760d 7ebd 0a2f 333d 287c b83d
00000160: e55b da3d dae6 873c a115 743d 27c5 00be
00000170: a4f1 13bd 7e09 49bd 08f4 3dbe 4b20 f93b
00000180: 90a8 253e 6000 023e f8d7 1b3e d905 66bd
00000190: 176c 8cbd 15ad 8f3b c591 babc a574 5cbd
000001a0: 4f8e 39be 5a1d bbbc e1f6 323e 3956 dc3c
000001b0: 71e2 893d a63b 31bd 8eaa d3bc 07d9 813d
000001c0: 4a15 2f3e 4d27 81be d70e d6bd f77d bcbd
000001d0: f5ad d83b 0bce b13d 2445 6a3d 0eab fbbc
000001e0: dd0a dd3b 9576 bc3d 5b3e aabb 7305 e23c
000001f0: 5027 e3bd caed 02bb 7700 33be 9f6f 153e
00000200: 6802 283e cd3f 0fbc f09a 19bc 5314 70bd
00000210: 4a7b 0abc 0fcd 96be c1e9 70bd b83b 71bb
00000220: cc11 a6be 8870 a0bc a8c3 c2bd 8581 32bb
00000230: 34bc 06be 5356 3abe 737f a93d 401f 583c
00000240: 85fc b43b 2d81 9dbd f2f4 003d 52c5 a5bd
00000250: 2e0f 36be c986 db3d 8d4c a43d 1424 903c
00000260: 0722 f5bd 4ab0 8ebd 95cf 1dbd 0fae fcbb
00000270: 5c4c 4ebe ddea c8bb 34f3 ebbd 3c91 91bd
00000280: 182c d53d 7160 873c 49ef 05be 2913 40bc
00000290: 6c1d 9ebb 387d 00be 6eb9 823d 080f ba3d
000002a0: 754b ab3d cbfc 0abe eab7 703d 0eda fcbd
000002b0: 43a9 7bbc 3cc0 41be 1286 ba3c 9e96 ecbd
000002c0: a89c 11ba 4c6d d5bd beae a1bc f701 253c
000002d0: 9425 0d3e 7afe b13b 0268 723d 9323 d13a
000002e0: 4a4e c6bc c4c1 dabd b120 23bd b207 3dbd
000002f0: ba12 f2bb b80e 1bbd 7f26 a0bd 4869 663d
00000300: 64a1 de3c 8350 04be 08b2 20bd e7f5 b0bd
00000310: 8910 2cbe 377f 92be 789c b33c 9181 85bb
00000320: cbbc 46bd 17c1 cabd 2ed4 903d c5b6 28bd
00000330: 49c9 d2bc a8d2 803c 4065 cc3c 1e5f 72bd
00000340: 03c1 e0bd 4a4e 843c f6ba 653e 06c5 1cbe
00000350: 47a0 9dbc 7a0a 80bd d1e5 893d 21db d93c
00000360: d331 54bd 5e2a e23d e47a 31be 83e0 1bbe
00000370: b550 603d 1e32 b13d ef04 34be fe60 323d
00000380: 2bd3 74bd 096b 4f3d d9ed 88bd 2700 8dbc
00000390: 2f88 8e3c b7eb b9bd 73e2 68bd 9d9c 4fbe
000003a0: 790c b3bd d1a7 11bd 2aaf cc3d 48b7 49be
000003b0: dbad f6ba b763 2ebe 94ce 9e3d 6880 583d
000003c0: 27cb 653d 8c86 5cbc 506c 863c b288 88bd
000003d0: a06b b03c 51e7 05bd 6111 a7bd c63b 64be
000003e0: b74c c43d 4d7b d73d 9d0f ae3d fba6 533d
000003f0: 521b a8be 7511 b0bd 80a6 0abd 10d2 3cbe

out_cat.bias f4 [3]
-0.11404263 0.07610498 0.023057915
00000000: 2f8f e9bd eedc 9b3d f4e3 bc3c
