models/ncls3-dex100/scenario3_epoch109.pt (torch, 188907 bytes, 6 tensors)

inp.fc.weight f4 [100, 49]
0	0xbd7d2943	-0.06180693
1	0xbca18eb9	-0.019721376
2	0xba2529b5	-0.00063004653
3	0xbdbf5532	-0.093424216
4	0x3e337e6c	0.17528695
5	0x3d83dfe9	0.06439192
6	0x3ce44853	0.027866518
7	0x3d66e164	0.056367293
8	0x3d91b179	0.07113928
9	0xbe683abf	-0.2267866
10	0x3e149185	0.14508636
11	0xbc4d999e	-0.012548832
12	0x3d76a521	0.060216073
13	0x3d4f5760	0.050620437
14	0x3cc9f639	0.02465354
15	0xbdda589b	-0.106614314
16	0x3da18643	0.078869365
17	0xbdfbbb39	-0.12291569
18	0x3d5ddf3d	0.054167975
19	0x3db58698	0.08863562
20	0xbd5aa412	-0.053379126
21	0x3e25184e	0.16122553
22	0xbd7373f8	-0.05943677
23	0x3d8b9543	0.06815579
24	0xbdfd1782	-0.123579994
25	0xbdddd959	-0.108324714
26	0x3e022600	0.12709808
27	0xbdc18dad	-0.09450851
28	0xbe0b5945	-0.13608272
29	0x3dcf2d9f	0.101161234
30	0xbdabd3c8	-0.083900034
31	0xbdb41586	-0.08793168
32	0xbe080c2e	-0.13285896
33	0xbe0777d6	-0.13229308
34	0xbcbc0adc	-0.022954397
35	0x3d10303f	0.03520226
36	0x3cf86a7b	0.030324211
37	0xbe10ed2a	-0.14152971
38	0xbdb03b09	-0.0860501
39	0x3dc9d285	0.098546065
40	0xbd5f13c8	-0.054462224
41	0x3c78a617	0.015176318
42	0x3d654b22	0.055979855
43	0x3c548cf6	0.012973061
44	0x3e51951d	0.20467038
45	0xbd80f62d	-0.06296954
46	0xbdd8b59c	-0.10581514
47	0x3ce46697	0.02788095
48	0xbd9674a4	-0.07346466
49	0xbc40d69f	-0.01176992
50	0xbdda72d2	-0.106664315
51	0x3bbc6d1c	0.0057503115
52	0x3da0bc90	0.078484654
53	0x3d9c0a06	0.07619099
54	0xbca38f0b	-0.01996567
55	0x39865104	0.00025618833
56	0x3e100250	0.14063382
57	0xbd9996f3	-0.074994944
58	0x3d001b28	0.0312759
59	0xbd928ae7	-0.071554
60	0x3d8f4698	0.069958866
61	0x3e031711	0.12801768
62	0x3cb3d25c	0.021950893
63	0x3df57e2d	0.11986957
64	0xbdf1bd0c	-0.11803636
65	0x3db7be7a	0.089718774
66	0x3e099abd	0.13437934
67	0xbdb404b7	-0.08789962
68	0x3d56220f	0.052278575
69	0x3d2004e5	0.039067168
70	0x3daa61cb	0.08319434
71	0xbd956d4c	-0.07296237
72	0xbe0403ce	-0.12892076
73	0xbe0b3ffc	-0.13598627
74	0x3d242148	0.040070802
75	0x3b3f5c31	0.0029199237
76	0xbdaf3cc0	-0.08556509
77	0xbd0454a8	-0.032307297
78	0x3d4a8110	0.04943949
79	0xbe0d053a	-0.13771525
80	0xbda5dd56	-0.08098857
81	0x3da01e09	0.07818229
82	0xbe526271	-0.20545365
83	0x3e14f9a9	0.14548363
84	0x3e075d4c	0.13219184
85	0x3e0d4f45	0.1379977
86	0xbdc74b49	-0.097311564
87	0x3e26ed24	0.163014
88	0x3cf3c29f	0.029755889
89	0x3d809348	0.06278092
90	0x3db7db08	0.08977324
91	0xbd20e35d	-0.03927933
92	0x3d969889	0.073533125
93	0x3e5cf2b5	0.2157696
94	0x3ddbd041	0.10733081
95	0xbd09a097	-0.033600416
96	0xbcc2daa6	-0.0237859
97	0xbd9deee5	-0.07711581
98	0xbcb26db1	-0.02178082
99	0xb9683c02	-0.00022147599
100	0xbdf262ea	-0.118352726
101	0x3e0486a3	0.12941985
102	0xbd9b1065	-0.075714864
103	0x3d73bd97	0.05950698
104	0xbd54e4b6	-0.05197593
105	0x3e615ffb	0.2200927
106	0xbd5711c7	-0.05250719
107	0xbd4cfd2c	-0.05004613
108	0xbd860b6a	-0.06545146
109	0xbd8e80d7	-0.06958168
110	0x3da204d3	0.079110764
111	0xbd9ff871	-0.07811058
112	0xbc1741d4	-0.009232003
113	0x3dcc7c1b	0.09984609
114	0x3da7f9ac	0.08201918
115	0x3e296379	0.16541852
116	0x3c2981e4	0.01034591
117	0x3dea87b0	0.114516616
118	0x3d6464ce	0.055760197
119	0xbdb1216c	-0.08648953
120	0x3d41537d	0.04719876
121	0xbe5a1186	-0.21295747
122	0x3c49703a	0.012294823
123	0x3ca23594	0.019800939
124	0xbdad6b0b	-0.084676825
125	0x3d437171	0.047715608
126	0xbd371560	-0.04469812
127	0x3df2c492	0.11853899
128	0xbdab1ee9	-0.08355505
129	0x3e0f93bd	0.14021201
130	0x3e3f3b8e	0.18675062
131	0xbda91229	-0.08255417
132	0x3d150d29	0.036389504
133	0xbd5be39a	-0.053683855
134	0x3e22e587	0.1590787
135	0x3baef4b0	0.0053392276
136	0x3e2d209e	0.16906974
137	0xbc136f7c	-0.008998748
138	0xbda7bfe1	-0.08190895
139	0x3e052899	0.13003768
140	0x3e098de6	0.13433036
141	0xbdd5920f	-0.10428249
142	0x3e2eb397	0.17060696
143	0x3ca1d277	0.019753678
144	0x3cf41915	0.029797116
145	0x3dc75aa3	0.097340845
146	0xbe1a0e1d	-0.15044446
147	0x3c020686	0.007936126
148	0xbdb698c6	-0.08915858
149	0xbe0c1f81	-0.13683893
150	0x3cd17f1d	0.025573308
151	0xbdcd907c	-0.10037324
152	0xbc27e6fa	-0.01024794
153	0x3dfc48c8	0.123185694
154	0xbd25f7e2	-0.040519603
155	0xbe1b906a	-0.15191808
156	0xbd8caacf	-0.06868517
157	0x3d41e774	0.04733987
158	0xbcae3f1e	-0.021270331
159	0xbd6723c5	-0.056430597
160	0x3dbee308	0.093206465
161	0x3da76ed5	0.081754364
162	0x3dbcaf95	0.09213177
163	0x3e164974	0.14676458
164	0xbc9658ec	-0.018352948
165	0xbbf53eee	-0.0074843084
166	0x3e165c8d	0.14683743
167	0x3d46eb9f	0.04856455
168	0xbdc64e8c	-0.096829504
169	0xbbc95f58	-0.006145399
170	0x3d0d0c0b	0.034435313
171	0xbe1b687d	-0.15176578
172	0xbddba039	-0.107239194
173	0xbdf8397f	-0.121203415
174	0x3de9ae07	0.11410146
175	0xbdcc551d	-0.099771716
176	0x3e102773	0.14077549
177	0xbb84a25a	-0.004047674
178	0x3d39b555	0.045338947
179	0x3d957188	0.07297045
180	0x3df529ff	0.11970901
181	0xbe27a991	-0.16373278
182	0xbe09ad39	-0.13444985
183	0xbdc7e976	-0.09761326
184	0xbd377df9	-0.04479787
185	0xbe0f6052	-0.14001587
186	0x3de03ca0	0.10949063
187	0x3cae2f7c	0.021262877
188	0x3d49ae8d	0.04923873
189	0xbbdcde84	-0.006740393
190	0xbd5974d5	-0.053089935
191	0x3db1747b	0.08664795
192	0x3d0fe3f2	0.035129495
193	0x3c53a5a2	0.012917908
194	0x3d6834ca	0.05669097
195	0x3e83960d	0.25700417
196	0x3dcb3d33	0.09923782
197	0x3dc3574a	0.095381334
198	0x3e16b2b3	0.14716606
199	0xbdb2a979	-0.087237306
200	0x3de5ab9b	0.11214372
201	0x3ce0ad9e	0.027426537
202	0xbdbfe3f2	-0.09369649
203	0xbe3d142c	-0.18464726
204	0x3daf39f8	0.085559785
205	0xbd7375da	-0.059438564
206	0xbc19367d	-0.00935137
207	0x3b7e6f10	0.0038823523
208	0xbd913027	-0.070892625
209	0x3dc86836	0.09785502
210	0x3ba75a1a	0.0051071765
211	0x3d3f1179	0.046647523
212	0xbe29cf79	-0.16583051
213	0xbe14affa	-0.14520255
214	0x3d2377f0	0.039909303
215	0x3dd62c2f	0.10457646
216	0x3c8e9d8a	0.017409105
217	0x3e0919f4	0.13388807
218	0xbdd2bc08	-0.1028977
219	0x3cd9fe49	0.02661051
220	0xbde33f6a	-0.1109608
221	0xbdca8f06	-0.09890561
222	0x3e246871	0.16055466
223	0x3d022737	0.03177568
224	0x3d8895b9	0.06669182
225	0x3c339cbd	0.010962662
226	0xbe0c79e5	-0.13718374
227	0x3c51722d	0.012783569
228	0x3d96beaf	0.07360589
229	0xb981d040	-0.00024759956
230	0xbccd3bcf	-0.025052933
231	0x3debdffd	0.11517332
232	0x3dfc97e9	0.12333662
233	0xbc2c6e8f	-0.010524406
234	0x3d81a74e	0.06330739
235	0xbe49b608	-0.19698346
236	0xbd45c233	-0.048280906
237	0x3daba3b9	0.08380837
238	0x3d471cd2	0.04861147
239	0xbe0918cd	-0.13388367
240	0x3e464b3f	0.19364642
241	0xbdc1434d	-0.09436665
242	0xbe0e5f9c	-0.1390366
243	0xbdabbfca	-0.0838619
244	0x3e131f5f	0.14367436
245	0xbdcc180c	-0.09965524
246	0x3dd8e036	0.1058964
247	0xbdbb456a	-0.09144099
248	0x3ca40bb3	0.02002511
249	0x3e2b4b36	0.1672791
250	0xbdaa2ab0	-0.08308923
251	0xbe0e7533	-0.13911895
252	0xbe13b0a2	-0.14422849
253	0x3d3b19e8	0.045679003
254	0x3e023d53	0.12718706
255	0x3e50ffb9	0.2041005

inp.fc.bias f4 [100]
0	0xbcfe4446	-0.031038415
1	0x3db058b3	0.08610668
2	0xbdb91623	-0.09037425
3	0x3c978317	0.018495126
4	0xbd6da062	-0.05801428
5	0xbe1593e8	-0.14607203
6	0xbdc4feab	-0.096188866
7	0xbd453b11	-0.048152033
8	0xbbc1fc29	-0.0059199524
9	0xbdd2d61f	-0.102947466
10	0x3d32384d	0.043510724
11	0xbe20a38b	-0.15687387
12	0xbdae3ec4	-0.08508065
13	0x3daae064	0.0834358
14	0xbe359a30	-0.17734599
15	0x3ce41b25	0.027844975
16	0xbde5c52d	-0.11219249
17	0xbdbcf5d8	-0.092265785
18	0xbde0d0cc	-0.10977325
19	0xbe01810c	-0.12646884
20	0xbdba2276	-0.09088604
21	0xbe55a185	-0.20862396
22	0xbd6e14a1	-0.058125142
23	0xbdac255b	-0.084055625
24	0x3cb417a0	0.021983922
25	0x3db5f768	0.088850796
26	0xbe37fe22	-0.17968038
27	0xbe48c96a	-0.19608083
28	0x3cbb7f6b	0.022887906
29	0xbc742da0	-0.014903456
30	0x3c01ded5	0.007926662
31	0xbda75dbe	-0.08172177
32	0xbd8f6341	-0.07001353
33	0xbdd2fc88	-0.10302073
34	0x3d40cf9d	0.047072995
35	0xbe517cb4	-0.20457727
36	0x3dd7c020	0.10534692
37	0xbcd622d3	-0.026139652
38	0xbdb71b34	-0.089407355
39	0x3ce7f024	0.02831275
40	0xbcb2cab3	-0.02182517
41	0xbd5dd364	-0.054156676
42	0xbc2e4c6b	-0.010638337
43	0x3d711214	0.05885513
44	0x3cb008a6	0.021488499
45	0x3b21052d	0.0024569735
46	0xbd1f2c03	-0.038860332
47	0xbcf9ce9a	-0.030494023
48	0xbe156691	-0.14589907
49	0xbda2a0cb	-0.07940825
50	0xbdaca719	-0.08430309
51	0x3d98d605	0.07462696
52	0xbaf4f719	-0.0018689363
53	0x3df6df8d	0.12054358
54	0xbcbb3300	-0.022851467
55	0x3d08d2c8	0.03340414
56	0x3caa6dfa	0.020804394
57	0xbb58674c	-0.0033020554
58	0xbe33f89f	-0.1757531
59	0x3df225bb	0.11823603
60	0xbcd4f006	-0.025993358
61	0xbe3505e8	-0.17678034
62	0xbe3bce53	-0.18340425
63	0x3c464731	0.012101934
64	0x3e3120f8	0.17297733
65	0xbcadc934	-0.021214105
66	0xbdef4f28	-0.1168502
67	0xbd99030d	-0.07471285
68	0x3dcb39a6	0.09923105
69	0x3cc36750	0.023852974
70	0xbe09913d	-0.1343431
71	0xbc2f849f	-0.010712772
72	0xbdfb9125	-0.122835435
73	0xbe38b248	-0.18036759
74	0xbdab02f1	-0.083501704
75	0xbcb3b1c5	-0.021935353
76	0xbd58950f	-0.05287653
77	0xbca83d9e	-0.020537194
78	0xbb939b05	-0.0045045638
79	0x3bf44046	0.007453951
80	0x3cf8bc93	0.030363357
81	0x3d91a615	0.07111756
82	0xbd1a56dd	-0.037680496
83	0xbd87243d	-0.06598709
84	0xbc0b26a4	-0.008493099
85	0x3d7d0d96	0.061780535
86	0xbd1477f3	-0.036247205
87	0xbe007717	-0.12545429
88	0xbca2f05b	-0.019890001
89	0xbb1ff50b	-0.0024407532
90	0xbdbb722f	-0.09152638
91	0x3d69bc94	0.057064608
92	0x3e04b949	0.12961306
93	0x3bf68904	0.0075236578
94	0xbe06f9e4	-0.13181263
95	0xbbc1041d	-0.005890383
96	0x3d6b1ae2	0.057398684
97	0x3d5483bb	0.05188344
98	0xbd4d3425	-0.050098557
99	0xbdf548a0	-0.11976743

layers.0.fc.weight f4 [400, 100]
0	0x3d277447	0.040882375
1	0x3e045166	0.12921676
2	0x3d9d6d3a	0.07686849
3	0xbcf4306b	-0.029808244
4	0x3d54561c	0.051839933
5	0xbd3c1347	-0.04591682
6	0x3dcd2d1a	0.10018368
7	0xbbff76a7	-0.007796127
8	0xbd2a3a4a	-0.041559495
9	0xbd465226	-0.048418187
10	0xbc9bd943	-0.019024497
11	0x3bac1161	0.005251095
12	0x3c932ced	0.017965758
13	0xbd833c9a	-0.06408043
14	0xbc05f48b	-0.008175979
15	0x3cf0e9ae	0.029408302
16	0xbdd726e1	-0.105054624
17	0x3b5cdb87	0.0033700184
18	0xbb5e9e75	-0.003396896
19	0xbc7c8a6b	-0.015413861
20	0xbc2414c1	-0.010014714
21	0xbc996be0	-0.018728197
22	0xbd6ece81	-0.058302406
23	0xb9bc39df	-0.00035901272
24	0xbd2e9465	-0.04262199
25	0x3d3aee30	0.04563731
26	0x3dfd622c	0.123722404
27	0xbd26f632	-0.040762134
28	0x3cd102f4	0.025514103
29	0x3c0a48c9	0.008440205
30	0x3c76018d	0.015015018
31	0x3cdbbc39	0.02682315
32	0x3dc806ae	0.09766899
33	0x3c407215	0.011745949
34	0xbd21b598	-0.039479822
35	0xbdc6a3c6	-0.09699206
36	0xbdb24a7e	-0.087056145
37	0x3db4d98b	0.088305555
38	0x3cdb8e9f	0.026801405
39	0xbdb86eae	-0.090054855
40	0xbd8bb619	-0.06821842
41	0x3db6a826	0.089187905
42	0xbd48dbe0	-0.049037814
43	0x3c743c56	0.014906963
44	0xbdb6407e	-0.0889902
45	0xbde2230a	-0.110418394
46	0x3d1f0e3b	0.03883193
47	0x3db596d2	0.08866657
48	0x3d28ed39	0.04124186
49	0x3d057edd	0.03259169
50	0xbd11bbff	-0.035579678
51	0x3b83b6b9	0.004019585
52	0xbcf205c8	-0.029543772
53	0x3d779a6b	0.06045
54	0xbd227f93	-0.039672446
55	0x3db80453	0.089852
56	0x3c517e3d	0.012786445
57	0x3df20319	0.11816997
58	0x3ddcf5fc	0.10789105
59	0x3cf224c8	0.029558554
60	0x3d04063a	0.0322325
61	0xbcb7107d	-0.02234673
62	0x3b91e1b6	0.0044519557
63	0xba439a1d	-0.00074616243
64	0xbdc08657	-0.09400623
65	0x3c957fc1	0.018249394
66	0xbd5a57ae	-0.053306274
67	0x3ba1f79f	0.004942849
68	0x3dbd6458	0.09247655
69	0x3ad6947b	0.0016371155
70	0xbda61ebb	-0.0811133
71	0xbddf470b	-0.10902222
72	0x3e0aa2f9	0.13538732
73	0x3c830c13	0.015996968
74	0x3cf689ce	0.030095007
75	0x3c87a690	0.016558915
76	0x3da2b94f	0.07945501
77	0xbd908b84	-0.070578605
78	0xbcab3d5d	-0.020903284
79	0x3cd11aee	0.025525536
80	0xbd5c77d8	-0.05382523
81	0x3be706c0	0.007050365
82	0x3da14c54	0.078758866
83	0x3cb8e782	0.022571329
84	0xbd9b4fdd	-0.07583592
85	0x3d959e2f	0.07305562
86	0xbdc3d09f	-0.09561276
87	0xbd193f94	-0.03741415
88	0x3d43e4c6	0.047825597
89	0xbd92869c	-0.07154581
90	0x3cf0de5d	0.029402906
91	0xbc4f92b4	-0.012669254
92	0x3c5dc901	0.013536693
93	0xbdc6834f	-0.09693014
94	0x3cbb2be9	0.022848086
95	0x3d0cc15e	0.034364097
96	0xbda17433	-0.07883491
97	0xbb6e03b2	-0.003631812
98	0x3d2201df	0.039552566
99	0x3d0845af	0.03326958
100	0x3da955c8	0.082683146
101	0x3d18c796	0.037299715
102	0x3d8bb95e	0.06822465
103	0xbd278db9	-0.04090664
104	0x3d77d747	0.06050804
105	0x3dfbb188	0.12289721
106	0xbd088023	-0.033325326
107	0x3de275b2	0.11057605
108	0x3cb00957	0.021488829
109	0xbdcde5a4	-0.10053566
110	0xbd46d034	-0.0485384
111	0x3c815088	0.01578547
112	0xbca638e2	-0.020290796
113	0xbe058def	-0.13042425
114	0xbd974036	-0.07385294
115	0x3daa64ff	0.08320045
116	0xbd754827	-0.059883263
117	0xbe039ec4	-0.12853533
118	0x3df7ffb4	0.121093184
119	0x3b0f0fbe	0.0021829451
120	0x3b18f0ce	0.002333689
121	0x3d1de209	0.038545642
122	0xbc7efeda	-0.015563691
123	0x3bc66e9f	0.0060556675
124	0x3d061365	0.03273334
125	0x3cb4c60e	0.022067096
126	0xbc31e6c7	-0.010858244
127	0xbd68fbe7	-0.056880858
128	0x3e0ba04a	0.13635364
129	0x3ce79138	0.028267488
130	0x3c44ebec	0.012019139
131	0x3b60ba9a	0.003429091
132	0x3c9a8007	0.018859876
133	0xbe184e73	-0.14873676
134	0xbdafc596	-0.085826084
135	0x3deef007	0.11666875
136	0x3d6070b1	0.05479497
137	0x3cdf1c1c	0.027235083
138	0xbd5f8fcf	-0.054580506
139	0x3cdbe1f4	0.026841141
140	0x3dc26a37	0.09492915
141	0xbde3f949	-0.11131532
142	0xbd383700	-0.044974327
143	0xbd0692e0	-0.032854915
144	0xbce7746b	-0.028253755
145	0x3c4acf67	0.01237855
146	0x3bc49703	0.0059994473
147	0xbe0dd8aa	-0.13852182
148	0x3dd052a5	0.10172013
149	0xbcc1b0be	-0.023643848
150	0xbdbf57b6	-0.093429014
151	0xbc300ed5	-0.010745724
152	0x3cc558ae	0.024090137
153	0xbddcbc4c	-0.10778102
154	0x3d8754e2	0.06607987
155	0xbd65e68d	-0.056128073
156	0xbc37c618	-0.011216663
157	0x3c22ea76	0.009943595
158	0x3d856b9c	0.065146655
159	0x3bf2f0e2	0.0074139694
160	0xbc345f50	-0.011009052
161	0x3dabe3ae	0.08393036
162	0x3ddad832	0.10685767
163	0xbc47040d	-0.012146962
164	0x3d492e9a	0.04911671
165	0x3d3c1be9	0.045925055
166	0xbd1e3189	-0.03862146
167	0x3d67f505	0.056630153
168	0x3c17f744	0.009275261
169	0xbdc5c203	-0.096561454
170	0x3e0a2df0	0.13494086
171	0xbe0aa443	-0.13539223
172	0xbd391eac	-0.045195267
173	0x3e0e89c4	0.13919741
174	0x3b8992da	0.0041984143
175	0x3db1f34a	0.08688982
176	0xbd9c68ff	-0.07637214
177	0xbe06362a	-0.131066
178	0x3bf11631	0.0073573817
179	0xbd363357	-0.044482555
180	0xbbe0feff	-0.0068663354
181	0x3cc40e82	0.0239327
182	0xbcf18c85	-0.02948595
183	0xbbd9fed3	-0.006652692
184	0xbd8c0feb	-0.068389736
185	0xbcdf670a	-0.027270813
186	0xbc1d5f22	-0.009605201
187	0x3dedc2d4	0.11609426
188	0x3b98b877	0.004660662
189	0xbc850d1a	-0.016241599
190	0x3db6924a	0.08914621
191	0x3d496faa	0.049178757
192	0xbd5c2bb5	-0.05375262
193	0x3ccb28f3	0.0247998
194	0xbd5b76b2	-0.053579994
195	0xbd96833d	-0.073492505
196	0xbd6c4cb9	-0.057690356
197	0xbdc44342	-0.09583141
198	0x3d2119af	0.039331134
199	0xbdc1546b	-0.094399296
200	0xbd8fb046	-0.07016043
201	0xbb9e959f	-0.0048396136
202	0xbd8592ba	-0.065221265
203	0xbd559001	-0.052139286
204	0xbd1b86fa	-0.03797052
205	0x3d244fa5	0.040115017
206	0xbcb42358	-0.02198951
207	0x3d69f219	0.057115648
208	0x3dfb7c13	0.12279525
209	0xbdbce512	-0.09223379
210	0xbd36279c	-0.04447137
211	0xbdba7c26	-0.09105711
212	0xbb87c50b	-0.0041433624
213	0x3ceb4257	0.028718157
214	0x3e0ea3e3	0.13929705
215	0xbcaa213f	-0.020767806
216	0x3d4e20b9	0.050324176
217	0xbda6688b	-0.08125409
218	0xbd136979	-0.03598926
219	0xbc76843b	-0.015046175
220	0x3d909812	0.07060255
221	0x3d2fb3a7	0.04289594
222	0xbd7c514c	-0.06160097
223	0x3dadbc72	0.08483209
224	0x3c9a7aea	0.018857438
225	0xbd486c76	-0.04893156
226	0x3dbb7102	0.09152414
227	0x3cdc5bfa	0.026899327
228	0xbcc3d8ad	-0.02390703
229	0xbc447f16	-0.01199319
230	0x3dad68e2	0.084672704
231	0x3d938543	0.07203152
232	0x3dc56196	0.09637754
233	0xbdddd6a6	-0.108319566
234	0x3d96f0ec	0.07370171
235	0xbc7e33d3	-0.015515286
236	0xbd295450	-0.041340172
237	0x3d3e7148	0.046494752
238	0xbd1871ab	-0.037217777
239	0x3d3dee82	0.046370037
240	0x3c57941f	0.013157873
241	0xbe02270c	-0.12710208
242	0xbded27ed	-0.11579881
243	0x3df50434	0.11963692
244	0x3d88ec68	0.06685716
245	0xbe197658	-0.14986551
246	0xbd2502d2	-0.040285893
247	0xbd3296b8	-0.043600768
248	0x3db63aa4	0.088979036
249	0x3d323882	0.04351092
250	0xbd2d0419	-0.042240236
251	0x3d1e0531	0.03857917
252	0x3d75a030	0.05996722
253	0xbd9d6db8	-0.07686943
254	0x3d6b2583	0.05740882
255	0x3de7b051	0.113129266

layers.0.fc.bias f4 [400]
0	0x3d537170	0.051621854
1	0x3c85da09	0.016339319
2	0xbd8b0229	-0.067875214
3	0xbd1a2130	-0.037629306
4	0x3d3547e6	0.04425802
5	0x3d191dcd	0.037381936
6	0xbd3f24ae	-0.04666584
7	0xbd1426a9	-0.03616968
8	0x3d5b0f2a	0.05348126
9	0x3c011579	0.007878655
10	0x3db2375b	0.087019645
11	0xbd469761	-0.04848421
12	0xbcf57b3d	-0.029965991
13	0x3da8eb59	0.08248014
14	0xbd6ed708	-0.05831054
15	0x3d149b84	0.036281124
16	0x3d8a15d1	0.067424424
17	0xbdbb7953	-0.09154
18	0x3ddc0af6	0.10744278
19	0xbd392bcf	-0.045207795
20	0xbd702851	-0.0586322
21	0xbd46614e	-0.04843264
22	0x3d4b4572	0.049626775
23	0xbd26d5a0	-0.040731072
24	0xbd10af7d	-0.03532361
25	0x3d8aab7d	0.0677099
26	0xbc80587a	-0.015667189
27	0x3d6436ca	0.055716313
28	0x3dfa2383	0.122138046
29	0x3c4c2785	0.012460594
30	0xbd81e406	-0.0634232
31	0xbd67a23d	-0.056551207
32	0x3c94a4a2	0.01814491
33	0x3d535f31	0.051604453
34	0x3df6000b	0.12011727
35	0x3d02af99	0.031905744
36	0x3d1abf8e	0.037780337
37	0x3dc7ffa7	0.09765559
38	0x3dc8567c	0.097821206
39	0x3cf86e6b	0.030326089
40	0x3c2d6bb8	0.010584764
41	0x3d6f9337	0.058490004
42	0xbd86a6d3	-0.06574788
43	0x3d2a3c14	0.0415612
44	0x3d93045b	0.07178565
45	0x3d016aba	0.031595923
46	0x3dc1b29d	0.09457896
47	0xbc7b3b9f	-0.015334039
48	0xbca20e74	-0.019782282
49	0x3b33fad3	0.0027462735
50	0x3d5df60c	0.054189727
51	0x3ab89c9d	0.001408476
52	0xbc4d0b22	-0.012514861
53	0x3a97ecc9	0.0011590953
54	0x3d83951e	0.06424926
55	0x3d216f88	0.039413005
56	0x3d9ee604	0.07758716
57	0xbccfd432	-0.025369737
58	0x3d092ccd	0.03348999
59	0xbda6c8dd	-0.081437804
60	0x3d17c165	0.03704967
61	0x3d9af6de	0.075666174
62	0x3c74a625	0.01493219
63	0x3c91203a	0.017715562
64	0x3d91e4b4	0.071237
65	0x3dd5fd1f	0.1044867
66	0x3df0a3db	0.11750003
67	0xbb793e5a	-0.003803155
68	0x3d077f0e	0.033080153
69	0x3d074367	0.033023264
70	0xbc66088f	-0.014040126
71	0xbce08382	-0.027406458
72	0xbc973590	-0.018458158
73	0xbc05377b	-0.008130903
74	0xbd45f3a0	-0.048328042
75	0x3c6773fb	0.014126773
76	0xbda5e5bf	-0.08100461
77	0x3dbab888	0.09117228
78	0x3e08a378	0.13343608
79	0xbd1495c1	-0.03627563
80	0xbcbb9ba1	-0.022901358
81	0xbca26665	-0.019824216
82	0x3dcd75da	0.10032244
83	0x3d6b1852	0.05739624
84	0x3d873a8c	0.06602964
85	0x3de88a1d	0.11354468
86	0xbc87dce8	-0.016584828
87	0x3da043dc	0.07825443
88	0x3de33ebc	0.1109595
89	0xbd27a528	-0.04092899
90	0x3d2eaf0a	0.0426474
91	0x3bb8835d	0.005630894
92	0x3d1d35c0	0.038381338
93	0x3d84ac0f	0.0647813
94	0x3e09a46b	0.13441627
95	0x3d30e89d	0.043190587
96	0xbd8e9d46	-0.06963591
97	0x3d0137f0	0.031547487
98	0x3c6b332d	0.014355463
99	0x3dbd045e	0.092293486
100	0x3deeac72	0.11653985
101	0xbd839e8d	-0.064267255
102	0x3d435a87	0.047693755
103	0x3d96e699	0.07368202
104	0x3c67c8c5	0.014146988
105	0x3ddef9ff	0.10887527
106	0xbc8784fb	-0.016542902
107	0x3ae3104c	0.0017323582
108	0x3cd07d10	0.02545026
109	0xbd23dea0	-0.040007234
110	0x3d5b6f9b	0.053573232
111	0x3d991c8f	0.0747615
112	0x3dddf9fa	0.10838695
113	0x3c95a3f0	0.018266648
114	0x3d4f0a4b	0.050546926
115	0xbd5c4d73	-0.0537848
116	0x3d3a8cfc	0.04554461
117	0x3dcbd0d9	0.09951944
118	0x3deec9aa	0.11659558
119	0x3d222d02	0.039593704
120	0xbd0222b9	-0.031771395
121	0x3c8ae78e	0.016956117
122	0x3d105b68	0.03524342
123	0x3dc48f5e	0.095976576
124	0x3db646c3	0.089002155
125	0x3d49dfbb	0.04928563
126	0x3d6eb789	0.0582805
127	0x3d306cc6	0.043072484
128	0x3d233f8d	0.03985553
129	0x3818dfce	3.644806e-05
130	0xbd4b312c	-0.04960744
131	0x3b3c468e	0.0028728577
132	0xbc9b3415	-0.018945733
133	0xbc11146b	-0.008854966
134	0x3b997dea	0.0046841996
135	0xbda7163c	-0.08158538
136	0xbd845ea7	-0.06463366
137	0xba5229ff	-0.0008017122
138	0x3b68559a	0.0035451413
139	0x3d9c44f9	0.07630343
140	0x3d21eea0	0.03953421
141	0xbcd6afe3	-0.026206916
142	0xbd915f4e	-0.07098256
143	0x3df1c7ff	0.11805724
144	0x3d17402e	0.03692644
145	0x3ce687d9	0.02814095
146	0xbbafccaf	-0.0053649764
147	0x3daad3b0	0.083411574
148	0x3d2e73eb	0.042591017
149	0xbc60ca8c	-0.013720166
150	0x3cebbad2	0.028775606
151	0xbdd57215	-0.1042215
152	0xbd14d715	-0.03633793
153	0x3da72f74	0.08163348
154	0x3ce36e09	0.02776243
155	0x3dad1b1f	0.084524386
156	0xbd8710e0	-0.065950155
157	0x3c8ed25f	0.017434297
158	0x3dbc75dd	0.09202168
159	0xbcf36e43	-0.029715663
160	0x3db11e8b	0.08648404
161	0xbcb66655	-0.022265593
162	0x3c2dcd1a	0.010607982
163	0xbcc9ff9c	-0.024658017
164	0x3c05bfca	0.008163402
165	0xbc348688	-0.011018403
166	0xbd1813dd	-0.037128318
167	0x3d6a9c00	0.05727768
168	0x3cb38b5f	0.021917043
169	0xbca8eb01	-0.020619871
170	0x3d8ed9ca	0.06975134
171	0x3d8e6316	0.06952493
172	0x3d8d20e3	0.06891038
173	0x3d4fb015	0.050705034
174	0xbd549cf5	-0.0519075
175	0x3da7cdf8	0.08193582
176	0x3cfc5377	0.030801518
177	0xbb9b5064	-0.004739808
178	0xbd166916	-0.03672131
179	0x3c9ae309	0.018907087
180	0x3d0f2281	0.034945015
181	0x3d3313d7	0.043720093
182	0xbd4ed375	-0.05049463
183	0x3d8783c3	0.066169284
184	0x3cbc42f4	0.022981144
185	0x3d364446	0.044498704
186	0x3c344b69	0.011004307
187	0x3cfed7eb	0.031108817
188	0xbd8536d2	-0.06504597
189	0xbd54f1cc	-0.051988408
190	0x3d70a019	0.05874643
191	0x3da6d5b8	0.08146232
192	0x3dc79302	0.097448364
193	0x3b027f2b	0.0019912224
194	0xbd7111b9	-0.058854792
195	0xbd6cfdf0	-0.05785936
196	0x3d7d8ea4	0.06190361
197	0x3dc1cb4f	0.09462606
198	0x3ddb2696	0.10700719
199	0x3dd2bad0	0.10289538
200	0xbc76a165	-0.015053128
201	0x3dc3fbea	0.09569533
202	0xbc6db42e	-0.01450829
203	0x3cce11f4	0.025155045
204	0x3dc68cb3	0.09694805
205	0x3d06b2c0	0.032885313
206	0xbb2bbe58	-0.0026205983
207	0xbc000660	-0.00781402
208	0x3ddc0f4f	0.107451074
209	0x3c14d8aa	0.00908486
210	0x3cee6b88	0.02910401
211	0x3cb7dcd9	0.022444176
212	0x3dc266c6	0.09492259
213	0xbcfcc963	-0.030857747
214	0xbd16211b	-0.036652666
215	0x3da5dc25	0.0809863
216	0xbc806507	-0.015673174
217	0xbd5e9703	-0.054343235
218	0xbd5d0ffb	-0.05397032
219	0x3daec59f	0.08533787
220	0xbd76db42	-0.060267694
221	0xbd970961	-0.07374836
222	0x3dde463a	0.108532384
223	0x3dd0f07b	0.10202118
224	0xbd9747f5	-0.073867716
225	0xbd03e113	-0.03219707
226	0x3d9db966	0.077013776
227	0x3ddfadfe	0.10921858
228	0xbce2bfd7	-0.027679367
229	0xbd1c439e	-0.038150422
230	0x3d18fe5a	0.037351944
231	0xbd024b90	-0.031810343
232	0x3d53ce65	0.051710505
233	0xbd6f8deb	-0.058484953
234	0x3d92ac61	0.07161785
235	0xbc67382b	-0.014112513
236	0x3c43f0c8	0.011959262
237	0xbd5b9a38	-0.05361387
238	0x3c1c4366	0.009537553
239	0x3d8418f9	0.06450076
240	0xbd2e636c	-0.042575285
241	0xbc20522c	-0.009785216
242	0x3ceed003	0.029151922
243	0x3daadc5a	0.0834281
244	0x3daab9bc	0.08336207
245	0xbcceff6e	-0.025268283
246	0x3ccbb365	0.024865815
247	0xbc9a8372	-0.018861506
248	0x3d1a318e	0.037644915
249	0x3d53e35a	0.05173049
250	0xbd669edd	-0.056303848
251	0xbd5f56cb	-0.05452613
252	0x3dc6a2a6	0.096989915
253	0xbd4828ad	-0.048866916
254	0x3dd4cad1	0.10390247
255	0xbd80d21b	-0.062900744

out_cat.weight f4 [3, 400]
0	0xbdc624ed	-0.09675012
1	0xbd46ca70	-0.048532903
2	0xbd81d64f	-0.06339704
3	0xbb306229	-0.0026913977
4	0x3c7f64fd	0.015588042
5	0x3d685da2	0.05672992
6	0x3d14c371	0.0363192
7	0x3d804234	0.06262627
8	0x3cb449e4	0.02200789
9	0x3acfaf6f	0.001584513
10	0x3d1c9e2a	0.038236775
11	0xbdf7edd5	-0.1210591
12	0xbd3b0d20	-0.045666814
13	0xbd56025a	-0.052248336
14	0x3c2f1bd9	0.010687792
15	0x3cf85956	0.030316036
16	0xbd9542cf	-0.07288133
17	0xbd3e9a7b	-0.046534043
18	0xbd962b9a	-0.07332535
19	0xbd7e5a38	-0.062097758
20	0xbd69a146	-0.057038568
21	0xbdfc5429	-0.1232074
22	0xbc1374fb	-0.009000058
23	0xbe04a521	-0.12953617
24	0xbd67e18b	-0.05661158
25	0xbd77fcbd	-0.060543764
26	0xbdc13adf	-0.09435057
27	0x3d48dff3	0.0490417
28	0x3d140e20	0.036146283
29	0x3d5b93dc	0.053607807
30	0xbccca22b	-0.024979671
31	0x3d3ae4b9	0.045628283
32	0xbb56dbfa	-0.0032784925
33	0xbdb692d7	-0.08914726
34	0xbdd2ae36	-0.10287134
35	0x3db34a23	0.08754375
36	0xbdb858de	-0.09001325
37	0xbddcc680	-0.10780048
38	0x3d2da78c	0.042396113
39	0x3c955f60	0.018233955
40	0x3cfde634	0.030993558
41	0xbdb47b49	-0.08812577
42	0x3d5437f9	0.051811192
43	0xbd998070	-0.07495201
44	0xbdaf644a	-0.085640505
45	0x3cbdeeed	0.023185218
46	0x3d1f4071	0.038879815
47	0x3d12d0df	0.035843726
48	0x3d12cffc	0.03584288
49	0xbdc49310	-0.095983624
50	0xbd40f857	-0.047111835
51	0xbd49d08d	-0.049271155
52	0xbdc4c747	-0.09608322
53	0x3d4e095d	0.0503019
54	0x3daf49fe	0.08559035
55	0xbdc967b0	-0.0983423
56	0x3d5f89e6	0.05457487
57	0x3c3c504d	0.011493755
58	0x3b4344cd	0.0029795647
59	0x3ccd1dfa	0.025038708
60	0x3d35ecc0	0.044415236
61	0x3dcd0c8c	0.10012159
62	0xbd9eed66	-0.07760124
63	0xbd53d119	-0.051713083
64	0xbcf69917	-0.030102296
65	0xbd2ea646	-0.04263904
66	0xbd5cf0b3	-0.053940486
67	0xbd2e6bce	-0.04258328
68	0xbd31ba13	-0.043390345
69	0x3c5b5d65	0.013388966
70	0xbd5f75d3	-0.054555725
71	0x3da58827	0.080826096
72	0x3d915774	0.070967585
73	0xbe09afd3	-0.13445978
74	0xbd074382	-0.033023365
75	0x3d6da7e9	0.05802146
76	0x3d2cea93	0.042215895
77	0x3dc4ff14	0.09618965
78	0xbc35083b	-0.011049326
79	0xbc849661	-0.016184988
80	0xbc55dcc7	-0.013053126
81	0xbdae28a9	-0.08503849
82	0x3d2c26d0	0.042029202
83	0xbc5980d1	-0.013275341
84	0xbd2a3f5e	-0.041564338
85	0x3d73b69c	0.05950032
86	0xbdcf340a	-0.101173475
87	0xbc83c757	-0.016086264
88	0xbda9373c	-0.08262488
89	0x3d9dcf12	0.07705511
90	0x3ca146c7	0.01968707
91	0x3dc23dd7	0.09484451
92	0xbdd242e6	-0.10266666
93	0xbd2a2de1	-0.04154766
94	0xbdacc967	-0.08436852
95	0x3cc94d07	0.024572862
96	0xbc00e0a4	-0.0078660585
97	0xbdcc37fb	-0.09971615
98	0x3bf73da3	0.0075451895
99	0xbd174e67	-0.036940005
100	0x3da74aa7	0.08168536
101	0x3d7a02e0	0.061037898
102	0xbd8fec47	-0.07027488
103	0xbcb399f7	-0.021924002
104	0xbd1ecb45	-0.03876807
105	0xbc65ef2e	-0.014034076
106	0x3d61adcc	0.055097386
107	0xbcce689f	-0.025196372
108	0x3d9e1a9e	0.077199206
109	0xbd2b8582	-0.04187537
110	0xbd4a01ef	-0.04931825
111	0xbd03b639	-0.032156203
112	0xbd510c94	-0.051037386
113	0xbd9494a2	-0.07254912
114	0xbc9c4a83	-0.019078499
115	0xbdb15e9d	-0.08660624
116	0x3d01866c	0.031622335
117	0xbdb7fdcf	-0.08983957
118	0xbd8f2ed6	-0.06991355
119	0x3ce2c229	0.027680473
120	0xbdbc756c	-0.09202084
121	0x3d784d6c	0.06062071
122	0x3d9d96a5	0.07694749
123	0xbd448c1f	-0.047985192
124	0xbda05e9c	-0.07830545
125	0xbd2b0644	-0.041754022
126	0x38137e05	3.5164896e-05
127	0xbd3224cf	-0.043492135
128	0x3b726cbf	0.0036991087
129	0xbc4d4105	-0.012527709
130	0xbd91576e	-0.07096754
131	0x3d98c932	0.0746025
132	0x3d17b3fd	0.037036885
133	0xbdada493	-0.08478656
134	0x3d1d3c9b	0.038387876
135	0x3d9ae136	0.07562487
136	0xbdb64e21	-0.08901621
137	0x3d3cbfc7	0.04608133
138	0xba944acb	-0.0011313794
139	0xbdb2a476	-0.08722775
140	0xbd06ba0e	-0.03289228
141	0x3d03aad9	0.032145355
142	0x3d4c3e33	0.049864005
143	0x3d3de263	0.046358477
144	0xbdb2e1c9	-0.08734471
145	0x3d45b53c	0.04826854
146	0x3d115dd3	0.03548987
147	0xbca3ba1d	-0.019986207
148	0xbe07d96b	-0.13266532
149	0x3d0cefd4	0.034408405
150	0x3d8d8819	0.06910724
151	0x3cd9966e	0.026560988
152	0xbdd40750	-0.10352957
153	0xbd859306	-0.06522183
154	0x3d61472d	0.05499952
155	0x3d8581ed	0.06518922
156	0xbd302395	-0.043002684
157	0x3d3af7cf	0.045646485
158	0xbd8668dc	-0.06562969
159	0x3d462aa8	0.048380524
160	0xbdc9a9b2	-0.0984682
161	0xbdd5e14b	-0.10443362
162	0xbe09ff74	-0.13476354
163	0x3d3cfe96	0.04614123
164	0x3cbca6b9	0.023028718
165	0x3d5a2c9e	0.053265207
166	0xbde8af00	-0.113615036
167	0x3d5d0b61	0.05396593
168	0xbd048d7d	-0.032361496
169	0xbc981dc3	-0.018568879
170	0x3d273fda	0.040832378
171	0x3d2074e7	0.039173987
172	0xbd9b4490	-0.07581437
173	0xbdb0be68	-0.08630067
174	0xbd1eb1ed	-0.038743902
175	0xbd67218b	-0.056428473
176	0xbd4022a5	-0.04690804
177	0x3d383933	0.044976424
178	0x3d0f8a6a	0.03504411
179	0xbbd139f3	-0.006385082
180	0xbd84c597	-0.06483
181	0xbd82b88a	-0.06382854
182	0xbdb9067b	-0.09034439
183	0x3d493e33	0.049131583
184	0xbd96867f	-0.07349872
185	0xbab8ea97	-0.0014107999
186	0xbde5bb09	-0.11217315
187	0xbd7de4de	-0.061985843
188	0x3db593dc	0.088660926
189	0x3dc5254f	0.09626257
190	0x3b7f8773	0.0038990646
191	0xbd63a8cf	-0.05558091
192	0x3cb728a3	0.022358244
193	0x3d777836	0.060417376
194	0x3b283f22	0.0025672396
195	0x3d89d1e7	0.06729489
196	0xbdb2dd21	-0.08733583
197	0xbc7540d3	-0.014969069
198	0xbdee81f6	-0.11645882
199	0x3d2bd897	0.041954603
200	0x3d55f23e	0.052232973
201	0xbcd232d5	-0.025659004
202	0xbd19da33	-0.037561607
203	0x3da31b10	0.07964146
204	0xbd473ff1	-0.048644964
205	0x3db1f1a4	0.086886674
206	0xbdacd0d2	-0.08438267
207	0xbc57cf2d	-0.013171953
208	0xbdaaf831	-0.0834812
209	0x3d3349c9	0.04377154
210	0xbdff1092	-0.124543324
211	0xbdef5de7	-0.11687832
212	0xbdba4e83	-0.09097006
213	0xbdb4f03a	-0.08834882
214	0xbdbfa1a4	-0.093570024
215	0xbd09c910	-0.033639014
216	0xbc2a5af3	-0.010397661
217	0xbd7786e9	-0.060431395
218	0xbd8e7f4e	-0.06957875
219	0xbbbbc4d0	-0.005730249
220	0x3d90f1ca	0.070773676
221	0x3d6ef35d	0.058337558
222	0xbba8b1a6	-0.0051481305
223	0xbbf52fff	-0.007482528
224	0xbd33a963	-0.04386271
225	0x3d7f5c03	0.06234361
226	0xbd402c2d	-0.04691713
227	0xbbb9124b	-0.0056479326
228	0xbbc8d54a	-0.0061289417
229	0x3cff96bf	0.031199811
230	0xbde4a619	-0.11164493
231	0x3c4047ff	0.011735915
232	0x3d1a2007	0.0376282
233	0xbd12926f	-0.03578418
234	0xbdfc63b7	-0.123237066
235	0xbd75cc9b	-0.06000958
236	0x3c915822	0.01774222
237	0x3cc5c5fd	0.02414226
238	0xbd4fc08e	-0.050720744
239	0x3c19592c	0.009359639
240	0xbce21a9b	-0.027600577
241	0xbd80f189	-0.06296069
242	0x3d32320b	0.043504756
243	0xbd8976ea	-0.06712134
244	0xbdf52da2	-0.119715944
245	0x3d78dee0	0.060759425
246	0x3d8c2ced	0.068445064
247	0x3d549b68	0.05190602
248	0xbd867096	-0.06564443
249	0xbd809a83	-0.06279471
250	0x3d0d5e00	0.034513474
251	0x3d35a64b	0.044348042
252	0xbda7ad1c	-0.08187315
253	0xbd171493	-0.036884855
254	0xbd75fd07	-0.06005576
255	0xbd74f20d	-0.05980115

out_cat.bias f4 [3]
0	0x3cb6c469	0.022310453
1	0x3d3136e0	0.043265224
2	0xbb13e7ff	-0.00225687
