models/ncls3-dex100/scenario0_epoch23.pt (torch, 205611 bytes, 6 tensors)

inp.fc.weight f4 [200, 49]
00000000: d21e 5f3c 3f35 04bd 06f3 ba3d 1c4c 9c3d
00000010: 364f 87bb 52f9 a43c 485a 85bd ceb9 36bd
00000020: 6413 703c b6c5 cf3c 8837 ee3d f17f ec3d
00000030: 5f35 2b3d 853f ff3d 0bc4 243e f487 8ebd
00000040: 0d46 1bbe db8d 92bd 27b9 31bc dc6b d13d
00000050: 6ce7 6bbd 3f6a 583d 9f02 bbbc b374 c1bc
00000060: 5bf3 86bd 5028 693c 1053 bfbd 2c51 54be
00000070: 6ba2 45be 602f 65bd 1f6c 9bbd 5d3e 0f3e
00000080: c3dd 993d 4880 33be 81ff e83d cd9d 29bd
00000090: 6173 fa3d 97a7 c83d dc27 1c3e 28e7 4bbe
000000a0: a361 c53d 4c06 1f3d efa1 b1bd 9c8d 8c3d
000000b0: 9c9b 91bc 3a1d c3bd 7005 8b3d 95c4 2a3e
000000c0: 6eba c93d 44d9 edbd 89a0 90bd 7eea 19be
000000d0: f89a 9c3d ea48 473c 70c7 41bd 0621 8cbd
000000e0: f89e 0fbe a137 3e3d cd37 923d 0e6f a5bb
000000f0: 3d8b f23d 9e90 153e 37de 133e 7ce7 e23c
00000100: d738 c0bd c4ea 713c 4f74 a9bd 672f 253e
00000110: bcbe 393d 7ee3 203d 8972 2dbd 6393 bebc
00000120: b731 093d e2a2 ff3d 0051 18be 784a 063e
00000130: 7425 c13d 6250 983d 2b35 05be 266f 213c
00000140: dba1 c1bd 3d2a 783c a984 f6bc 4fb0 01be
00000150: 9f45 0f3e e493 bd3a 3fdb cf3c 8340 05be
00000160: 66bf b63c 756b 78bd 0b00 853d 9c33 d6bd
00000170: c515 8c3d e439 08bb 961a e0bd 86c1 b43d
00000180: 5f09 d63c 0266 a33c 4605 16be bf92 3d3e
00000190: f942 f83c fe7d 08be d79d 1b3e 89d4 953c
000001a0: 2a62 0b3d 9207 e33c 9f8c 8f3d d55b 033e
000001b0: 8a31 d2bc cdcb 55be 93ef 083e f54b d5ba
000001c0: 7480 243d 6f67 05be cef4 69ba ff69 b1bd
000001d0: 006f b23d 5459 08be 36d0 ffbc 3fe0 2cbe
000001e0: a1a2 0abe 5f2e 0e3d 109e bcbd d2b0 e3bd
000001f0: 9200 c7b9 1934 5e3d 8b49 e1bd 191e fbbb
00000200: e7db 193e 6f66 f9bd 5e4f a13d 3696 e83b
00000210: 6cfe adbc ec5f a13d 784f ae3d 4597 06be
00000220: 2358 a4bc 4b53 143d ad0a 913d 4251 b3bd
00000230: 2fba 27bd c55c 6dbd eb2d 3abe e7e0 303d
00000240: 4c1a 083e 527f 11be 7f96 ed3c cbd5 9abd
00000250: 3550 f7bd 0ecb 06be 5572 19be 4562 503d
00000260: 4d72 163d 71ea 843d 24d8 6fbe 5f27 28bc
00000270: c52e 2abd 3b40 e43d 90e2 5b3d b432 8cbd
00000280: feb0 27be db8a ae3c c4b6 acbc adc0 ee3d
00000290: 7eae 65bd 208c 1dbd 7199 0bbd 9409 203e
000002a0: ed73 a33d 3296 df3c eabf c03d ecda 89bc
000002b0: 68e0 5c3d 3459 60bc dc9e fdbd fd08 5c3d
000002c0: ab7d 19be 5c59 db3d 391c f93c 45c9 eabd
000002d0: 29b0 143e 6217 97bb 1519 ce3c e9d1 aebd
000002e0: 8c38 4c3c fc98 c93a 4538 d3bd 06dd e83d
000002f0: a758 75bc 6084 103e 4dae 4ebc 51cf afbc
00000300: 7ec3 41be fc06 e13d 045d fc3d 8a3f 2bbd
00000310: 4ec5 c5bd 22e6 2d3b f0b8 1dbc 7494 093d
00000320: dd88 c73d 3b15 37bd ddc3 0dbe d650 6a3d
00000330: 575c 8a3d 25b5 e33d 6b2c a03d 4bf4 b13d
00000340: 1eca 453e c489 8b3d e2e1 4fbd f1c2 5c3d
00000350: dd04 913d 6af1 fe3d 6c43 96bd ff6a 06bd
00000360: 4960 a6bd ecb7 5ebc 70dc ed3c 3b7f 093e
00000370: 5604 b3bd 5f47 f13c 00f5 403d 3159 9f3d
00000380: 13a1 9d3d a9a0 cdbb c08d 4b3d ac67 b23d
00000390: 5a9d 003c 83d2 02bc 4d4e d4bb 706b 35bd
000003a0: 66ea 13bc 3eae 40bd cfac 9dbd be38 f1bd
000003b0: 96c5 1c3c 7a35 20bc ae8b d73c 697e 06bc
000003c0: 0304 ab3d 40b3 763d 7f8c 0bbd 6ad4 163d
000003d0: 63fd febd 0c81 20bd 1004 8c3d 4596 9ebd
000003e0: 208d dbbd 32e3 1ebc 10d6 d3bd 24bd ba3d
000003f0: 1556 06bd 5374 cdbd e819 fd3b a51e 563e
0.013618188 -0.032277342 0.09128384 0.07631704 -0.0041293157 0.020138416 -0.065113604 -0.04461079
0.014653061 0.02536283 0.116316855 0.115478404 0.041798946 0.12463287 0.1609041 -0.06959525
-0.15163441 -0.07155963 -0.010847366 0.10225651 -0.057593748 0.0528357 -0.022828398 -0.023615217
-0.06589385 0.014230803 -0.09342015 -0.2073409 -0.19300239 -0.055953383 -0.07588982 0.13988633
0.07513001 -0.17529404 0.113768585 -0.041410256 0.12229038 0.0979759 0.1524958 -0.19912398
0.09637763 0.038824365 -0.086734645 0.06862947 -0.017774396 -0.09527059 0.067881465 0.16676553
0.09850012 -0.11613706 -0.0706187 -0.15030858 0.076467454 0.01216338 -0.04730934 -0.06842236
-0.14025486 0.04643977 0.071395494 -0.005048639 0.11842964 0.14605948 0.14440237 0.027698271
-0.09385841 0.014765445 -0.08274137 0.16131364 0.045347914 0.039279453 -0.042345557 -0.023263639
0.033494677 0.12482239 -0.14874649 0.13114345 0.09430972 0.07437207 -0.13008563 0.00985316
-0.094546996 0.015146789 -0.030092554 -0.12664913 0.13991402 0.001446363 0.0253731 -0.1301289
0.022308063 -0.060649354 0.06494149 -0.104590625 0.0684009 -0.0020786459 -0.10942571 0.08825974
0.026127515 0.019946102 -0.14650449 0.1851301 0.030305373 -0.13329312 0.1519693 0.018289821
0.034029163 0.02771357 0.07009243 0.12828 -0.025658388 -0.20878525 0.1337264 -0.0016273247
0.040161565 -0.13027738 -0.00089247234 -0.08662795 0.08712578 -0.13315326 -0.031227212 -0.16882418
-0.135386 0.03471219 -0.092098355 -0.1111771 -0.00037956663 0.054248903 -0.11000355 -0.0076635
0.15025292 -0.12177741 0.07876466 0.0070979847 -0.021239482 0.07879624 0.08511251 -0.13143642
-0.020061558 0.036212247 0.07082114 -0.08755733 -0.040949043 -0.0579498 -0.18181579 0.043183234
0.13291281 -0.14208725 0.029002426 -0.07560309 -0.12075845 -0.13163397 -0.1498502 0.050874967
0.0367301 0.06490029 -0.23422295 -0.010263293 -0.04154851 0.111450635 0.053682864 -0.06845608
-0.16376111 0.021306446 -0.021083243 0.11657844 -0.05607461 -0.03846371 -0.03408188 0.15628654
0.079810955 0.027293298 0.09411605 -0.016828023 0.053924948 -0.013693143 -0.12383816 0.05371951
-0.14989345 0.10710403 0.030408965 -0.1146417 0.14520325 -0.0046109417 0.025158444 -0.08536131
0.012464654 0.0015380676 -0.10313467 0.11370282 -0.01497475 0.14112997 -0.012614799 -0.02146116
-0.1892223 0.1098766 0.12322429 -0.041808642 -0.096567735 0.0026534875 -0.009626612 0.03358884
0.097429015 -0.04469798 -0.13844247 0.057205997 0.06755894 0.11118535 0.07820972 0.08689173
0.19315383 0.06813386 -0.050752528 0.053896848 0.07081006 0.1244839 -0.073370785 -0.032816883
-0.08123834 -0.013593655 0.029035777 0.13427441 -0.087410614 0.029452978 0.04710865 0.07780684
0.07696738 -0.0062752557 0.04969573 0.0871118 0.007850016 -0.00798476 -0.0064790607 -0.044291914
-0.009028053 -0.04704117 -0.07698976 -0.11778401 0.0095685925 -0.009778375 0.026311722 -0.0082088495
0.083503745 0.06022954 -0.034069534 0.036823668 -0.124506734 -0.03918557 0.06836712 -0.077435054
-0.10720277 -0.009697722 -0.103435636 0.09118107 -0.032796938 -0.10031953 0.0077240355 0.20910127

inp.fc.bias f4 [200]
00000000: 14b5 20be 9ef3 a53d 607f 87bc c2dd adbd
00000010: 75ee 923b 610c 043e 3e8a 53bd 81be e13c
00000020: c875 fc3d 2639 eb3d aa8e 29bd fddb 0f3e
00000030: 2b00 803d 6425 9fbd 4866 2dbd 7746 1e3e
00000040: a902 f33d 8736 dcbd 219c f1bd 4c11 ed3d
00000050: 3a88 af3d 37ed 9fbd c9d2 de3d 20ca f1bd
00000060: acc3 2f3e 8f56 513b 3480 fb3d 549a 853d
00000070: 3210 043d 3ac6 d63a d3eb 75bd 7ae8 a53d
00000080: 9a3c 393e 650e 05bd 1f1d ca3d c1f4 92bd
00000090: 09e6 ecbd bbe6 7e3d 579d 393e 461a c93d
000000a0: 3d39 92bd af8c 053e c7a3 923d 13e9 e33d
000000b0: 88a4 b03d 914f 253d 0bbd a6bc d8ed 003e
000000c0: 48f9 b53d c4fe efbd 4324 c73d 321f d7bd
000000d0: 3058 3a3d 0f0b 213e d359 9c3c 28f0 0c3e
000000e0: 9798 18bd 20b6 d33c 46e3 eebc 0dd6 bf3c
000000f0: cc5e 2fbd 73eb 0c3e 1040 e8bd 6036 28bd
00000100: 5be2 6e3d a5b8 14bd a8cd bb3d 5e11 f4bd
00000110: 9b72 2f3e 5e4d 6b3d c778 ec3d 62a7 75bd
00000120: 4c52 983d 77b1 d2bd 0e9f a43d 48e9 b53d
00000130: 7313 73bd 2314 15bd 83a2 983d e23c 44bd
00000140: 2d0c 943d ddde d7bd f681 b23c 8cf3 8dbd
00000150: a50e 02be c27f c03b 5338 4d3d 31a3 7ebd
00000160: 65c0 a8bd cb77 efbd a072 213c 08a2 f63d
00000170: a303 79bc ddf9 913d f5f6 7d3c 7150 dc3c
00000180: 770d f2ba df5b e7bd bae7 d23d 6671 ddbd
00000190: cff1 cc3d 5a07 f93d 0074 ea3b fc91 e0bd
000001a0: b875 a83c 4ed9 2abd 8725 9d3d cb30 bb3d
000001b0: 88b6 7f3d a7d1 cebd b872 a8bd b774 0bbe
000001c0: 87b4 23bd 86a2 2abe 2f72 7a3d 70a0 6bbc
000001d0: 0590 dbbd 05c5 b3bd e7b9 0e3e 00d5 153e
000001e0: 6853 fc3d 309c 8b3d 2fe6 d33d 3471 873d
000001f0: 0db6 77bd e6e5 6cbd c760 d53d 7b81 b43d
00000200: 7bf3 053d 7d46 0ebe 8c73 f53d f659 57bd
00000210: 3ecb ff3b 319a 643d 620a 023d 2d4f eebd
00000220: afa5 c0bd 0668 b43d 7715 b8bc d949 3f3e
00000230: 7c80 e4bd 56ac 803d 7ffe 0d3e 68a0 56bd
00000240: 2789 a53d 48c5 2c3e bbb6 64bc b9e4 28be
00000250: f491 e7bd a89a c13d 3949 f33d c749 cb3d
00000260: 4573 753d 7194 73bd 8799 e33d 0e28 793d
00000270: 9113 7ebd cf00 2e3d 4aed 07bd b79e b43d
00000280: 4503 eb3d 0a56 363d e61d 823d a836 cebc
00000290: f63d 103d 1e57 a73d 0dd0 8f3d 5f70 7cbd
000002a0: eb5e 413d 1102 663b 4bcc 05bd ee47 2d3d
000002b0: 78fc 823d 16b1 e3bd c222 a63c 9e9d b8bd
000002c0: 3ba7 02be ef77 013e 76b5 1c3d 7371 8e3d
000002d0: 3c2c adbd 332b 48bd 9159 ee3d cea3 513b
000002e0: 2af2 f83c 5550 f5bd 0bf1 73ba 528d a03d
000002f0: 3cb8 8d3b fc6d fc3d ec12 1b3e 48cb 02be
00000300: d019 623c d608 913d 211c 5dbd e216 543d
00000310: 3d02 9e3d 760d b93d aabb e6bd dfc4 a6bd
-0.15694076 0.08103107 -0.01654023 -0.084895626 0.0044839927 0.12895347 -0.05164551 0.02755666
0.123271525 0.114855096 -0.04139582 0.14048763 0.06250032 -0.077708036 -0.04233387 0.15456568
0.11865742 -0.10752588 -0.11797357 0.11575565 0.08570905 -0.07808917 0.10880048 -0.118061304
0.17164487 0.0031942462 0.12280312 0.065235764 0.032242008 0.001638598 -0.060039353 0.08100982
0.18089524 -0.03248443 0.09868836 -0.07175589 -0.11567313 0.06223176 0.18126427 0.098194644
-0.071398236 0.13041948 0.07160144 0.1112844 0.08625132 0.040359084 -0.020353815 0.1259073
0.08885437 -0.117185146 0.09723713 -0.10503997 0.04549426 0.15726875 0.0190858 0.13763487
-0.037254896 0.02584368 -0.029161107 0.023417497 -0.042815015 0.13761692 -0.11340344 -0.04106748
0.05832134 -0.036308903 0.09170085 -0.11917375 0.17133562 0.05744683 0.11546474 -0.05997408
0.07437572 -0.10287755 0.0803815 0.088823855 -0.05934472 -0.036396157 0.07452872 -0.047909625
0.07228885 -0.10540555 0.021790486 -0.069312185 -0.12700899 0.005874605 0.050102543 -0.06216735
-0.08239821 -0.116927706 0.009853989 0.12042624 -0.015198621 0.07127736 0.015500774 0.026893826
-0.0018467148 -0.1129682 0.102981046 -0.10812645 0.10007059 0.12159605 0.0071549416 -0.10965344
0.020563945 -0.041711144 0.076731734 0.09140166 0.062429935 -0.10098582 -0.08225006 -0.13618742
-0.039967086 -0.1666356 0.06114405 -0.014381513 -0.10720829 -0.08777813 0.13938104 0.14632034
0.12320596 0.068169 0.103466384 0.06613389 -0.06047635 -0.057836436 0.104188494 0.08813759
0.032702904 -0.13894077 0.119849294 -0.052576028 0.007806211 0.05581111 0.031748183 -0.11636195
-0.09406602 0.088089034 -0.022471173 0.18680514 -0.11157319 0.062828705 0.13866614 -0.05239907
0.080828 0.16872132 -0.013959582 -0.16493501 -0.11307135 0.094533265 0.118792005 0.09926181
0.059924383 -0.059467737 0.111132674 0.060829215 -0.06203038 0.04248124 -0.03318528 0.08819335
0.11475233 0.044515647 0.06353359 -0.025172547 0.03521534 0.08170913 0.070221044 -0.061630603
0.04720966 0.0035096447 -0.032665532 0.042304926 0.06395811 -0.11117761 0.020280246 -0.09014438
-0.12759106 0.12643407 0.038258992 0.069552325 -0.08455703 -0.048869323 0.11638177 0.0031988504
0.03038891 -0.11978213 -0.00093056326 0.07839455 0.004324941 0.12325665 0.15143937 -0.12772858
0.0138000995 0.070817634 -0.053981904 0.051779635 0.07715271 0.090357706 -0.11266263 -0.08143019

layers.0.fc.weight f4 [200, 200]
00000000: 1948 0dbc 88b5 a23c 2e67 613d 5f88 813c
00000010: a172 4dbd bd7b c63d db79 90bd c946 abbd
00000020: 613c 04bd a102 253d 1291 403d 7499 ca3d
00000030: 77d5 aabb 26ac 4cbc 97a8 8bbd a857 90bb
00000040: 506e 8a3d 4835 d7bc f7d7 8cbc a6e9 d63d
00000050: 85b8 37bd e427 b93d 8ec9 a0bd e4e1 823c
00000060: c370 373d 96dc 44bc 95af 073d 34d2 303d
00000070: 257e 043d cbf7 03bd 8432 073e 2d27 833d
00000080: 6646 98bd 0810 35bd eac0 88bd 6f98 513d
00000090: f9ad e33d 49d1 703d 50d3 b7bc cba7 4dbd
000000a0: 6c4d 03be d4d7 9b3c 1f38 bbbd cd3a 67bc
000000b0: b3d2 393d 5a4f 3e3c bbd0 343d 84dd 24bd
000000c0: 263c 903d 908f ebbd a98e babd 47a9 753d
000000d0: 736e eabc 5118 4e3c 8473 a23d 3b8a 423d
000000e0: efc6 56bc 459b e53b 36ee 483d 7746 cfbd
000000f0: 38a3 3b3c 2b56 913d d8c3 f83c ecea af3c
00000100: bca2 efbc e1ce a63d de13 c9bc 200a 183d
00000110: 8e49 95bb 4b20 813c e511 b3bc 1104 903d
00000120: 047c 0e3d fc91 9bbb c8bf 45bc 7317 8cbd
00000130: db9e 15bc 3205 eabb 690f 8b3d ec3a 5abd
00000140: 596d bcbc 8ec8 473c bd0e bdbd c496 8fbc
00000150: 27ad 633b f560 b6bc ab59 c03d d13f 8a3b
00000160: 2055 fbbd f337 14bd a51b b3bc 8e2b 11bc
00000170: e739 573d b6c5 0fbd bb98 3ebd cb58 9a3c
00000180: 1127 3dbb 8a68 7b3d f1c4 a8bc fe2b 93bd
00000190: d645 203d 3d72 393d b59c 793d bceb 1fbd
000001a0: 106a d33c 06dc a1bd 2a98 80bd 915b 70b9
000001b0: 972b 4dbd 07b4 18bd 310e cb3b 477e 03bd
000001c0: 6e78 80bd 4d12 093d cb7f ed3c 533e f33c
000001d0: e78b 8dbd 5a9a a73d fe21 c53d e162 cd3d
000001e0: 8fde b03b 3d29 ffbc b24a 823d 646f 623d
000001f0: 0e78 26bd 292b 0abc ff4e 1c3d 67ed de3c
00000200: ecd6 8d3b 158d da3d 1963 76bc 1c99 9e3d
00000210: 6ee2 f83c 75b5 10bd 2b93 293d 2356 f8bc
00000220: 0fcc efbb 5b06 5fbd 50d0 2dbc 9343 f83c
00000230: f3c6 3cbd 0468 1abb 6130 db3b 5e87 d6ba
00000240: 9781 42bd 52fa c5bc 9d1e 86bd c9eb 7abd
00000250: 10b2 b83d e878 d53d ca3c 5dbd 98cd 07be
00000260: 6392 d4bd 12d2 813d 4bbc 623d 223d a53d
00000270: e858 7cbd 0e8b 0bbb 15fa 3a3d 6974 ed3c
00000280: 084e 94bc 6b41 b6bc 4815 c4bb 5b34 dd3d
00000290: b271 e0bb 501c 333d 26e4 7b3c 5f12 35bc
000002a0: 694f 863d 4b28 fdbc fdb3 9e3d 8001 703b
000002b0: a7e2 fcbc 907b 2e3d 5254 0ebe 0e75 003e
000002c0: 690a eb3c 0f76 923d 2498 593c b650 963d
000002d0: 963e c9bd babd 6dbd 0f6a 48bc 3a2c a4ba
000002e0: 6e03 d03b a06b 55bc d384 e0bc a8b2 3d3c
000002f0: 7015 3a3d 6104 60bd d521 773d be2e ca3a
00000300: 6d1f 46bd 74cd 163d 4277 c8bc a27b b3bd
00000310: 5440 b83d f480 4c3a 3760 8abc 388f 013e
00000320: cf09 d3bd b1fe 703d 32ae bc3d e87b 32bd
00000330: 184b 843d 13ad de3d 415d 31bd 0f3b d13b
00000340: ed0e 173d 7bde 263c 4cd1 dabb c88c 70ba
00000350: 8659 213e 4b28 5bbd f2c7 59bd 1ac5 38bc
00000360: f087 d83d 7df4 a43c 3733 75bc 6e3c f53c
00000370: 81a1 233d 3abc 2f3e 8c14 40bd 2d3d 0b3d
00000380: e71f 013d a36c c2bc aea2 8dbd 04a1 213c
00000390: aa42 88bd ce8e 06be bc1d a33d 506f 163e
000003a0: b9fa febd ffcb d4bc 7f47 0d3d 8327 233d
000003b0: c03c dc3c bbb4 3f3d a6c4 393d 3246 28bd
000003c0: 67d2 6cbd 8b40 b5bd 8b7a 2cbd 55ca d13c
000003d0: ac09 693d 2432 9dbc f14e cebd c38d 763d
000003e0: aef9 56bd 0987 1ebd 0baf edbd ea6e 793d
000003f0: 4d6f 34bd 8a36 05bd 1fb9 fd3c 89ba f03d
-0.008623146 0.019861951 0.05503004 0.015812097 -0.050158147 0.0969157 -0.07054492 -0.083631106
-0.032284144 0.04028571 0.04701335 0.0989255 -0.0052134353 -0.012492215 -0.06819265 -0.0044049807
0.06759322 -0.026270524 -0.017192824 0.10493784 -0.044853706 0.09040812 -0.078509435 0.015976854
0.044785272 -0.012015482 0.033126432 0.043169215 0.032346863 -0.032218736 0.13202864 0.064039566
-0.074353024 -0.04420474 -0.066774204 0.051170763 0.11117167 0.05879334 -0.022439629 -0.050208848
-0.12822503 0.019023813 -0.091415636 -0.01411314 0.045366954 0.011615599 0.044144373 -0.040250316
0.070427224 -0.11501992 -0.091092415 0.05997589 -0.02861712 0.01257904 0.07932189 0.047495108
-0.013108953 0.007007035 0.0490553 -0.10120862 0.011452489 0.07096513 0.030366823 0.021474324
-0.029252402 0.08144928 -0.024545606 0.03711903 -0.0045558875 0.015762469 -0.021859119 0.070320256
0.03478624 -0.0047476273 -0.01206965 -0.0684041 -0.009132112 -0.0071417326 0.06790049 -0.05327885
-0.02300136 0.012193812 -0.09231327 -0.017527945 0.0034740658 -0.02226303 0.09392103 0.0042190333
-0.12272096 -0.03618617 -0.021863768 -0.008860482 0.052545454 -0.03510066 -0.046532374 0.018841168
-0.0028862397 0.061378993 -0.020601721 -0.07186125 0.0391291 0.04527496 0.060940463 -0.039043173
0.02580741 -0.07903294 -0.06279023 -0.00022922295 -0.0500904 -0.037281062 0.00619676 -0.03210285
-0.0627297 0.03346472 0.0289916 0.029692804 -0.0691145 0.08183737 0.09625624 0.10028625
0.005397625 -0.031147594 0.06361903 0.05528201 -0.040641837 -0.008433142 0.038161274 0.027212812
0.004328599 0.106714405 -0.015038275 0.07744047 0.030381408 -0.0353293 0.041400116 -0.03031451
-0.007318027 -0.05444942 -0.010608748 0.03030566 -0.04608817 -0.0023560533 0.006689117 -0.0016367247
-0.047486868 -0.024167214 -0.06548808 -0.06126002 0.09018338 0.10423452 -0.05401305 -0.13262022
-0.103794836 0.06338896 0.05535535 0.08068301 -0.061608225 -0.00212926 0.045648653 0.028986173
-0.018103614 -0.02224799 -0.0059839822 0.10801002 -0.006849491 0.043728173 0.015374219 -0.011051743
0.06558115 -0.030903002 0.07749174 0.0036621988 -0.030869795 0.042598307 -0.13899353 0.12544653
0.028691487 0.07151424 0.013280902 0.07339613 -0.098263904 -0.058042265 -0.012232318 -0.0012525388
0.006348065 -0.013026148 -0.027407086 0.0115782395 0.0454306 -0.054691676 0.060335 0.0015425307
-0.048369814 0.03681703 -0.024470929 -0.087638155 0.089966446 0.0007801198 -0.016891582 0.1265229
-0.10304605 0.058836643 0.092129126 -0.043575197 0.064596355 0.10872855 -0.043301824 0.006385214
0.03687947 0.010184879 -0.006677782 -0.00091762515 0.15756807 -0.053505223 -0.0531692 -0.011277461
0.10572803 0.020136112 -0.014965824 0.029936042 0.039948944 0.17161646 -0.046894595 0.03399389
0.031524565 -0.023733443 -0.06915794 0.009865049 -0.0665334 -0.13140413 0.07964656 0.146909
-0.12450165 -0.02597618 0.034492012 0.039832603 0.026884437 0.046803217 0.045353554 -0.04108257
-0.057817843 -0.08850201 -0.042109054 0.025609175 0.05689399 -0.019188948 -0.10073651 0.06019379
-0.052484207 -0.038703 -0.116056524 0.06089679 -0.044051457 -0.032522716 0.030972062 0.11754329

layers.0.fc.bias f4 [200]
00000000: eeb7 02bd 8e2b 833d 40fa 353d ec03 1cbc
00000010: 6840 8f3d be4a b3bc 38f6 013d 1a87 623b
00000020: e495 503d fb16 b03b 9002 143d 660c f63b
00000030: e1af 10bd 0f34 993c 9beb a43c ab05 923d
00000040: 93a4 5b3d 12bf 94bc 31ff ca3c 3efe ff3c
00000050: a377 543d 3762 89bc b05d bbbc fab3 5f3c
00000060: 3d08 333d 28cb 0a3d a547 b93b 7c63 5d3c
00000070: 9c42 2fbd abfa 933c 3816 7f3d dead e9ba
00000080: 1957 2ebd c645 75bc b17f c93c 23bd 07bd
00000090: c142 8bbc 31a5 27bd 137c 813d e661 193c
000000a0: 553d 7f3d 059b 52bd 5df9 f6bb 4a94 15bd
000000b0: 5f4e 213d 088e 4d3d d91a dcbc a894 b5bc
000000c0: 8070 413d 1b76 143d c24d e23c 77fa 913d
000000d0: dbe6 88bb c337 b13d 942f 113d 04ae 01b8
000000e0: 27ca 733d dee2 fa3c abe8 233d 06b2 193d
000000f0: 5a65 5abc c396 0bbd f6b8 aabc 10ff 223c
00000100: 097a fb3c ccdf 04bd 6f16 5e3d 1be1 903d
00000110: aa75 743d 49a9 b6bc 9949 873c 4fb7 0dbd
00000120: cb88 243d 8877 e939 9b0e e93c 979e 2ebd
00000130: 081f 02bd 52d4 28bd 113a 02bd 97c8 9ebb
00000140: 9e63 1cbd 5b19 c43d c91a 7ebd b750 b93c
00000150: ab5d 8cbd a5a3 593c 8c60 233d 4310 1f3c
00000160: 370c 7c3c 3987 db3c 89e6 a8b9 2a21 223d
00000170: e3d7 cfbc 673a 003d 999d 833d 399f bc3c
00000180: 1319 81bd da37 afbb a937 93bc db33 9cbc
00000190: d3df 0e3d 712b 353d 05ae 103d f5af dcbb
000001a0: 204b 303d da41 653d 60e4 a63c 01ca d23c
000001b0: 358d 23bd 87da 3a3d 3d7e 86bd e044 00bc
000001c0: 673e c53c 2478 4b3d d2b4 01bd 4ef9 503c
000001d0: 1a69 dfbc 351d 153c 7cd2 14bd 8f7e 843d
000001e0: a9b1 053d 7f31 933d 7db5 3b3c abff ad3d
000001f0: faac 953b 9ef6 463c 4143 7f3d 5cd5 7a3d
00000200: 6670 4d3d a77b 333d 63ef 763d 93bb 2a3d
00000210: 782f 13bd 403e 7c3d f443 17bc a554 853d
00000220: a2f2 8c3c 0701 a2bd d70b a6bd b804 91bd
00000230: 88fc 03bd 4351 36bd da10 07bd 3c26 57bc
00000240: 9d2c 9c3d 752e cbba 81b9 0a3d 6f5b 4ebd
00000250: 5b41 31bd 1a3a 6ebc 042c 86bc eb5c 3bbc
00000260: aa81 283c dfac 1c3c b564 e03c eb71 37bd
00000270: 6018 3fbd 2254 883d b65f 3d3d 7c79 333d
00000280: 4ef0 babb 7a5f 48bd 0dab 6abb 623c 9a3d
00000290: 258c 7b3d e4f4 bb3d 3629 72bc 2ab8 1d3d
000002a0: 2a60 013c d978 983d 08d8 3b3d a4d2 b1bc
000002b0: fe14 313d d2da 8239 316e eabc c973 06bd
000002c0: fc1a 4d3b 5ddd ae39 ad8e a0bc 6756 65bd
000002d0: 96c5 8dbc dc21 cfbc fe93 023d e380 54bb
000002e0: 3e5e 923d 44a9 813d 8721 3bbd ca3a 8bbb
000002f0: 4810 3abd 0649 2c3d 9353 ad3c 7c6e 16bc
00000300: 4b4e 9c3b ad26 11bc 1962 923c f5ff f6bc
00000310: b9ee 243d cced 6d3d 1432 bc3c 6129 32bd
-0.03191369 0.06404792 0.04442811 -0.009522419 0.069947064 -0.021886226 0.031728953 0.003456539
0.050924197 0.0053738332 0.036135256 0.007508802 -0.03532398 0.018701581 0.020131877 0.07129987
0.053623747 -0.018157516 0.024779888 0.031249162 0.051871907 -0.016770465 -0.022871822 0.01365375
0.04370903 0.03388515 0.0056542926 0.013512488 -0.042788133 0.018063864 0.06227705 -0.0017828306
-0.04256353 -0.014970249 0.02459702 -0.03313936 -0.016999604 -0.040929023 0.063224934 0.00936172
0.06231435 -0.05141737 -0.0075370506 -0.036518373 0.03938138 0.05018428 -0.02686827 -0.022165611
0.04722643 0.036245447 0.027624968 0.071278505 -0.0041779107 0.08653214 0.035445765 -3.091806e-05
0.05951896 0.030625757 0.04001681 0.037523292 -0.013329828 -0.034079324 -0.02084015 0.009948507
0.03069784 -0.03243999 0.054220613 0.070741855 0.059682526 -0.022297518 0.016514586 -0.034598645
0.04016952 0.0004453028 0.028449347 -0.04263171 -0.031767875 -0.04121811 -0.031793658 -0.0048456895
-0.03818094 0.09575149 -0.062037263 0.022621496 -0.06853803 0.013283645 0.039886996 0.009708467
0.015383772 0.026797878 -0.0003221522 0.03958241 -0.025371497 0.031305697 0.06426544 0.023025142
-0.06303611 -0.005347234 -0.017970877 -0.019067695 0.034881424 0.044230882 0.035322208 -0.006734843
0.043040395 0.055971004 0.02037257 0.025731089 -0.039929587 0.04561856 -0.06567047 -0.007828921
0.024077607 0.049675122 -0.031666584 0.012754751 -0.027271796 0.009101202 -0.036333546 0.06469452
0.032640133 0.07187175 0.011456844 0.084960304 0.0045677396 0.012143759 0.062319998 0.06123863
0.05015602 0.043819096 0.06028689 0.04168279 -0.03593394 0.061582804 -0.00923251 0.06510285
0.01720554 -0.07910352 -0.08107727 -0.07080978 -0.032223254 -0.04451109 -0.032975055 -0.013131674
0.07625697 -0.0015501516 0.033868317 -0.050380167 -0.04327522 -0.01454022 -0.01637841 -0.011435728
0.010284821 0.0095627 0.02739177 -0.044786375 -0.046654105 0.06656672 0.046233855 0.04381703
-0.005704916 -0.04891918 -0.003580752 0.07531048 0.06141295 0.091775686 -0.014780333 0.03850571
0.007896462 0.07444925 0.04586032 -0.021706887 0.04323291 0.00024958566 -0.028616996 -0.032825265
0.0031296602 0.00033352795 -0.019599283 -0.055990603 -0.01730613 -0.0252847 0.031879418 -0.0032425455
0.071468815 0.06331113 -0.04568627 -0.0042489516 -0.045425683 0.042061828 0.021158015 -0.009181615
0.0047700754 -0.008859319 0.017869042 -0.030151347 0.040266726 0.05808811 0.022973098 -0.043496493

out_cat.weight f4 [3, 200]
00000000: 10bf bdbd fce6 28bd 8473 26be 50da f8bd
00000010: cb10 a33d ca30 103d f930 b3bb c24b 203d
00000020: 51c6 08bd 3a45 f8bd a51b 513c 5862 8c3c
00000030: d1d4 c0bc bcbb ebbb fc41 d93c e851 0b3e
00000040: cfd5 ac3d e255 643d eba7 0fbe 039c 153d
00000050: 7991 52bd ec64 64bd 4dc8 903d 2272 503d
00000060: 68c6 f9bd cb79 893c 9c95 293c 080d dcbd
00000070: 5050 ddbd 32a4 a93a 2ee9 edbc 14d1 29bd
00000080: 0291 d83d 522a e23d d74e e1bd ea47 d53d
00000090: 5180 df3d b256 30bd e7be b9bd 56f6 b0bc
000000a0: 82ff 193d 8847 5b3d be6e 13be 3c8e 1abe
000000b0: c281 c63d 0fde 533d 191b febd 35fa 003d
000000c0: 063b ffbd d06f 033e a519 cb3d 7d28 4cbd
000000d0: aa9b d9bc 1502 e7bd 9a38 06bd c74b 893d
000000e0: 5a44 f4bb 280f 983d b74b b8bd ba62 efbd
000000f0: 7d9c 09be 9515 713d acaa c8ba 3b56 e0bd
00000100: 8f76 de3b 2587 ac3d 3f0f 97bd 4755 21be
00000110: 4880 723d 09da abbc 5f43 bbbc 73de 00be
00000120: e387 babd fdc8 79bb 258e 8bbd 81a0 4a3d
00000130: c548 b63c b01e e4bc c98e 0abe c53d bebd
00000140: e4cd 603d 2e3c 0ebe 4d9a 013e 8bbd 1abd
00000150: b812 203d fdad 5e3d 42e5 8a3d aa7a 33bd
00000160: 7aaf f4bd dad6 6e3d 7af5 94bd 18b9 57bd
00000170: 051f ddbd b9f5 d33d 6a3e ae3c a48f 81bd
00000180: c438 953c 72ae f0bd c4b7 393c 25d8 d43d
00000190: 7210 05be 6608 603d 1c01 613d dabe ecbd
000001a0: 4e43 0cbe 6cb7 e43d 1202 31bd b3b9 22be
000001b0: 351a bcbc 7ac2 34bd d4e1 bdbd efd6 ebbd
000001c0: 99d4 d83d ecdd 3cbd cc2c f9bd 6ad8 823d
000001d0: 563f 9b3d 4039 20bd d7aa aa3d 2c3e 363d
000001e0: 57c8 0a3e c662 40bc fb55 2fbe 24a6 bfbd
000001f0: f446 e9bd 70e0 c03d 1e3e 1d3e 4724 f9bd
00000200: 810e a4bd fae7 dfbc f1cf 233d 6013 bebb
00000210: 69b6 9ebc 2596 b13c b401 1ebe 5cc7 aebd
00000220: 5eab 09be 0406 303d 4f0a f53c ce40 b33d
00000230: b3e3 5d3d cec0 873d b670 a0bd b6bd f43c
00000240: 23b7 21be abf1 08be cefa cc3d 2d4b a4bd
00000250: e3a2 0e3c ce3f 05be 34cb cdbb 3b21 b2bc
00000260: 26e2 7e3d fead 9abd e275 96bd 454a dfbd
00000270: 7fcd 38bd e263 e6bd 266b 4abd 1f3f 003d
00000280: a7fc 0e3d 5e69 623d f6e2 513d 5e39 093d
00000290: 9f56 ec3c 9fd2 9cbd f4ae 053d d716 cebb
000002a0: 8f3c 31bd 14dc a23d b966 17be f241 543d
000002b0: 406c bd3d 4dbc f3bd 396d 53bb 45f4 1d3d
000002c0: f577 14be 651a fc3c aec3 a2bd 58b7 39bd
000002d0: b8f0 493d 65f1 d33d 7e02 96bd 7d49 143c
000002e0: 091f d9bc bf11 19be 45ab 263c 67cc e4bc
000002f0: 3196 a83d b68d ca3d 24da 0abe 4790 a9bd
00000300: a3c9 603c 01ba c5bd 3568 92bd 1d01 983d
00000310: 92b7 f7bd af89 c03d e04f 393d b57b da3c
00000320: cc6a 45bd 1803 e6bd 1325 0ebe e101 9c3d
00000330: 8f48 1ebe 34c1 09be db1c b1bc bd11 7b3b
00000340: 88a9 f6bd e1bb 6bbd d32a 3c3c a14f 8abd
00000350: 051d 943d ba74 e23d 2497 403d 2d69 65bd
00000360: 452d 20be 8451 c13c 174c 9e3d f56d f0bc
00000370: cffa 8f3d d1c4 10bd b0d9 f1bd 7953 c7bc
00000380: 6c0f 1dbe bd26 3c3d b7a8 dd3c dc73 36be
00000390: 41a3 f73c af13 efbd f8b3 d93d 3946 4bbc
000003a0: 113f 06be 97aa 2cbe 8c1c 943d db16 b6bd
000003b0: 13ed aebd 1e0b 81bd 25c4 00be 2c44 a1bd
000003c0: 8dc5 9e3c 602f ff3c a009 6d3d e6b5 cbbc
000003d0: 1882 c23c 02b7 073d f7cf ab3d 1caf e7bd
000003e0: 039f d0bd a759 d3bd a5e1 94bd 528f 643d
000003f0: 3fcb 8f3d 4fa7 913d c068 3fbe 9273 cfbd
-0.09264958 -0.04123591 -0.16255003 -0.12151015 0.079621874 0.03520278 -0.0054684845 0.03913475
-0.033392254 -0.12122579 0.012762939 0.017136738 -0.023538979 -0.0071940105 0.026520722 0.13605464
0.08439218 0.055745967 -0.140289 0.036525737 -0.051408265 -0.05576031 0.07069454 0.050890096
-0.12196046 0.016781708 0.010350611 -0.10744673 -0.10806334 0.0012942611 -0.029041853 -0.041459158
0.10574533 0.11043228 -0.11001366 0.10414107 0.10913146 -0.04305143 -0.09069615 -0.021601837
0.037597187 0.053535014 -0.14397714 -0.1509332 0.09692718 0.051725443 -0.12407512 0.031488616
-0.1246243 0.12835622 0.09917001 -0.0498433 -0.026563484 -0.11279694 -0.032768823 0.067039065
-0.007454437 0.07424766 -0.089988165 -0.116887525 -0.13438602 0.058858473 -0.0015309653 -0.10953947
0.0067890356 0.08424214 -0.07375955 -0.15755187 0.05920437 -0.02097799 -0.022859273 -0.12584858
-0.091079496 -0.0038114183 -0.06814221 0.049469475 0.022251496 -0.027846664 -0.1353103 -0.09289125
0.054883853 -0.13890144 0.12656517 -0.03777842 0.03908035 0.054365147 0.06782009 -0.043818153
-0.11947532 0.058310367 -0.072733834 -0.052666754 -0.10796932 0.10349602 0.021269996 -0.063262254
0.018215545 -0.11752023 0.011335317 0.10392789 -0.12994555 0.05469551 0.0549327 -0.115598395
-0.1369755 0.111677974 -0.043214865 -0.15891151 -0.022961715 -0.04413078 -0.09271589 -0.11515605
0.10587425 -0.04611008 -0.121667475 0.06388934 0.0758044 -0.039117098 0.08333366 0.044492885
0.13552986 -0.011742299 -0.17122643 -0.09357861 -0.11390486 0.09417808 0.15355727 -0.121651225
-0.08010579 -0.027332295 0.03999323 -0.0058006495 -0.01937409 0.02167804 -0.15430337 -0.085341185
-0.13444278 0.042974487 0.029912142 0.08752595 0.05417223 0.066285715 -0.07833998 0.029875617
-0.15792517 -0.13373439 0.10008775 -0.08022151 0.008705827 -0.13012621 -0.006280327 -0.021744361
0.06222739 -0.075527176 -0.07346703 -0.10902838 -0.04511785 -0.1124952 -0.04941859 0.031310197
0.034908917 0.055276267 0.051241837 0.033501975 0.028849898 -0.0765736 0.03263755 -0.006289344
-0.043270644 0.07952133 -0.1478528 0.051820703 0.09249163 -0.1190115 -0.0032261147 0.03856303
-0.14498885 0.030774305 -0.07947479 -0.045340866 0.049301833 0.10348777 -0.07324694 0.009050724
-0.026504057 -0.14948176 0.01017267 -0.027929498 0.08231772 0.098903105 -0.13559777 -0.08279472
0.013719949 -0.09654618 -0.07148782 0.07422087 -0.1209556 0.09401261 0.04524219 0.026670316
-0.048197553 -0.11231059 -0.1388133 0.07617546 -0.15457366 -0.13452607 -0.021620205 0.0038310133
-0.12044054 -0.057552222 0.011484819 -0.06753469 0.072320975 0.1105742 0.04701914 -0.056008507
-0.15642269 0.02359844 0.07729357 -0.029349307 0.0703026 -0.03534395 -0.11809099 -0.024331795
-0.15337914 0.04593538 0.027057989 -0.17817634 0.030229213 -0.11673676 0.106300294 -0.012406879
-0.13109995 -0.1686195 0.072320074 -0.08891078 -0.08541312 -0.063009486 -0.12574823 -0.07874331
0.019381309 0.03115052 0.057870507 -0.02486701 0.023743674 0.033133514 0.083892755 -0.11312696
-0.10186579 -0.10319834 -0.07269601 0.055800743 0.07021188 0.0711199 -0.18692303 -0.10129465

out_cat.bias f4 [3]
00000000: 7d17 a6bd 9ef2 a83c beb2 8a3c
-0.08109949 0.020623501 0.016930934
