models/ncls3-dex100/scenario4_epoch16.pt (torch, 890475 bytes, 6 tensors)

inp.fc.weight f4 [400, 49]
00000000: 5001 593d f4a7 84bd ee7c c8bd 379c 3abc
00000010: aff9 89bd b289 47be dade d0bc 4aef bcbd
00000020: 7eea 10be ec53 91bd 3955 d63d d6b4 923d
00000030: 57ab 11be f2f0 fabc 8202 71bd e738 0cbd
00000040: bfff 033e df18 66bd 688d ddbd ba3a 31bd
00000050: 76c2 7a3d 2aba 8b3d b121 143e a583 86bd
00000060: e436 08bd c2f6 2a3e 676a 6bbd e7b9 2f3d
00000070: cd3c ee3d d3bf 93bd 67cb 44be f060 94bd
00000080: fafb 9ebc 6cc1 f13c cc0b d6bd 6e32 0bbe
00000090: fcb7 75bd 4ebe 20be bc9c 033e 9500 543d
000000a0: f9a4 0b3c cedd 10be 9aee 67bd e3fe 043d
000000b0: 1697 e83d 2c40 f2bd 1bc1 b63d ebac 6c3d
000000c0: 8483 2bbe 7ea6 eabd e01c 79bd 9d8d 04be
000000d0: 420a a63d 7e66 c6bc b3d0 b63d 6834 8cbd
000000e0: 13a9 7e3d 4c1f e8bd 0809 8e3d cdbc 0d3d
000000f0: 0ebb cbbd c53e 993d 7118 913b ba86 e3bd
00000100: d901 92bd 8bea adba dd1b 7a3c bb34 2b3e
00000110: 6e36 1abd 689e 1dbe 343b aa3d 23a9 473d
00000120: 8305 f7bd 8f51 acbd d9ff 953d 3e0b 39bd
00000130: c176 02bd ce26 1c3e 2c49 963d 0ca6 aebc
00000140: 4d45 b13d 1baa 723c 7f82 a43c d7c3 ea3d
00000150: f1e5 b5bd 6e70 95bd 5588 bbbd 8638 153c
00000160: 764c 7b3d 08ae b6bd d042 9a3c 0745 51bd
00000170: 2097 b83d e2f3 8d3d ceb0 dbbd 9490 d3bd
00000180: 1c52 a53d 082a b1bb b626 fe3d 697b 043e
00000190: 16ef e83d 5911 bd3c a0c3 9dbd d208 a7bd
000001a0: 199a 8bbd 8bc8 78bd 0edb 91bd 6c19 033e
000001b0: a5a4 193e 9fcf 40bd 1e42 453e a116 2ebd
000001c0: f168 473d eb0c e43d a73d adbd 5087 12bd
000001d0: ac97 66bd 786a b8bc 3c44 ed3c 0939 5dbc
000001e0: 5de1 743d c8ec c73d 8bf0 15bd 916c 05be
000001f0: 8730 debd 1702 90bd b2eb c7bd 334a 69bc
00000200: e355 df3d 3f25 5f3b a9e8 9fbc 11e3 0bbe
00000210: 3a27 fdbd 7cd2 da3d e8a3 c9bd 9397 0f3d
00000220: b786 1ebd 82a5 86bd f5b8 80bd 61a8 473d
00000230: 98f0 d13d 1d9b 3b3d e7e4 1dbe f608 2e3e
00000240: af66 afbd 9c4f 5b3d 5d9d b6bd a3c6 1cbe
00000250: 2dfc eb3c 755c c6bc c89e dbbd b0ce cdba
00000260: d999 643d 0b59 91bd c794 373e f175 9b3c
00000270: 8ca6 de3c 60b3 85bc 05e0 7e3d 3e7c 233e
00000280: 4f48 2e3e c6f8 74bd be4d 013b 1102 a5bd
00000290: 4e00 e33c 0182 97bb 96c9 b7bd fe35 0abc
000002a0: dbda 1d3e 5c96 3abd 2bc2 1ebe ca0c 633c
000002b0: a361 ebbd 952e e13d ce7f 0abd ce45 68bc
000002c0: 88bb 67bd 39a9 84bd 251e 2d3e f40f 443d
000002d0: 9c9d 06be e074 903c 1acf df3c a430 c33d
000002e0: d677 063e 86fd 323d e018 093e 71d4 ee3d
000002f0: c41e 963c 4ecd 553d 581f d5bd 7f5d 0a3e
00000300: f480 683d dd51 d3bb bb80 1fbe 8ea3 043d
00000310: 2008 1dbe e9bb 10be 706a a93d dc7c 19bb
00000320: 5a2e 03be 4224 033e e1b8 063e fa6a 25bd
00000330: cdf3 793c c7b9 043e 70e4 913d 2699 37bb
00000340: 6e99 7e3d a383 a0bd cd36 0b3c 3231 fabc
00000350: dc5f 013d 5dd8 f1bc 05c1 203d fa46 cd3a
00000360: e48f 783d fb19 343e 2df5 cabb 0c24 f33d
00000370: c4c3 5d3d bbf4 823b bfff d2bc 7314 3cbd
00000380: 3546 0bbe 0843 073d 6616 483d 060a c1ba
00000390: 2323 35bd 34ae 0c3e b4fc 733d ab3f e5bd
000003a0: 99e0 89bd 7b92 d1bb 89a0 7ebd 1e3e 37be
000003b0: 9bbb 02bc 1022 30be 21f3 bf3d c9dc 673d
000003c0: ffc1 2d3d e6f0 073e 014f a53d 75a0 0c3e
000003d0: 59c8 bdbd 6d44 09be be01 963d 05bb 173d
000003e0: f937 823a 414e bb3c 2383 a73d 2a5d debd
000003f0: e0bd 753d 9638 943d 83c3 943d 303e 27be
0.052979767 -0.06477347 -0.097894534 -0.011389784 -0.067370765 -0.1948612 -0.025496889 -0.09225328
-0.14151952 -0.07096085 0.10465474 0.07163398 -0.14225517 -0.03063247 -0.058840282 -0.034233954
0.12890528 -0.056176063 -0.10817987 -0.043268897 0.06122061 0.06822617 0.14465977 -0.06568078
-0.033255473 0.16695693 -0.05747452 0.0429019 0.116326906 -0.07214322 -0.19218217 -0.07245052
-0.019407261 0.029511176 -0.10451469 -0.13593456 -0.059989914 -0.15697595 0.12852758 0.051758368
0.008523219 -0.14147112 -0.056624033 0.03246964 0.11356942 -0.11828646 0.08923551 0.057782095
-0.16749388 -0.11457537 -0.060818553 -0.12944646 0.08107425 -0.024218794 0.08926525 -0.06845933
0.06217296 -0.113340944 0.06935316 0.034603883 -0.09947787 0.074826755 0.0044279625 -0.111096814
-0.07129259 -0.0013268752 0.015265432 0.16719334 -0.037649564 -0.15392458 0.08312073 0.048745286
-0.12061598 -0.084139936 0.0732419 -0.045176737 -0.031851534 0.15249178 0.07338175 -0.021319412
0.08655796 0.014811064 0.020081757 0.11463135 -0.088817485 -0.07296835 -0.09156863 0.0091077145
0.061352216 -0.089199126 0.018830687 -0.05109122 0.090132 0.069312826 -0.10727082 -0.103303105
0.08072302 -0.005406622 0.12409727 0.12937702 0.11373727 0.023079561 -0.07703328 -0.08155979
-0.06816501 -0.060738128 -0.071218595 0.12802666 0.15004213 -0.047073003 0.19263503 -0.04250205
0.048684064 0.111352764 -0.08459025 -0.035773575 -0.05629699 -0.022511706 0.0289632 -0.013502368
0.059785236 0.09761959 -0.036606353 -0.13029696 -0.108490996 -0.070316486 -0.09761752 -0.014238882
0.109050535 0.00340493 -0.01952012 -0.13660838 -0.123609975 0.10684678 -0.09845716 0.03505666
-0.038702693 -0.06574537 -0.06285278 0.048744563 0.10250968 0.045802224 -0.1541935 0.16995606
-0.08564507 0.05354272 -0.089167334 -0.15310149 0.02880677 -0.024214009 -0.107236445 -0.0015701856
0.055810783 -0.07097062 0.17927848 0.018977137 0.027179025 -0.016320884 0.06222536 0.15965363
0.17019771 -0.05980756 0.0019730176 -0.08057035 0.027710106 -0.004623652 -0.08973996 -0.008435724
0.15415518 -0.04555355 -0.15503757 0.01385803 -0.11493232 0.10995213 -0.03381329 -0.014176799
-0.056575328 -0.06477589 0.1690603 0.047866777 -0.1314606 0.017633855 0.027320433 0.09530762
0.13131651 0.04369881 0.13388395 0.11661614 0.018325217 0.052197747 -0.10406369 0.13512228
0.056763604 -0.006448968 -0.1557645 0.03238254 -0.1533513 -0.14134182 0.082722545 -0.002342037
-0.1281065 0.128068 0.13156463 -0.040385224 0.015255881 0.12961493 0.07123649 -0.0028014868
0.06215804 -0.07837608 0.008496952 -0.030541036 0.03158556 -0.029522115 0.039246578 0.0015661411
0.0606841 0.17588036 -0.006193778 0.1187211 0.054141775 0.0039964593 -0.025756715 -0.04591794
-0.13601 0.03302291 0.048849486 -0.0014727719 -0.044222962 0.13738328 0.05956717 -0.11193784
-0.06732292 -0.0063956357 -0.062164817 -0.1789479 -0.007979299 -0.17200494 0.09372545 0.05660704
0.042421337 0.13275489 0.080717094 0.13733084 -0.09266729 -0.13405009 0.07324551 0.03704359
0.0009934894 0.022864463 0.08179309 -0.108576134 0.059995532 0.072373554 0.072638534 -0.16332316

inp.fc.bias f4 [400]
00000000: c670 8fbb f936 ae3d 5d9c 1b3d f768 f9bd
00000010: a310 d23d a68b ad3d cb71 babd f04b 403d
00000020: 53ef c13d be5c 113c be4d 163b 8b40 36be
00000030: b5b4 f6bd 407c c53d a4f0 39bd 76af 15be
00000040: b70a a6bd 1337 833d 7c1a 8e3d c9b3 e4bd
00000050: 431f f2b9 c08d 063e ed71 00be 76ee 0ebb
00000060: 5573 1bbd 8883 ad3d 09f9 06be 7ba4 113d
00000070: a815 b8bd 158d b23d 3c82 d83c 92cb 06bc
00000080: dd5b b43c b38f e7bd 9db3 b53d 1d6e d53d
00000090: bd66 a63d 27fe 2cbd 0b1e ffbd 19da 5f3d
000000a0: f8b2 22be ab09 13bd b995 f13c 926d 67bd
000000b0: c0c3 2ebe 1e07 ca3c f148 e63d 8015 c1bd
000000c0: f8ea 5d3d 691e 9cbd 344f 7abb 4d6f d6bd
000000d0: b5a4 4a3c 0b22 3ebd bcc5 9ebd acb4 883d
000000e0: 17da 0fbe 328f 703b ff2c 1abe b28d 1fbe
000000f0: 835c 823d 9db6 9c3d 20ac b03c 2f6e ed3d
00000100: cc40 bf3c 261d f3bd cd4e e6bd 7e66 2f3d
00000110: 7185 bdbd ba42 923d ae74 da3d 2f76 063b
00000120: a152 873d e4dd 03be f5f1 2e3d 9e78 303d
00000130: fee6 57bd 66be f2bd 79e6 13bd 139e 563d
00000140: e241 dfbc 2eb1 59bc 5b67 19bd b4eb bfbd
00000150: 0683 eebd 994a e9bd 9af6 8d3d 2951 d8bd
00000160: 2697 4a3d 763c c83c c83f bfbb 41e7 de3d
00000170: 1b7d ec3c b855 cc3d 74b0 45bd c9bf 68bd
00000180: 7b44 c23d f9bd 643c 7faa 9c3d e5bc 6fbd
00000190: e462 67bd 5ede 63bd dc88 4cbc b55a 41bc
000001a0: 2014 c4bd b39c debd 2fca c53d da66 bb3d
000001b0: 428b f2bd 8d52 88bd d5cf 053d 1a34 8fbd
000001c0: 3370 93bd 571f 003e 9053 bdbb dab1 30be
000001d0: f4b1 063d 490b c7bd 1be5 a9bd f9b9 943d
000001e0: 23c6 8a3c 744a a3bd f619 f2bc b010 823d
000001f0: ff86 e23c 73ad 98bd d824 abbd e1ee aebd
00000200: 2f1a b73c 843f a2bd 8cdf d43c a6b3 acbd
00000210: 226c d3bc a7c4 d73c 7a02 af3c 6008 0ebe
00000220: f846 a2bd b346 513d ce62 f4bd d083 a3bc
00000230: 5002 b8bd 2d78 a7bd a9a9 1f3d adaf 95bd
00000240: 1a3a c9bc e17d 903c 6726 b43d 7b7a 7fbd
00000250: dbcf a1bd 2193 dbbd 078c 533d e8d9 0a3e
00000260: 5a2e 82bd f2d7 07be b756 fc3c 34fa bebc
00000270: a288 f0bd 2290 edbd 8f09 bebd 37c8 1bbd
00000280: cb5f b63d b7f0 4b3d d9a7 f7bd 23ab f4bd
00000290: a580 fabb 8e91 80bd 11a6 a6bd 465d d2bd
000002a0: 975f 173e 5c79 523d e344 913b f2ce c6bd
000002b0: 2767 5f3d 2df2 03be f1b7 ddbd f482 abbd
000002c0: a69b e53c f981 09be d67f a83d dc66 d23c
000002d0: e08f 973d 02ff 9abd 55f9 b4bc 1279 05bd
000002e0: 4c41 c0bd f9a1 2c3a 3127 16bd 700f d0bb
000002f0: 8928 0c3d 41a2 20be b636 4a3c 9024 edbd
00000300: 7623 903d 6a1d e03d 9115 17be 09b9 af3d
00000310: 2d96 13be 83a1 803d b8c1 dabd 327f 743c
00000320: b0be cb3d dbc2 debc 4c31 94bc 78f5 2dbe
00000330: ee75 743d 364f 20bd eddd 89bc 5fec 843d
00000340: 4f27 8abd cf62 fbbd be05 cfbd 186d 4a3d
00000350: 7a8a 453d fb87 773d 9e55 63bd c343 5c3d
00000360: a54a cdbd 7e8e 8dbd 81fb 8dbd a244 f03d
00000370: 7b22 fabc 5e16 6c3b 569d aabc d049 4d3d
00000380: f048 a43d 5671 29bd 1918 893d c4d5 27bb
00000390: 4f15 fdbd ebcf 6e3a 12fb 67bd 2906 03be
000003a0: b9c4 95bd b546 ad3d 3e5e 6abb 2646 893c
000003b0: b773 8abd 1662 893d f087 0d3d aa2d 04be
000003c0: e99c 813b 19fc c0bd bf26 03be 09b7 2bbd
000003d0: 1861 2fbb 81d5 b2bd c121 fabd fb41 e83a
000003e0: 8df2 e73d d620 e5bc a7ab f5bd 6fe9 e4bd
000003f0: 77e2 873d 302c 09be f8a4 943d 4612 93bc
-0.0043774573 0.08506579 0.037990917 -0.121782236 0.102570795 0.084739015 -0.091037355 0.04694742
0.094694756 0.008872209 0.0022934522 -0.17798059 -0.12046186 0.096428394 -0.04539551 -0.14617714
-0.081075124 0.06406989 0.06938645 -0.11167104 -0.0004618113 0.13140011 -0.12543459 -0.0021809614
-0.037951786 0.08472353 -0.13180937 0.03555725 -0.089885056 0.087183155 0.026429288 -0.008227246
0.02201646 -0.11306705 0.08872149 0.10421393 0.081250645 -0.042234566 -0.12456902 0.054651354
-0.15888584 -0.035897892 0.029490339 -0.05650098 -0.1706686 0.024661597 0.11244381 -0.09427929
0.05417916 -0.07622988 -0.0038194181 -0.10470448 0.012368371 -0.046419185 -0.077525586 0.066750854
-0.14048038 0.0036706445 -0.15056227 -0.15581396 0.063653015 0.07652018 0.02156645 0.115932815
0.023346327 -0.11870794 -0.11245499 0.042822354 -0.092539676 0.07141633 0.10666786 0.002051722
0.06607557 -0.12877613 0.042711217 0.04308378 -0.052710526 -0.11852722 -0.036108468 0.052396845
-0.027253095 -0.013286872 -0.037452083 -0.09371129 -0.116460845 -0.113911815 0.06931801 -0.10562355
0.049460553 0.024442893 -0.0058364607 0.10883952 0.028868249 0.09977287 -0.048263982 -0.056823526
0.09485718 0.013961309 0.07649707 -0.058529753 -0.056490794 -0.055631988 -0.012483802 -0.011801411
-0.09574151 -0.10869732 0.09657704 0.09150477 -0.118429676 -0.0665637 0.032668907 -0.069923595
-0.07199135 0.12511955 -0.0057777837 -0.17255345 0.032884553 -0.09718949 -0.082956515 0.07262034
0.016940182 -0.07973185 -0.029553395 0.06350839 0.027652262 -0.07454958 -0.08356637 -0.08541656
0.022351352 -0.07922271 0.025985502 -0.08432703 -0.025808398 0.026338888 0.021363486 -0.13870382
-0.079236925 0.051092815 -0.11932908 -0.019960314 -0.08984816 -0.081772186 0.03898016 -0.07308898
-0.024563838 0.017638149 0.08796387 -0.062372666 -0.079009734 -0.10721422 0.051647212 0.13559687
-0.06356497 -0.1326597 0.030803068 -0.023312666 -0.11744811 -0.11599757 -0.09279167 -0.038032737
0.0890499 0.04979011 -0.12092561 -0.11946704 -0.00764473 -0.06277762 -0.081371434 -0.10271697
0.14782558 0.05138527 0.0044332608 -0.097074404 0.054541733 -0.12885351 -0.108261 -0.08374587
0.02802832 -0.13428487 0.08227508 0.025683813 0.07400489 -0.0756817 -0.022091547 -0.032586165
-0.093874544 0.0006585415 -0.03665847 -0.0063494965 0.034218345 -0.15686895 0.012342146 -0.11579239
0.07038014 0.1094311 -0.1475432 0.085802145 -0.14412756 0.06280806 -0.1068148 0.014922904
0.0994848 -0.027192524 -0.018089913 -0.1698817 0.05968278 -0.03913804 -0.016829455 0.06490397
-0.06745779 -0.122747056 -0.10108517 0.049420446 0.048227765 0.060432415 -0.055501573 0.05377556
-0.10024003 -0.06911944 -0.06932736 0.11731841 -0.03053402 0.0036024074 -0.020826977 0.05011922
0.08021724 -0.04136785 0.066940494 -0.0025609592 -0.1235758 0.00091099617 -0.056635924 -0.12795319
-0.073129125 0.08460752 -0.003576174 0.016757082 -0.06760352 0.067081615 0.03455347 -0.12908044
0.0039554727 -0.09423084 -0.12807749 -0.041922603 -0.0026760753 -0.08732129 -0.12213469 0.0017719859
0.1132556 -0.027969759 -0.11995631 -0.111773364 0.066349916 -0.13395762 0.07258028 -0.01795305

layers.0.fc.weight f4 [500, 400]
00000000: 54f4 643c 0625 89bd 6428 ea3c 13e3 6dbd
00000010: f87e ac3b 2ffd 0d3c 0290 1ebd e9b5 14bd
00000020: ecf6 30bd 5b45 9fbc 9281 59bd 0f43 3dbd
00000030: 0c86 e03c c05d 2dbc 62e8 7ebd 51fd 8a3b
00000040: 3d07 b2bc 421c 0c3c 600c e1bc ea10 89bc
00000050: 68f9 34bd 8134 81bd 3e0e 7cbc a07a 4dbd
00000060: 252f 803b 72de afbc 7a02 0cbc 5ea0 06bd
00000070: 9f85 54bd e504 09bd 3bbb 79bd b030 e73a
00000080: 4253 1bbd 1fdc 14bd 62ce 533b 6f27 283c
00000090: 67a4 4dbd f533 46bd 65b0 7cbd a69b 52bd
000000a0: 52cd 47bd c071 48bd 2ad8 61bd d872 f93a
000000b0: f070 8c3c bb6c 54bd d9d8 803c 9c5c f43c
000000c0: 0a80 8ebc 4916 08bd a57f 79bd da34 783c
000000d0: f793 c83b e44e cfbc 3dde b3bb 0abe bd3c
000000e0: 9579 e4bb 1167 f33c a7cf 163c b688 30bd
000000f0: cf4a 32bc 6a37 c83a 3af4 3c3d aefb 263c
00000100: 73e9 24bd 827c 2f3d fe34 9a3c 9b5b dcba
00000110: 1cf8 3ebc 604a 35bd 8ee9 a93c d3db 5ebd
00000120: 9b70 8dbc e9e9 853c 4be5 083c 145f 70bd
00000130: cf55 11bd f201 03bd 57b7 e5bc d52f bebb
00000140: 2137 023b 064a 2bbd e308 7bbb 6a17 7ebc
00000150: c6e9 85bc d9c4 52bd a789 be3c c803 09bd
00000160: 8b2e 62bd 9101 60bb 7ee1 68bd a450 2ebc
00000170: e01b 8c3c 53b7 c73c ddf7 38bc fd4a e13c
00000180: f75b 8aba 6481 3dbd 081e 51bd 0af1 a73c
00000190: 4ad8 08bd e67f 55bc fe89 483c 587f 053d
000001a0: 6783 533c 9e66 0cbd 28ea 12bd 387b 24bd
000001b0: 7a0d 703c 3164 52bd 0c29 2b3c b71f 803c
000001c0: dfe6 80bc 7543 44bd 5b11 e73c af6c 13bd
000001d0: db9d 51bd ef5d 0bbd ef6c 11bd fe59 e33c
000001e0: 1cc1 85bd 94b7 b8bc 6c2b d2bc 2d7f 01bc
000001f0: 7ed1 41bd 20eb 64bd ddf7 c03c 8073 093c
00000200: c791 4cbd fc0d ed3c f806 b1bc e0bf 1dbd
00000210: 9181 63bb a281 e3bc 43ba d03c bda5 cf3c
00000220: 5df2 89bd 163d d0bc a884 fabc d0a9 debc
00000230: 5bdb 9e3c cace be3c 800b 5dbd 49a2 983a
00000240: e51d deb9 978a fe3c 8df1 c1bc b329 af3c
00000250: 8d88 9bbc be5f 2cbd 8571 d9bb 3077 94bc
00000260: dcd0 263d 6251 31bc 68dd 253c 37ac e7bc
00000270: 7e95 883c bcd0 0b3d 2907 a43c 39d8 4fbd
00000280: c8ee 87bd 60be b23c a76c 79bd ef4e d5bc
00000290: 0214 40bd 1cae ae3c 373f aebc a093 b23c
000002a0: f116 e4bb 41e0 3f3d ca8e d63c 4bfe 3cbd
000002b0: e878 9239 85c2 f23c d387 d33c 8630 a03c
000002c0: 20c0 72bd 7454 4dbd 8ce1 53bd 492d dd3c
000002d0: 5f1e f1bb 7485 b93c e272 0bbd c8ce 873b
000002e0: 6635 edba 42b3 cebc 02bd a33c 652a 9bbb
000002f0: c4a7 8f3c 7001 46bd ee61 cd3c d50b 23b9
00000300: b582 debc a0ba e53c 851a 33bb d77e 73bc
00000310: 342b 9a3c 70eb cf3c d1e5 f03c 6440 6fbc
00000320: 39fb c23c 0d45 dd3c f458 a7ba 7438 15bd
00000330: 432a 3abd d3b1 17bd cc0c 3d3c 3b4d 8fbc
00000340: 7d25 2b3c aac0 86bd c65c 13bd 1580 8e3c
00000350: cad2 9cbc bee7 23ba cdd0 57bd 537b be3c
00000360: 3baa 0a3d 6f61 7b3c c426 85bd 1e88 82bc
00000370: b0a6 913c 71f7 a33c 9991 7abd ce9d 6dbd
00000380: d860 0ebd 97f6 46bd 1792 33bd 2f17 23bc
00000390: 682b 893b 5ec6 08bd 632a 60bd 4c2b 2f3d
000003a0: 857d 31bd 3338 98bc 33e0 2bbd c917 ca3b
000003b0: 03fc 18bc 178d 8abc 6f04 95b9 72f9 b7bc
000003c0: f72b 95bb e773 873a 5c4b 02bd 7b31 a83b
000003d0: 05cb e53b c42b c73c 6332 8abd d61a 143c
000003e0: ff9d 59bd ff1a 78bd daf7 35bd 2ece 7cbd
000003f0: 6a47 5cbd ec74 16bc 54e7 4c3c fc8b 963b
0.013974268 -0.06696515 0.028583713 -0.058077883 0.0052641593 0.008666321 -0.038711555 -0.036306296
-0.043204233 -0.019442251 -0.053102084 -0.04620653 0.027407669 -0.010581434 -0.062233336 0.0042416235
-0.021731967 0.008551659 -0.027471721 -0.016731698 -0.044183165 -0.063088425 -0.015384255 -0.050165772
0.00391187 -0.021468375 -0.008545512 -0.03286778 -0.051885244 -0.033451933 -0.060969573 0.0017638411
-0.037921198 -0.036342736 0.0032319059 0.010263308 -0.050205614 -0.048389394 -0.06169166 -0.05141797
-0.048779793 -0.048936605 -0.05513779 0.0019031418 0.017143697 -0.051861506 0.015728401 0.029829316
-0.017395038 -0.033224378 -0.060912747 0.01514932 0.0061211544 -0.025306173 -0.0054891394 0.023161907
-0.0069725015 0.029712232 0.009204782 -0.043099128 -0.010882094 0.0015275304 0.04613135 0.010191841
-0.040261697 0.04284335 0.018824097 -0.0016811969 -0.011655834 -0.044260383 0.02074125 -0.05440886
-0.017265609 0.016346889 0.008355449 -0.058684424 -0.035482224 -0.031984277 -0.028041525 -0.005804042
0.0019869285 -0.04181864 -0.0038304857 -0.015508512 -0.016346823 -0.05145726 0.023258997 -0.03345087
-0.055220168 -0.003418062 -0.05685567 -0.010639343 0.017103136 0.024379408 -0.011289564 0.027501578
-0.0010555972 -0.046265975 -0.05105403 0.020500679 -0.033409394 -0.013030982 0.012239931 0.032592148
0.012909747 -0.03427755 -0.03586784 -0.040156573 0.014651651 -0.05136508 0.010446798 0.015640123
-0.015735088 -0.047915895 0.028206518 -0.03599232 -0.051175933 -0.03402513 -0.035504278 0.027752873
-0.06530973 -0.022548474 -0.02565547 -0.007903856 -0.047318928 -0.055888295 0.02355569 0.008389354
-0.04994371 0.028937332 -0.021609768 -0.038513064 -0.0034714679 -0.027771775 0.025479442 0.025347585
-0.0673568 -0.025419753 -0.030580834 -0.027180582 0.019391706 0.023291964 -0.053966045 0.0011645044
-0.00042365413 0.031071944 -0.02367475 0.021382188 -0.01898601 -0.042083494 -0.006635847 -0.01812324
0.040726528 -0.010822626 0.010123588 -0.02828036 0.016672846 0.03413461 0.020022945 -0.050743315
-0.06637341 0.021819293 -0.060894635 -0.026038615 -0.04689408 0.021323256 -0.021270378 0.021798909
-0.0069607426 0.046844725 0.026191134 -0.04614095 0.00027937372 0.02963377 0.025821602 0.019554388
-0.059265256 -0.05012937 -0.05172877 0.026999133 -0.007358357 0.022646643 -0.034045108 0.0041445233
-0.0018097579 -0.025231961 0.019987587 -0.0047352784 0.017536052 -0.048341215 0.02507111 -0.00015549299
-0.027161935 0.028043091 -0.002732904 -0.014861784 0.018819429 0.02538082 0.02940646 -0.014602754
0.023801433 0.027010465 -0.0012767599 -0.03643079 -0.04545046 -0.03703482 0.011538696 -0.017492881
0.01044595 -0.065797165 -0.035977148 0.017395059 -0.01914348 -0.0006252489 -0.052689362 0.023252165
0.03385375 0.015343054 -0.065015346 -0.015934046 0.017779678 0.02001545 -0.06117401 -0.058011822
-0.034760326 -0.04857501 -0.043840494 -0.009954258 0.0041860826 -0.033392303 -0.054727923 0.0427659
-0.043332595 -0.018581485 -0.04196186 0.006167386 -0.009337428 -0.01691298 -0.00028422798 -0.022457812
-0.00455236 0.0010334224 -0.03181015 0.0051328517 0.007012727 0.024312861 -0.06747892 0.009039601
-0.053129192 -0.06057262 -0.044425823 -0.061720066 -0.053779043 -0.00918315 0.012506325 0.004594324

layers.0.fc.bias f4 [500]
00000000: 3d18 b53c 5fd1 033d 4acb 183d 3010 10bd
00000010: c3ed 89bc 17cd e5bc 32b8 4c3c 9776 debc
00000020: 112c 36bd 10d5 dd3c 4be6 373d 3318 a63a
00000030: 3546 84bd 8f23 493c 7c50 6bbc 0ffd 0fbd
00000040: cf72 9fbb 8639 90bb f312 22bd 3fa8 963c
00000050: 8107 fe3c d34c 223c 9136 bebc 36e7 e2bc
00000060: 52d2 093c f46a eabc 8eb1 21bc 3cf7 213d
00000070: fe22 1a3d 8e5c a43b 5f13 4d3d 43a2 f93c
00000080: 1453 d73c dd76 11bd fb5e f0bc 1268 81ba
00000090: f092 37bd 2a3f 3eba aebe 71bc 35b9 123d
000000a0: 80bf ae3c 8069 033d 551c 5fbd dc71 863c
000000b0: 17f8 233d 045a 4abd f757 133c ef87 45bd
000000c0: aea4 84bc 3573 d6bb 4e92 72bc 2be4 5d3c
000000d0: 249c 12bd aadc 2d3d 7a90 f03b 728f 143c
000000e0: 6f3e f83b 00d3 263b 488d d53b c74a 453d
000000f0: 02d7 69bc bec0 4f3d 2c30 ee3c fc21 36bd
00000100: 587d babc 224b 77bc 44b7 18bc 0367 f9bc
00000110: 2c07 b13c 38ca 163d 3a91 97bd ebff 6c3c
00000120: b40f 7e3c ef4e 15bc 671d 16bd 7a10 7c3b
00000130: 3e2e 15bd f6a6 81bd 2c8f 993d d2cd 733b
00000140: d451 9c3c d41d 653d 92dc 24bd 5fc0 99bc
00000150: 3e3e eab9 e4db fcbc f584 62bc df25 1d3b
00000160: 8b46 4cbd bee0 f23c 0b08 97bc 0953 d23c
00000170: 696a a3bc 491b 103c ce2a 80bd dcd0 173d
00000180: 5802 5ebd 7d23 01bc 9ceb 5a3c 9804 823d
00000190: 151a d3bb 9cda 083c 1215 12bc cb80 76bb
000001a0: d7ff 5a3b 6061 46bd 7f8e a83c 46f0 dfbc
000001b0: 8ceb 833c 80ea 37bd d744 73bc cf1e 393c
000001c0: 35c5 0a3c 7fed e73c 1f11 93bc 74c9 3f3c
000001d0: ce6c 0b3d 0571 a83c 6fe2 eebc 77b6 99bc
000001e0: 2c4b 93bc 3905 183d bc65 2abc b573 693b
000001f0: 4505 1abc b6fb 95bc 998f cebb 5be2 703d
00000200: 0ac0 333d 4e08 063d b249 25bd 66b9 1dbd
00000210: 6815 683b b13a 5c3d 167c 1a3d 8189 8bbc
00000220: 43a2 2ebd 7f88 ab3c 0afa 41bd 52ed 8d3c
00000230: c667 bdbb c62d 06bc 66c4 dcbc f8fa 3ebd
00000240: 262a ddbc 672a 1dbd 9d50 f2ba ced0 b1bb
00000250: 1b1a 833c 7f8f d13c feb6 eebc ebde 513c
00000260: 17df 25bd 391d 7a3c f4ee 193c 7c96 863d
00000270: 5780 4b3d 9eca 383d e9bf 7f3c bf2a 303d
00000280: 5151 77bc 4173 debc 6a93 1a3d 7058 a53c
00000290: 1802 513c ebf1 03bd 13de 053d 3d14 61bb
000002a0: e897 3abd 9947 8a3d 7b1b 41bd 9778 75bd
000002b0: 8b46 08bd 89cc 4abc d73b a4bc 0bc2 093d
000002c0: 5c93 d23c 0084 acbc 5da3 103c da19 c9bc
000002d0: 166d 40bd e4b8 163c add9 013d 7423 e9bb
000002e0: 7057 8d3c f7c8 58bc c383 6cbd 5ce4 d13a
000002f0: b123 c0bc d76a afbb a4cb 7bbc a76b 913b
00000300: 18dd 053c 64ed dd3c 9760 1fbd bfd9 66bc
00000310: a867 41bc ceb6 cf3c 4b2b 313d 379a 32bd
00000320: bc2b 5b39 6de3 073d 2f2d f53c 4904 e83b
00000330: 6033 3c3b 7e0e f3bc 7363 553c a7fb b03c
00000340: 5eb5 8cbd 585e 4a3d 2de8 4dbd 65af af3c
00000350: 4a97 2abd f80d a83c ee1e 34bd 3d4f 04bd
00000360: 16c9 cf3c 7061 3fbd a10f 123d 3f61 ea3c
00000370: 22b1 563d bc1f 4c3d 38d1 553c f00b 13bc
00000380: 86bd 69bd 7079 8ebc c7d8 74bb 55a3 233d
00000390: 3e17 563c 46bf 12bc 5932 10bd 1db8 0e3c
000003a0: 649c 48bc a383 293d 0db9 aa3c 6f4e c8bb
000003b0: 2409 393d d6b2 103d f314 37bc f754 d5bc
000003c0: c5b9 d63a fb02 29bd 0a31 40bd b713 21bc
000003d0: bcb7 1b3d ed97 463c 0d8d 4e3d 7e37 cebc
000003e0: 13d4 43bd 0f5a ef3b cd36 56bd dede 7cbd
000003f0: 0951 7cbb 3741 23bc 3bc5 9d3c 149c 8abc
0.022106284 0.032182094 0.037303247 -0.035171688 -0.016837006 -0.028051896 0.012495087 -0.027156157
-0.04447562 0.027079135 0.04489736 0.0012672007 -0.064587034 0.012276544 -0.014362451 -0.035153445
-0.004865981 -0.0044013886 -0.039568853 0.018390773 0.031009438 0.009906012 -0.023219379 -0.02769814
0.008411961 -0.028615452 -0.0098689925 0.03954242 0.037631027 0.005015916 0.0500673 0.03047288
0.026284732 -0.035513747 -0.029342165 -0.0009872934 -0.044817865 -0.0007257337 -0.014754934 0.03582116
0.021331549 0.032083035 -0.05447038 0.016411714 0.04003152 -0.04940225 0.00899314 -0.04822534
-0.016191807 -0.0065444955 -0.01480539 0.013543169 -0.03579344 0.04244677 0.0073414417 0.009067403
0.007575802 0.0025455356 0.006517086 0.048167016 -0.014272453 0.050720923 0.029075705 -0.044466004
-0.022764847 -0.015093597 -0.009321038 -0.030444628 0.021609865 0.036813945 -0.07400747 0.0144653125
0.015506674 -0.0091130575 -0.036649134 0.003846197 -0.036421053 -0.063306734 0.07498011 0.0037201536
0.019081987 0.05593665 -0.040249415 -0.018768487 -0.00044678332 -0.03086657 -0.013825645 0.0023978872
-0.049871963 0.029648181 -0.018436452 0.02567436 -0.019948201 0.008795568 -0.06258164 0.03706442
-0.054201454 -0.007881996 0.013361838 0.063485324 -0.006442318 0.008352902 -0.008916156 -0.0037613388
0.0033416653 -0.048432708 0.02057576 -0.027336251 0.016103528 -0.04490137 -0.014847956 0.011298849
0.008469869 0.02831149 -0.0179525 0.011705745 0.03403931 0.020561704 -0.029160706 -0.018763764
-0.01798018 0.037114356 -0.010400232 0.0035621945 -0.00940067 -0.018308502 -0.0063037393 0.05880962
0.043884315 0.032722764 -0.040353484 -0.038506888 0.003541315 0.05376691 0.037715994 -0.01703334
-0.042635214 0.02093911 -0.047357596 0.017325077 -0.005780193 -0.008189624 -0.026949119 -0.04662606
-0.026997637 -0.038370516 -0.0018487159 -0.005426503 0.016003659 0.02558112 -0.029139992 0.012809495
-0.04049596 0.015265756 0.00939535 0.06571671 0.04968294 0.045115106 0.01560972 0.043009516
-0.015095071 -0.027154567 0.03773824 0.020183772 0.012756847 -0.032213133 0.03268249 -0.0034344338
-0.045555025 0.067519374 -0.047145348 -0.059929457 -0.0332704 -0.012377867 -0.020048065 0.03363232
0.025705032 -0.021059036 0.008828011 -0.02454846 -0.046979032 0.009199355 0.031701732 -0.007114822
0.017253608 -0.0132315075 -0.057742845 0.0016013491 -0.023454519 -0.0053533125 -0.015368376 0.004437882
0.008170389 0.027090736 -0.038910475 -0.014090001 -0.011804499 0.025355723 0.043254178 -0.043604102
0.0002090176 0.033175875 0.029928772 0.007080589 0.0028717145 -0.029669996 0.013024199 0.021604372
-0.068705305 0.04940638 -0.05027025 0.02144594 -0.041648187 0.020514473 -0.04397481 -0.03230213
0.02536444 -0.046723783 0.035659436 0.028610824 0.05241502 0.04983495 0.01305037 -0.008975014
-0.05706551 -0.01739189 -0.0037360655 0.039950687 0.013067065 -0.008956736 -0.035204265 0.008710888
-0.012244318 0.041385304 0.020840192 -0.0061128656 0.045174733 0.0353268 -0.011174428 -0.026041491
0.0016382268 -0.041262608 -0.046921767 -0.009831361 0.03801702 0.012121183 0.050427485 -0.025172945
-0.04780967 0.007304437 -0.052298356 -0.06173598 -0.003850045 -0.009964279 0.019259086 -0.016920127

out_cat.weight f4 [3, 500]
00000000: 2dda e13c be7a 82bd 47e4 0fbd a4f0 9d3d
00000010: 06ff 22bd 3828 b73c 05ff 2c3d 17b1 b9bb
00000020: 600a 593c cd83 7e3d 8a44 8abd e535 b03b
00000030: 3cc8 073c ea40 30bd 29a0 7ebc b563 02bd
00000040: 5728 f7bc 3e13 52bd 9a1f 43bc ec19 293d
00000050: 0110 dd3c 8519 95bd 3f3a 66bd 1bdb 49bc
00000060: 3321 e2bc 809c f83c f6e7 79bc e7e2 f6bc
00000070: 391e 1dbc 42eb 40bd fb0d abbd a2a9 633d
00000080: fb6a 3cbd a22f 943c 75b9 64bd fdc3 0a3d
00000090: 8894 5d3c 5741 293d 9e5c 86bd c044 22bd
000000a0: c794 973c 2c9f 65bd a03b 19bc 14eb fa3c
000000b0: 3110 0abd 46e6 3fbc b157 68bc 4c48 18bc
000000c0: 1127 65bc c21d 9f3c 539a 483c baf2 a9bc
000000d0: 9a38 5cbd 343d 223b 5987 9dbd 2747 55bd
000000e0: 2140 7cbc e0e2 953c f2d9 713d 17ef 703c
000000f0: dc76 53bd 3946 3fbd 55dc 91bd 7cf5 8bbb
00000100: e8ba b5bc 8e7e 1ebc 5f34 b9bd a504 a43c
00000110: afb8 b6bc 518b 07bc 9329 0b3d 334d ac3b
00000120: 5de7 103d 9c96 363b 3af1 68bd 1ca4 a5bd
00000130: 8688 39bd 23dd f83b cc43 a93d c3a9 04bd
00000140: 7fcf c0bc a7d6 7fbb 3d5e 5ebd a892 1d3d
00000150: 8402 46bd 0bb5 d53b f976 563d 192e a43c
00000160: 8ba9 18bd 9804 abbd 613b 0a3d 25b7 93bd
00000170: cfe1 eebb c63e cf3b e366 adbb a9a4 f33c
00000180: 2384 043d da08 15bd 6321 813c c23e 313d
00000190: 017d 58bd fad6 22bd 11d0 a7bb 3df6 013d
000001a0: 6d13 ec3a 2315 56bd 173d 073d 86b6 8bbd
000001b0: 3943 513d cb56 15bd c94f d2ba cb9f 9e3c
000001c0: 8f84 3e3c 696e 8bbc 3959 433d ba5c a0bc
000001d0: bac2 f43c 7f09 9bbd f1e6 073d 24e3 5ebd
000001e0: 5976 0f3d aff2 4abb 3eec 77bc 5e98 5bbd
000001f0: c784 45bd 668d a7bc 6073 5ebc 3eb3 acbd
00000200: 33ab cabd b246 8dbd 85d3 c03c d4fa 7b3d
00000210: b1ed 6fbd 4809 18bc b35a 02bd 42cb eabc
00000220: c3a4 0cbd f02b b73c 9757 2cbd 21ed ed3c
00000230: 843f 553d 4ccb 913d 39df 3abc f344 d33c
00000240: 2af2 e6bb b75a a1bd 0cf4 c3bc ca10 70bc
00000250: af45 973d a593 30bd d637 79bd b3ae 363c
00000260: 5124 413d 89da 27bd 03e1 48bc 35e0 09bd
00000270: ac0a eb3c aad9 cebc 7541 4ebd 548d 62bd
00000280: c63b 9d3c 6ddf 383d ffdc 1ebd 2bad 0f3d
00000290: 64f5 4cbc 5bd9 103d 2f1e 83bd 974c 5fbd
000002a0: a416 493d 2759 6fbd 0837 df3c df82 3c3c
000002b0: fec0 90ba 539f de3c d936 2cbd 9214 c6bb
000002c0: 17d0 203d 1d21 733c dee6 40bc 0d97 3abd
000002d0: c14f 14bd 93cd 1fbd 5611 183d b5bd 4bbd
000002e0: 6924 183d 318b f33c a585 893c 98ae d2bc
000002f0: ff23 29bd 8d83 20bc a6b1 6a3d f29a 6dbc
00000300: de97 74bd 1599 b2bd ad7e afbb 6b2e d13d
00000310: 91c1 453d b00a 3bbc cdc7 a8bd 419c 75bd
00000320: 56ec abbd 417a 753d 97df 2b3d b431 96bd
00000330: 4e25 a8bd d52d 15bd 2807 02bd 49c2 a1bd
00000340: eb97 563d c64d 533d 8dab 09bd 86e5 8fbc
00000350: e3fe 59bc 5524 dbbc f231 2f3d b286 523c
00000360: 1a48 3dbd 0d0d 9f3d 60e4 82bd 7411 32bd
00000370: ecd8 95bd 42f0 adbd 6fe2 083d 5536 63bd
00000380: 5832 793c 5c67 e83b e5fd b43a 0bab 99bd
00000390: 424a 9fbd 313a 603c c115 ea3c e71f 30bd
000003a0: 8902 e13c 0538 59bb e269 313d 0a97 76bc
000003b0: 108b be3c a671 683d 7a5d 03bd 66f2 533d
000003c0: eab4 cdb9 7669 30bd c265 393c 7aa3 733d
000003d0: ab0a 65bd e2e0 20bc 531c 803d a98b 0f3d
000003e0: 742e 04bd 64da cebc db46 3b3d 7ef6 9e3c
000003f0: 3a59 50bb 7fe0 743c a2a3 803c 96dd 30bc
0.027569855 -0.063710675 -0.03512981 0.07711914 -0.03979399 0.022358045 0.042235393 -0.0056668627
0.0132471025 0.062137414 -0.06751354 0.0053775185 0.008287486 -0.043030657 -0.015541115 -0.03183337
-0.030170603 -0.051287882 -0.01190939 0.041284487 0.02698517 -0.07280258 -0.05620789 -0.012320305
-0.027603721 0.030348063 -0.015253058 -0.030137492 -0.009589725 -0.04709936 -0.08352276 0.055581696
-0.046000462 0.01808912 -0.055840928 0.033878315 0.013524182 0.04132208 -0.06560634 -0.039616346
0.01850356 -0.05606 -0.009352595 0.030629672 -0.033706848 -0.011712616 -0.0141810635 -0.009294581
-0.013986365 0.01942337 0.012243825 -0.020745624 -0.053764917 0.0024755718 -0.07691831 -0.05206981
-0.015396149 0.018296659 0.05904574 0.014705441 -0.051627025 -0.04669783 -0.07122103 -0.0042712074
-0.02218385 -0.009673728 -0.09043192 0.020021746 -0.02230486 -0.008272962 0.033975195 0.0052582263
0.035376895 0.0027860766 -0.056870677 -0.08087942 -0.045296215 0.007594721 0.08264884 -0.03238846
-0.023536442 -0.0039037855 -0.05428909 0.03846994 -0.048342243 0.006521826 0.052359555 0.020041512
-0.037271064 -0.083504856 0.033748034 -0.072126664 -0.007290102 0.006324622 -0.005291806 0.029741602
0.032352578 -0.036385395 0.01576299 0.04327274 -0.052853588 -0.0397558 -0.005121239 0.03172897
0.001801116 -0.05226625 0.033017244 -0.06821923 0.0510895 -0.036459725 -0.0016045506 0.019363305
0.011628284 -0.017020421 0.04769251 -0.019575465 0.02987801 -0.075701706 0.033179227 -0.054415837
0.035024974 -0.0030967405 -0.015132008 -0.053612106 -0.04822233 -0.020453166 -0.013577312 -0.08432625
-0.09895935 -0.0689825 0.02353836 0.061518505 -0.05857629 -0.009279557 -0.03182478 -0.028661374
-0.034336817 0.022359818 -0.04207572 0.029043736 0.052062526 0.07118854 -0.0114057595 0.025789713
-0.007047911 -0.078786306 -0.023920082 -0.01465244 0.07386338 -0.043109555 -0.060844265 0.01115005
0.047153775 -0.040979896 -0.012260678 -0.033661086 0.028691612 -0.025250275 -0.050355393 -0.055310562
0.019193541 0.04513495 -0.038784977 0.035077255 -0.012509678 0.035363536 -0.064022414 -0.0545164
0.049093857 -0.05843463 0.02724792 0.0115058115 -0.0011043844 0.027175581 -0.042044494 -0.0060449326
0.03926095 0.014839438 -0.011773793 -0.04555421 -0.03620887 -0.03901441 0.037125908 -0.049741466
0.0371441 0.029729458 0.01678736 -0.025718018 -0.041294094 -0.009796989 0.057298325 -0.014502274
-0.059715144 -0.08720604 -0.005355677 0.10213932 0.048280302 -0.011416122 -0.08241234 -0.05996347
-0.08394687 0.059931044 0.04196128 -0.07333699 -0.0821024 -0.036420662 -0.031745106 -0.07898385
0.052390974 0.051587842 -0.03361087 -0.0175655 -0.013305399 -0.026750723 0.04277224 0.012849497
-0.04621134 0.07766161 -0.06391215 -0.043473676 -0.07316765 -0.08493091 0.03341907 -0.055471737
0.015209757 0.0070923995 0.0013808577 -0.07503327 -0.077778354 0.013685749 0.028574826 -0.042999174
0.02746703 -0.0033144963 0.04331387 -0.015050659 0.02325967 0.05674901 -0.032071568 0.05174484
-0.00039235438 -0.043069325 0.011315765 0.059482075 -0.055918377 -0.009819241 0.062554024 0.0350453
-0.032270864 -0.025250621 0.04572187 0.019404646 -0.0031791464 0.014946102 0.015703026 -0.010795018

out_cat.bias f4 [3]
00000000: b384 59bd 9680 b9bb 7e37 083c
-0.053105067 -0.0056610806 0.008314012
