models/ncls3-dex100/scenario2_epoch114.pt (torch, 287211 bytes, 6 tensors)

inp.fc.weight f4 [200, 49]
-0.17370756 0.22528154 0.15222001 0.05091109 -0.12887146 0.26472697 0.01593402 0.03763368
-0.23503043 -0.104521595 0.3119965 0.23273186 -0.036768507 -0.031099902 -0.13530895 0.22769402
0.2765002 0.0963612 -0.01569988 -0.04700655 0.12504457 0.21608898 0.28184715 -0.13917463
-0.14968823 0.3016157 -0.1440502 -0.09044301 0.29745662 -0.121752195 -0.24383458 0.2743138
0.1562392 0.6464971 -0.21936068 -0.5592999 0.030173931 0.004646828 -0.086697996 -0.14758965
-0.016027158 0.096599646 0.06323679 -0.28424713 0.14399275 0.028056053 0.020048179 -0.16113544
0.23739578 0.1877208 0.31823 -0.32425794 0.13855532 0.0094167525 0.08839568 -0.08549372
0.4195729 -0.12586068 0.21522254 0.1234983 0.113636486 -0.0010822885 0.05498267 0.6111159
-0.013219307 -0.21147528 0.012572326 -0.23072886 -0.08142011 0.12743667 -0.13992487 -0.121859856
-0.050287608 -0.029897675 0.085878134 0.13098578 -0.058654733 -0.27519765 0.008044721 0.2709857
-0.0575969 0.077483416 -0.24265075 0.009175804 -0.121397346 0.00011173962 -0.17522886 0.14898472
-0.081038594 0.11013321 -0.109353945 0.15019144 0.15081888 0.27763623 0.10009497 -0.11828038
-0.2882409 -0.043923832 -0.057591368 0.010336979 -0.002146005 0.17726815 0.01934812 0.15588243
0.008503506 0.080386855 0.24243326 0.12389425 -0.05087139 0.23522417 0.07991852 0.20234573
0.044741027 -0.0069418587 -0.24949574 0.013443249 -0.3810918 0.18724036 0.055183895 0.23488775
0.23784652 -0.04479402 -0.21317801 0.08116261 0.003666454 -0.1764346 0.18824686 -0.16350834
0.053489085 0.024372451 -0.021087682 0.064706095 0.056078658 -0.09092492 0.09615499 -0.029564578
-0.0333998 -0.19459204 -0.06803104 0.18692659 0.13096185 0.0003962079 0.14741017 0.07015879
-0.19867927 -0.14627375 0.045983568 0.128923 -0.137294 -0.34500146 0.103161044 0.2120771
-0.15178059 0.0028843717 -0.27860737 0.081899405 -0.12241931 0.29655358 0.28598508 -0.23159759
-0.058653258 0.14808832 0.15698466 0.045251757 0.08102711 0.12946509 0.16995938 0.48264572
0.02980803 0.049312565 0.014506554 0.11453295 -0.06087613 0.04442382 0.62073076 -0.3842022
-0.10268392 0.14851478 0.04102765 0.061082345 0.013608419 0.17072561 0.19063745 0.061947778
0.09884543 0.13643615 0.09811642 0.029289834 -0.008674265 0.13208264 0.21088721 0.07911521
0.11137971 0.032349862 -0.047095925 0.07344162 -0.29443374 -0.32468107 -0.03712142 -0.095246404
-0.09669753 -0.014758535 -0.005449001 0.34894082 -0.40435433 0.029143691 -0.60105646 -0.11910018
0.25050342 0.041817695 -0.06301462 -0.10522426 -0.11937175 -0.25053298 -0.120663784 0.3063531
-0.22300449 0.037289914 -0.07791217 -0.14026935 0.0068698097 0.37111542 0.21212427 -0.37795803
-0.47158626 0.35226303 0.028440801 -0.0069889794 -0.18913278 0.012020774 0.063806266 -0.052785236
0.06316253 -0.22776297 0.27063385 -0.0015429377 0.20888554 -0.17827138 -0.07695477 0.2291432
0.023425706 -0.538275 0.10373218 0.142465 -0.0650026 0.15701185 0.19681147 0.07446748
-0.03945462 -0.1531608 -0.047521066 0.23129566 -0.20204042 0.020738134 0.18426615 0.12162327
00000000: 65e0 31be 34b0 663e 90df 1b3e 2688 503d
00000010: e1f6 03be 4b8a 873e 1088 823c c625 1a3d
00000020: d1ab 70be 6b0f d6bd 01be 9f3e 4351 6e3e
00000030: 939a 16bd 39c5 febc 6e8e 0abe 9f28 693e
00000040: 6f91 8d3e 0559 c53d 099d 80bc f189 40bd
00000050: af0b 003e 6e46 5d3e 454e 903e cb83 0ebe
00000060: df47 19be 5f6d 9a3e e581 13be 2f3a b9bd
00000070: 3c4c 983e 3759 f9bd c6af 79be dc72 8c3e
00000080: 2bfd 1f3e d580 253f 16a0 60be 472e 0fbf
00000090: 522f f73c 6b44 983b b88e b1bd be21 17be
000000a0: 634b 83bc 09d6 c53d 4a82 813d d788 91be
000000b0: d672 133e cfd5 e53c 143c a43c b000 25be
000000c0: e117 733e e239 403e 0bef a23e 2305 a6be
000000d0: 72e1 0d3e b948 1a3c cb08 b53d 5517 afbd
000000e0: 42d2 d63e 9fe1 00be 4c63 5c3e adec fc3d
000000f0: 3fba e83d 93db 8dba 8235 613d 1772 1c3f
00000100: cb95 58bc fa8c 58be 28fc 4d3c 3044 6cbe
00000110: 96bf a6bd c27e 023e 7748 0fbe a991 f9bd
00000120: 61fa 4dbd f8eb f4bc e0e0 af3d 2321 063e
00000130: f23f 70bd b5e6 8cbe 01ce 033c a3be 8a3e
00000140: baea 6bbd a0af 9e3d 7079 78be 1d56 163c
00000150: 2c9f f8bd c055 ea38 326f 33be 738f 183e
00000160: 90f7 a5bd 858d e13d f6f4 dfbd c9cb 193e
00000170: 4470 1a3e 5626 8e3e 97fe cc3d fc3c f2bd
00000180: 5094 93be 7ae9 33bd ede4 6bbd 6f5c 293c
00000190: fda3 0cbb c885 353e f37f 9e3c a59f 1f3e
000001a0: 4a52 0b3c dda1 a43d 6d40 783e 45bc fd3d
000001b0: 855e 50bd 9bde 703e 52ac a33d b833 4f3e
000001c0: 5e42 373d 8878 e3bb d07b 7fbe 1341 5c3c
000001d0: 771e c3be f0bb 3f3e 8208 623d 6a86 703e
000001e0: 0a8e 733e ef79 37bd 564b 5abe 9538 a63d
000001f0: e448 703b 46ab 34be c9c3 403e bb6e 27be
00000200: 5f17 5b3d bca8 c73c 13c0 acbc a184 843d
00000210: bcb2 653d d836 babd e8ec c43d 6a31 f2bc
00000220: 3bce 08bd 2343 47be dc53 8bbd af69 3f3e
00000230: dd1a 063e 20ba cf39 b1f2 163e 69af 8f3d
00000240: 9472 4bbe c9c8 15be 4459 3c3d 6404 043e
00000250: cc96 0cbe 08a4 b0be 1946 d33d bd2a 593e
00000260: 5f6c 1bbe ba07 3d3b a0a5 8ebe e0ba a73d
00000270: fab6 fabd dfd5 973e a36c 923e eb27 6dbe
00000280: 663e 70bd 77a4 173e 96c0 203e e859 393d
00000290: 8bf1 a53d 7f92 043e d509 2e3e 571d f73e
000002a0: f82f f43c f9fb 493d e6ac 6d3c 4090 ea3d
000002b0: 4059 79bd c0f5 353d 36e8 1e3f 27b6 c4be
000002c0: f24b d2bd 4214 183e 9c0c 283d 7b31 7a3d
000002d0: d9f5 5e3c b2d2 2e3e 7736 433e f4bc 7d3d
000002e0: 796f ca3d ebb5 0b3e 43f1 c83d 3cf1 ef3c
000002f0: 811e 0ebc ac40 073e d1f2 573e 2807 a23d
00000300: 0c1b e43d 4a81 043d a8e7 40bd 8f68 963d
00000310: 05c0 96be 993c a6be a10c 18bd 8c10 c3bd
00000320: 5b09 c6bd c8cd 71bc 898d b2bb 5fa8 b23e
00000330: 8807 cfbe c0be ee3c d6de 19bf ccea f3bd
00000340: fc41 803e 0849 2b3d cf0d 81bd d17f d7bd
00000350: 2d79 f4bd dc45 80be 931e f7bd 50da 9c3e
00000360: 4a5b 64be 4fbd 183d 6a90 9fbd c5a2 0fbe
00000370: 241c e13b d702 be3e 1b37 593e b783 c1be
00000380: c173 f1be d25b b43e affc e83c cf03 e5bb
00000390: 06ac 41be c8f2 443c dcac 823d 5535 58bd
000003a0: 5b5b 813d b23a 69be 8590 8a3e 663c caba
000003b0: 17e6 553e c68c 36be 769a 9dbd 84a4 6a3e
000003c0: 44e7 bf3c 64cc 09bf 8a71 d43d 58e2 113e
000003d0: 1520 85bd b7c7 203e f288 493e 6882 983d
000003e0: 2b9b 21bd 2fd6 1cbe 73a5 42bd c5d8 6c3e
000003f0: afe3 4ebe 05e3 a93c 44b0 3c3e 9f15 f93d

inp.fc.bias f4 [200]
-0.38012964 -0.35360387 -0.4384408 -0.52765036 -0.38850632 -0.6021901 -0.53330857 -0.412083
-0.24020767 -0.36345688 -0.48690677 -0.6576162 -0.62922156 -0.32209137 -0.4172947 -0.6504259
-0.40622643 -0.40164697 -0.1999212 -0.6561393 -0.4938614 -0.2724577 -0.5241474 -0.20112236
-0.29358107 -0.5228351 -0.3825133 -0.28461164 -0.2760843 -0.53835607 -0.3868832 -0.3197435
-0.39317906 -0.76918554 -0.3456634 -0.54003996 -0.37486905 -0.58413106 -0.14194413 -0.038307108
-0.697992 -0.45623612 -0.46863925 -0.45453843 -0.4937325 -0.49926567 -0.41332215 -0.7031481
-0.39326414 -0.32645643 -0.41429317 -0.5777241 -0.48997006 -0.4129391 -0.46454823 -0.323948
-0.25901872 -0.54335266 -0.31226793 -0.4935029 -0.6786199 -0.56855404 -0.53160447 -0.339434
-0.2716647 -0.5629119 -0.32494846 -0.49655774 -0.50819063 -0.37247807 -0.20528607 -0.4309913
-0.6938906 -0.5924493 -0.4074845 -0.24018148 -0.42594895 -0.30370158 -0.3966515 -0.40402234
-0.5302036 -0.41534945 -0.32416797 -0.7878749 -0.14447194 -0.19089054 -0.4042518 -0.7494652
-0.37288576 -0.5072127 -0.2774894 -0.36377007 -0.36584392 -0.07310351 -0.4394344 -0.7350095
-0.36474803 -0.46174216 -0.39149708 -0.43251806 -0.30033314 -0.45902637 -0.15444824 -0.5598892
-0.26092896 -0.6901557 -0.4564511 -0.36149707 -0.38810772 -0.38503602 -0.37669557 -0.42084122
-0.48194638 -0.47680932 -0.4698913 -0.36446413 -0.37232885 -0.52960426 -0.34973282 -0.23065276
-0.2040304 -0.35877636 -0.30574253 -0.16209914 -0.5170812 -0.23031291 -0.24798736 -0.31099787
-0.52022344 -0.57177126 -0.65283924 -0.40230688 -0.48129392 -0.51116675 -0.32871714 -0.28975275
-0.15572152 -0.53208363 -0.6563822 -0.37423596 -0.4255718 -0.44233975 -0.7129841 -0.51256526
-0.34078747 -0.2566056 -0.56199825 -0.47880086 -0.1395451 -0.6083947 -0.5049434 -0.60873735
-0.31822178 -0.49068552 -0.43462586 -0.41651443 -0.35814694 -0.2680757 -0.25407362 -0.3938505
-0.3231199 -0.59197086 -0.54649085 -0.49522242 -0.2845783 -0.3087061 -0.6314408 -0.4956285
-0.588256 -0.36593387 -0.26503202 -0.09881511 -0.48313445 -0.62949395 -0.46794128 -0.47322515
-0.3115894 -0.6550988 -0.4437264 -0.32235938 -0.5436958 -0.47975093 -0.2665804 -0.62838787
-0.3522483 -0.38828465 -0.4449701 -0.35304046 -0.4352377 -0.24622862 -0.26049435 -0.36217272
-0.36257803 -0.14841206 -0.34953338 -0.37261257 -0.33316037 -0.47325614 -0.44529533 -0.18741243
00000000: 5aa0 c2be 910b b5be 507b e0be 1814 07bf
00000010: 4dea c6be 2129 1abf e986 08bf 8bfc d2be
00000020: 00f9 75be 0517 babe d84b f9be 8959 28bf
00000030: aa14 21bf 29e9 a4be a7a7 d5be 5082 26bf
00000040: e9fc cfbe aca4 cdbe 25b8 4cbe bff8 27bf
00000050: 67db fcbe 937f 8bbe 862e 06bf 05f3 4dbe
00000060: 4250 96be 85d8 05bf c9d8 c3be 9eb8 91be
00000070: ec5a 8dbe b4d1 09bf 8e15 c6be 6cb5 a3be
00000080: c44e c9be 58e9 44bf cbfa b0be 0f40 0abf
00000090: d6ee bfbe 9d89 15bf cd59 11be eae7 1cbd
000000a0: 9baf 32bf c897 e9be 7cf1 efbe 43b9 e8be
000000b0: 82ca fcbe c09f ffbe f69e d3be 8401 34bf
000000c0: eb59 c9be 4c25 a7be 3c1e d4be bae5 13bf
000000d0: 5bdd fabe c16c d3be 44d9 edbe 83dc a5be
000000e0: 1a9e 84be 2919 0bbf 95e1 9fbe 69ac fcbe
000000f0: 09ba 2dbf c28c 11bf 3b17 08bf 4bca adbe
00000100: a317 8bbe ff1a 10bf a55f a6be d13c febe
00000110: c818 02bf 72b5 bebe 8336 52be e4aa dcbe
00000120: d0a2 31bf c2aa 17bf cfa1 d0be 22f2 75be
00000130: fb15 dabe c67e 9bbe e815 cbbe 04dc cebe
00000140: 6cbb 07bf afa8 d4be 58f9 a5be 2bb2 49bf
00000150: 74f0 13be cf78 43be 18fa cebe f4dc 3fbf
00000160: e2ea bebe b1d8 01bf 1713 8ebe 1240 babe
00000170: e54f bbbe 4bb7 95bd 8cfd e0be 9529 3cbf
00000180: 41c0 babe 7869 ecbe 4e72 c8be 0273 ddbe
00000190: 44c5 99be 8105 ebbe ae27 1ebe e654 0fbf
000001a0: 7b98 85be 0bae 30bf f5b3 e9be 2516 b9be
000001b0: 0eb6 c6be 7123 c5be 3ede c0be 8078 d7be
000001c0: adc1 f6be 5a20 f4be 9895 f0be 0b9b babe
000001d0: e3a1 bebe 2594 07bf 2e10 b3be 3d30 6cbe
000001e0: 58ed 50be 89b1 b7be 498a 9cbe 51fd 25be
000001f0: 6f5f 04bf 26d7 6bbe 66f0 7dbe 1d3b 9fbe
00000200: 5d2d 05bf 9a5f 12bf 7920 27bf 2bfb cdbe
00000210: 286c f6be d3db 02bf 9d4d a8be 795a 94be
00000220: 7675 1fbe a236 08bf aa08 28bf db9b bfbe
00000230: 8ce4 d9be 5b7a e2be 2086 36bf 7a37 03bf
00000240: b27b aebe cf61 83be 1edf 0fbf 6325 f5be
00000250: e9e4 0ebe c1bf 1bbf f843 01bf 36d6 1bbf
00000260: f7ed a2be 223b fbbe 4887 debe 6141 d5be
00000270: 095f b7be 3841 89be f015 82be c6a6 c9be
00000280: f96f a5be 678b 17bf d3e6 0bbf cb8d fdbe
00000290: 3fb4 91be ba0e 9ebe 1ba6 21bf 05c3 fdbe
000002a0: f297 16bf af5b bbbe 47b2 87be 945f cabd
000002b0: 665d f7be 8426 21bf 0096 efbe 914a f2be
000002c0: a588 9fbe 8eb4 27bf 1b30 e3be 4a0c a5be
000002d0: a62f 0bbf eaa1 f5be 3a7d 88be 07de 20bf
000002e0: e459 b4be 3fcd c6be 1fd3 e3be b8c1 b4be
000002f0: 7ad7 debe 5b23 7cbe 845f 85be b46e b9be
00000300: d4a3 b9be 55f9 17be 0af6 b2be 13c7 bebe
00000310: ff93 aabe a14e f2be c0fd e3be 0be9 3fbe

layers.0.fc.weight f4 [300, 200]
0.108941935 -0.21809152 0.030215072 -0.016217131 -0.19824003 -0.29360408 -0.026267828 0.23528427
-0.034162886 0.08867901 0.09387137 -0.19794497 -0.16192849 -0.08523753 -0.3918305 -0.008300686
-0.27269205 -0.039997246 -0.0111130215 0.24154866 -0.2984912 -0.042365238 0.09729416 0.033964083
-0.024875652 0.24486437 -0.18114541 0.098684035 0.4633678 -0.20706081 -0.13248466 0.20794983
0.045666825 0.111746304 0.09877595 0.2924688 -0.032677144 0.16079687 -0.16559505 -0.11963159
-0.11341906 0.068222225 -0.20175546 -0.13561794 0.1594239 0.008831986 -0.05904524 0.12693186
-0.29187518 -0.047139153 0.032552216 0.053651113 0.1760695 0.008516168 -0.017492427 -0.35007903
0.027587542 -0.057574578 -0.037180565 -0.1093961 0.016732978 0.022460861 -0.05972479 -0.06674138
-0.11033202 0.30604762 0.0021879214 -0.12788054 0.18204346 0.08599027 -0.1164491 0.072521746
-0.25006047 -0.1816249 0.06851804 -0.3029193 0.12337005 -0.16289015 0.09894563 -0.041448407
0.22198163 0.16480094 0.09429249 0.18012206 -0.056769628 -0.15481287 0.37395343 0.3973399
0.13923801 -0.06446635 -0.2863278 -0.08224101 -0.077789776 0.17950392 -0.115623295 0.3726662
0.00245242 -0.05712452 -0.16229117 -0.19039091 -0.54841286 0.22395797 -0.0061326656 -0.14013527
-0.04331489 -0.0665474 0.06299726 0.13904531 0.08866856 0.05225861 0.23148885 -0.16514184
0.03955161 0.086454876 -0.08104825 -0.10793016 -0.35862005 -0.10141211 0.20315044 0.07187535
-0.2679613 0.4913273 -0.2436686 -0.009663287 0.088811606 -0.20956482 -0.11177082 0.14458059
0.050165273 -0.20248625 -0.24204126 -0.23796795 0.15239806 -0.019173168 -0.2945322 0.14320806
0.10514157 0.13250855 0.1044546 -0.089449756 0.21320723 -0.12772724 0.17834632 -0.084749416
0.042136677 -0.054776266 -0.28324792 -0.06626497 0.11362717 -0.008779068 -0.016196333 -0.2170362
-0.13828841 0.01969926 0.14600465 0.17421296 0.06358677 -0.38340047 -0.16162963 0.3573553
0.014178027 -0.2686348 0.040049825 -0.050615363 -0.28403753 0.15480427 -0.09828208 -0.21936283
0.08056895 0.3117241 0.10556327 -0.24778281 0.01997991 -0.09386284 -0.2513401 -0.24512796
0.06420777 -0.28823435 -0.09010831 -0.103782855 -0.06228789 0.20987192 -0.15590852 0.073940575
-0.23415859 -0.10508341 0.10513042 0.049968164 0.3940434 -0.13482077 -0.17797154 0.11410514
0.1455744 -0.27573436 -0.1491589 0.050048564 -0.22182125 -0.11347637 -0.20260113 0.28059956
-0.16743593 0.28289902 -0.19940175 -0.2160911 -0.13830584 0.5024766 -0.0037130646 -0.14640665
0.20801738 -0.3115176 -0.012068761 0.12089221 -0.034070555 0.38443148 -0.20186524 0.04739116
-0.005647866 -0.0808704 0.07362261 -0.24575739 0.2573639 0.042818338 0.19676161 -0.19451648
-0.36906463 -0.09040137 -0.07871253 0.0035552178 -0.16151117 0.142116 -0.19772424 -0.07936918
-0.060611613 -0.40312284 0.05434455 -0.61016256 0.08944057 -0.12900966 -0.020299923 -0.045529045
0.20108707 0.15326904 -0.2095816 -0.14425986 0.057437565 0.06008347 0.1599862 -0.107184574
0.25393063 -0.028257933 -0.048511595 -0.17134275 -0.34541884 0.003433592 -0.14889225 -0.0014582011
00000000: f31c df3d 6253 5fbe 9985 f73c cad9 84bc
00000010: 6fff 4abe 4653 96be a12f d7bc 5cee 703e
00000020: 62ee 0bbd 579d b53d a23f c03d 16b2 4abe
00000030: 95d0 25be 0491 aebd 029e c8be 9aff 07bc
00000040: 4b9e 8bbe 27d4 23bd 6413 36bc 8858 773e
00000050: d7d3 98be 2c87 2dbd 2942 c73d ec1d 0b3d
00000060: 06c8 cbbc babd 7a3e 2f7e 39be db1a ca3d
00000070: 8b3e ed3e c007 54be 0faa 07be cdf0 543e
00000080: 230d 3b3d 3fdb e43d 0c4b ca3d 78be 953e
00000090: 78d8 05bd efa7 243e c091 29be 6801 f5bd
000000a0: 4148 e8bd 18b8 8b3d fc98 4ebe 6edf 0abe
000000b0: 0540 233e 09b4 103c 6cd9 71bd 6dfa 013e
000000c0: aa70 95be fc14 41bd 7955 053d 45c1 5b3d
000000d0: 904b 343e 6687 0b3c 474c 8fbc 8f3d b3be
000000e0: 45ff e13c 52d3 6bbd a64a 18bd 100b e0bd
000000f0: 9913 893c d7ff b73c fba1 74bd b4af 88bd
00000100: c1f5 e1bd 46b2 9c3e 3b63 0f3b 1ef3 02be
00000110: 9a69 3a3e ab1b b03d de7c eebd 4886 943d
00000120: ed07 80be e1fb 39be 3053 8c3d 3d18 9bbe
00000130: 70a9 fc3d adcc 26be 02a4 ca3d cec5 29bd
00000140: 274f 633e 94c1 283e 6c1c c13d eb71 383e
00000150: 4587 68bd 4487 1ebe d376 bf3e 2370 cb3e
00000160: 6994 0e3e ef06 84bd 8f99 92be fa6d a8bd
00000170: 3f50 9fbd e0cf 373e e8cb ecbd 1bce be3e
00000180: c8b8 203b 67fb 69bd a82f 26be d6f5 42be
00000190: c964 0cbf 3d55 653e 87f4 c8bb 9f7f 0fbe
000001a0: f46a 31bd 014a 88bd b504 813d e561 0e3e
000001b0: dd97 b53d 200d 563d 6a0b 6d3e f11a 29be
000001c0: de00 223d 410f b13d a0fc a5bd 7d0a ddbd
000001d0: 0c9d b7be 27b1 cfbd ab06 503e 6233 933d
000001e0: 3932 89be 408f fb3e 4384 79be c352 1ebc
000001f0: dce2 b53d 2998 56be 1ae8 e4bd ef0c 143e
00000200: 1a7a 4d3d 8e58 4fbe aad9 77be dfad 73be
00000210: 3d0e 1c3e 0c11 9dbc edcc 96be 22a5 123e
00000220: 7754 d73d 52b0 073e 4bec d53d 6f31 b7bd
00000230: ff52 5a3e eeca 02be 6ba0 363e 1a91 adbd
00000240: 8297 2c3d 145d 60bd df05 91be eeb5 87bd
00000250: 5db5 e83d 14d6 0fbc 2cae 84bc bd3e 5ebe
00000260: 7a9b 0dbe 5860 a13c 3e82 153e e264 323e
00000270: c839 823d 114d c4be 3d82 25be 46f7 b63e
00000280: f54a 683c 808a 89be 490b 243d 0e52 4fbd
00000290: 5e6d 91be 0385 1e3e 1d48 c9bd a6a0 60be
000002a0: 5501 a53d 4d9a 9f3e 8e31 d83d c7ba 7dbe
000002b0: e9ac a33c 293b c0bd a6af 80be d302 7bbe
000002c0: 5d7f 833d 7493 93be b58a b8bd 1b8c d4bd
000002d0: 9621 7fbd aae8 563e 7ca6 1fbe 286e 973d
000002e0: 45c7 6fbe f935 d7bd 9e4e d73d 6bab 4c3d
000002f0: 0ec0 c93e 750e 0abe 2c3e 36be f5af e93d
00000300: 7511 153e 0e2d 8dbe 1cbd 18be b9ff 4c3d
00000310: 1c25 63be 4d66 e8bd ac76 4fbe bfaa 8f3e
00000320: 5374 2bbe 24d8 903e f92f 4cbe fc46 5dbe
00000330: 0ca0 0dbe 4ea2 003f e356 73bb a0eb 15be
00000340: 8202 553e 3c7f 9fbe 0dbc 45bc 5696 f73d
00000350: 918d 0bbd 34d4 c43e c3b5 4ebe 3c1d 423d
00000360: bc11 b9bb 619f a5bd 73c7 963d d3a7 7bbe
00000370: 33c5 833e 4862 2f3d e07b 493e 542f 47be
00000380: 0af6 bcbe 5a24 b9bd 0934 a1bd a8fe 683b
00000390: 2f63 25be db86 113e 3978 4abe 4f8c a2bd
000003a0: e243 78bd 1e66 cebe 6498 5e3d 9d33 1cbf
000003b0: 9e2c b73d 1c1b 04be 064c a6bc aa7c 3abd
000003c0: c5e9 4d3e 8ff2 1c3e 8f9c 56be dbb8 13be
000003d0: a743 6b3d 161a 763d 6cd3 233e 9683 dbbd
000003e0: 3203 823e 2e7d e7bc 18b4 46bd 7974 2fbe
000003f0: bdda b0be 1d06 613b 3677 18be 1c21 bfba

layers.0.fc.bias f4 [300]
-0.08632292 -0.12323044 -0.07723104 -0.04740202 -0.207096 -0.07756801 0.092498854 -0.060473952
-0.20432891 -0.15892506 0.043761287 -0.2595066 -0.019461172 -0.14377536 -0.0535214 0.02477466
-0.21931836 -0.08045287 -0.24563369 -0.1166291 -0.006328058 -0.15689158 -0.07189724 -0.13414508
-0.18214624 -0.12384531 -0.05633189 -0.11647845 -0.119824015 -0.10387688 -0.19744995 -0.21042746
-0.1799142 -0.13693608 -0.29985857 -0.028473763 -0.038271178 -0.24433325 -0.05762324 -0.074558035
-0.11620554 -0.0030567753 -0.09335511 0.08957899 -0.0308177 -0.005441391 -0.095932536 -0.18021913
-0.058114283 -0.0058017937 0.016887382 -0.0066540344 0.018849015 -0.16203846 -0.09443113 -0.06731565
-0.07845943 0.09174171 -0.12403954 -0.0472913 -0.11144259 -0.17454767 -0.07665923 -0.120142706
-0.14259703 -0.13533264 -0.17968316 -0.09726995 -0.41940376 -0.02367518 -0.15000658 -0.053729057
-0.19474287 -0.19288394 -0.0856202 0.11725264 -0.0665366 -0.16936511 -0.1137852 -0.052002743
-0.09173929 -0.1062149 -0.14603293 -0.05845245 -0.17987527 -0.17189004 0.09417484 -0.062262
-0.06650813 -0.045246944 0.035766046 -0.08728436 -0.055786632 0.014990964 -0.097010836 -0.02772021
-0.031996556 -0.057965603 -0.09726272 -0.2994277 -0.017898487 0.024392838 -0.14078712 -0.15876438
-0.16126558 -0.034094825 -0.14360158 -0.04917506 -0.1509342 0.036182664 0.062330585 -0.23521656
-0.06922308 -0.0749345 -0.020379942 -0.18687402 0.023081526 -0.026904698 -0.02657283 -0.11697351
-0.107608154 -0.124599785 -0.10957934 -0.1675661 -0.0073136883 -0.10480671 -0.07352231 -0.0154766105
0.0017837358 -0.07733445 -0.0484918 -0.12225003 -0.19787514 0.026102198 -0.21898276 -0.26335827
-0.105498075 -0.13392137 -0.071459524 -0.13154536 -0.2749406 -0.12130394 -0.22367662 -0.13684943
-0.16814525 -0.042013913 -0.108930804 -0.15948576 0.07256839 -0.39244625 -0.13346598 -0.034137428
-0.09065687 -0.1883841 -0.11427514 -0.13364017 -0.056868676 -0.16707739 -0.22354895 -0.06019
0.011405354 -0.35384 0.11248684 -0.11536956 -0.09375212 -0.06611764 -0.05812022 -0.10462375
-0.079601295 -0.019456597 -0.4048953 -0.024413422 -0.00060338015 -0.22979549 -0.15070446 -0.20527539
-0.10598857 -0.037020497 -0.2131489 -0.1908246 -0.13137385 -0.21651913 -0.120163 -0.18990576
-0.09428076 -0.3176218 -0.23507996 -0.16319631 -0.05152737 0.05161464 -0.12880382 -0.15023866
-0.044506565 -0.07457948 -0.122903526 -0.19660537 -0.12072589 -0.18477117 0.09349334 -0.12286387
-0.21970962 -0.1333434 -0.097914875 0.12546116 0.25525105 -0.36681902 -0.15355982 -0.16738604
-0.022847895 -0.20370424 -0.10235809 -0.029406719 -0.1357315 -0.091299444 -0.022688724 -0.101255804
-0.13986301 -0.09268438 -0.037371717 -0.14590906 -0.2672286 -0.054402 0.02276259 -0.24967873
-0.07675069 -0.07948601 -0.10684798 -0.07553183 -0.22251946 -0.05796137 -0.04511899 -0.10232155
-0.06389855 -0.045474704 -0.23873582 -0.00088551885 -0.18672062 -0.120465085 -0.057561573 0.019069154
-0.045788724 -0.01234074 0.054754183 -0.0033962433 -0.019894112 0.027791716 0.0030481266 -0.13734877
-0.16811544 -0.07761824 -0.1272721 -0.024782907 0.03730662 -0.0619631 -0.036487196 -0.023606636
00000000: 12ca b0bd 3e60 fcbd 4f2b 9ebd 9f28 42bd
00000010: f910 54be fadb 9ebd 0a70 bd3d 89b3 77bd
00000020: 993b 51be 40bd 22be 093f 333d 0dde 84be
00000030: 096d 9fbc d939 13be 4139 5bbd 3af4 ca3c
00000040: fe94 60be 79c4 a4bd 6687 7bbe 3ddb eebd
00000050: 995b cfbb 30a8 20be dc3e 93bd 545d 09be
00000060: 8b84 3abe 9ca2 fdbd 45bc 66bd 418c eebd
00000070: 4b66 f5bd 67bd d4bd 5230 4abe 4c7a 57be
00000080: 6e3b 38be f938 0cbe 1087 99be cf41 e9bc
00000090: 3dc2 1cbd 7f32 7abe 5906 6cbd e2b1 98bd
000000a0: 2cfd edbd 2e54 48bb f730 bfbd 3175 b73d
000000b0: 6775 fcbc b24d b2bb 4778 c4bd 5d8b 38be
000000c0: 3e09 6ebd f91c bebb 6857 8a3c 160a dabb
000000d0: 4069 9a3c 69ed 25be 1c65 c1bd cadc 89bd
000000e0: 56af a0bd 14e3 bb3d 7108 febd 86b4 41bd
000000f0: 033c e4bd a0bc 32be 84ff 9cbd 610d f6bd
00000100: f504 12be a494 0abe ddfe 37be 7835 c7bd
00000110: 17bc d6be 73f2 c1bc 539b 19be 0013 5cbd
00000120: ad6a 47be 5e83 45be a559 afbd 2722 f03d
00000130: 5744 88bd 0c6e 2dbe 3708 e9bd d400 55bd
00000140: cfe1 bbbd 3387 d9bd a889 15be d66b 6fbd
00000150: 3931 38be f103 30be bdde c03d 7006 7fbd
00000160: 6a35 88bd dc54 39bd 6b7f 123d 24c2 b2bd
00000170: 8680 64bd a99c 753c 9ead c6bd 7e15 e3bc
00000180: d20e 03bd 576d 6dbd ad31 c7bd 964e 99be
00000190: d99f 92bc 7dd3 c73c 802a 10be 2193 22be
000001a0: ce22 25be 04a7 0bbd 4b0c 13be ca6b 49bd
000001b0: 7f8e 1abe 4634 143d 5b4e 7f3d 9cdc 70be
000001c0: d5c4 8dbd 4277 99bd d6f3 a6bc e75b 3fbe
000001d0: 7815 bd3c 3e67 dcbc 43af d9bc cf8f efbd
000001e0: aa61 dcbd 2c2e ffbd 226b e0bd 7396 2bbe
000001f0: aaa7 efbb e6a4 d6bd dd92 96bd 9c91 7dbc
00000200: 3ecc e93a 8661 9ebd 569f 46bd 395e fabd
00000210: c89f 4abe 47d4 d53c 043d 60be e5d6 86be
00000220: 600f d8bd af22 09be 5f59 92bd d4b3 06be
00000230: 04c5 8cbe 336e f8bd 7c0b 65be 4222 0cbe
00000240: 452e 2cbe c816 2cbd 1d17 dfbd 3c50 23be
00000250: bc9e 943d b7ee c8be 4eab 08be b0d3 0bbd
00000260: 4faa b9bd c3e7 40be 1609 eabd f8d8 08be
00000270: 21ef 68bd 5616 2bbe 04ea 64be ca89 76bd
00000280: 86dd 3a3c 842a b5be 805f e63d e046 ecbd
00000290: 1d01 c0bd af68 87bd 780f 6ebd fa44 d6bd
000002a0: 0106 a3bd 7163 9fbc 704e cfbe a8fe c7bc
000002b0: 282c 1eba 824f 6bbe 4552 1abe b633 52be
000002c0: 8910 d9bd cea2 17bd b543 5abe 8667 43be
000002d0: de86 06be 31b7 5dbe 0518 f6bd a876 42be
000002e0: 4516 c1bd 539f a2be cdb8 70be ef1c 27be
000002f0: 5d0e 53bd df69 533d 26e5 03be 2ad8 19be
00000300: 844c 36bd 20bd 98bd d8b4 fbbd eb52 49be
00000310: 233f f7bd a734 3dbe 7079 bf3d 0da0 fbbd
00000320: 8ffb 60be 2c8b 08be 9887 c8bd e478 003e
00000330: 44b0 823e b4cf bbbe c93e 1dbe 3f67 2bbe
00000340: 822b bbbc d897 50be 1ea1 d1bd 5ce6 f0bc
00000350: 33fd 0abe 34fb babd b4dd b9bc 345f cfbd
00000360: 4038 0fbe 4fd1 bdbd 1613 19bd 2f69 15be
00000370: 30d2 88be a2d4 5ebd 9c78 ba3c c8ab 7fbe
00000380: 772f 9dbd 90c9 a2bd 1dd3 dabd 6fb0 9abd
00000390: 24dc 63be e768 6dbd b1ce 38bd f68d d1bd
000003a0: 3edd 82bd af43 3abd 2a77 74be 2a22 68ba
000003b0: b133 3fbe 66b6 f6bd afc5 6bbd ea36 9c3c
000003c0: f58c 3bbd d130 4abc ec45 603d 8293 5ebb
000003d0: faf8 a2bc 74ab e33c 14c3 473b 28a5 0cbe
000003e0: 7426 2cbe 50f6 9ebd 9e53 02be 8605 cbbc
000003f0: d4ce 183d 05cd 7dbd 9973 15bd b462 c1bc

out_cat.weight f4 [3, 300]
0.13159502 -0.16478595 0.015030568 -0.020494787 -0.18020816 -0.15312941 -0.33179516 0.082644515
-0.00765999 0.05694262 -0.09262898 0.08580999 -0.18532218 0.15840265 0.08273489 0.12698942
0.021054206 0.009168863 0.09100905 -0.015215171 -0.12461487 -0.0073588607 -0.0046298862 0.011535655
-0.017324286 -0.13752967 -0.059920654 -0.07070802 -0.08468943 -0.004152532 -0.12024013 -0.049020357
-0.16913894 0.04287917 6.834451e-05 0.05253156 -0.10987538 0.028221183 0.0028934611 -0.04002176
-0.09560911 -0.03985079 0.00032510987 -0.13743752 -0.047461502 0.008592657 0.042009465 0.048841882
-0.0033865424 -0.030892605 -0.08038632 -0.1432168 -0.09109829 0.057519186 0.016670112 0.019869432
-0.12023737 -0.35259748 0.0069995457 -0.0054639652 0.022531277 -0.11249843 -0.0897943 0.028342333
0.055953402 0.04425152 -0.016534824 0.1105027 0.05118543 0.022179533 0.0063430606 0.068358675
-0.084159546 -0.10859045 0.06859201 -0.047349036 -0.05430316 0.0119650625 0.100403324 -0.096554406
-0.17223337 -0.042476162 -0.05060974 -0.0071561863 0.015543445 -0.07264933 -0.20488821 0.13890685
0.013862535 -0.14343756 0.035167586 -0.12314213 -0.1870712 0.25500903 -0.10534244 0.015736887
0.01886666 0.05434709 -0.017798629 -0.14710824 0.09053195 -0.105408184 -0.13511328 0.045052003
0.030189117 0.080800116 -0.20644735 -0.11442159 -0.054827116 0.22313887 -0.3213731 -0.16182916
0.00070056773 0.130612 0.040552087 -0.035935733 -0.30506474 -0.058293913 0.09329425 0.08907244
-0.0739866 0.05263046 -0.07895103 0.030979145 0.17274089 -0.0077690384 0.10775026 0.052598696
-0.08657087 0.123483635 -0.012207799 -0.18087637 -0.14405946 -0.12822005 -0.09713615 0.21605209
0.053791847 -0.1412748 -0.08396655 -0.07958577 0.04870526 -0.050579578 -0.044834547 -0.052516058
0.061225645 0.006043535 0.017613849 0.0046035745 -0.07453536 -0.2200265 -0.07414438 -0.018558303
0.038034555 0.13039747 -0.12852155 -0.018413477 -0.14577943 -0.024318082 -0.026761897 -0.04509879
-0.25868675 -0.040887233 -0.16169226 -0.03453919 -0.017350433 -0.17498438 0.039103113 0.02974499
-0.058504537 -0.05791722 0.09497919 -0.1891618 0.035990156 0.033379626 0.038638476 -0.08124898
-0.0006291047 0.0016352207 0.055794913 -0.059056148 0.15743646 -0.0042928103 -0.095973276 0.016245969
0.0019579898 0.08532071 0.044362705 -0.051405482 0.08895148 -0.21618065 0.0077657774 0.013561163
0.016464144 0.17285138 -0.03149159 0.077743076 -0.018285891 -0.002234767 0.14627698 -0.0156951
0.03894166 -0.06578258 0.018079558 -0.12810121 -0.38098562 0.0036823938 -0.08203775 0.07579021
-0.029897168 0.006466893 -0.16318533 -0.008059077 0.007857249 0.15446256 -0.061387293 -0.27774605
-0.09180766 0.063699126 -0.042983525 -0.06521281 0.15089408 -0.17106721 -0.07612398 0.027184049
0.0073519396 0.06842779 0.012654969 -0.048048753 0.0123781245 0.05434479 -0.17530438 -0.040145956
0.006483948 0.037582792 0.025423327 -0.09934091 0.0007215255 0.04089422 -0.018055063 0.14476952
0.115069084 -0.15576781 -0.13428113 -0.124473624 -0.0123821935 -0.36470523 -0.0005835728 -0.005568342
0.036225315 -0.042989682 -0.097615734 0.08341694 0.008229184 -0.0508846 -0.09457324 -0.0046150517
00000000: d8c0 063e a6bd 28be c642 763c afe4 a7bc
00000010: 7d88 38be f5cd 1cbe 0ee1 a9be 8741 a93d
00000020: a700 fbbb aa3c 693d 43b4 bdbd 26bd af3d
00000030: 19c5 3dbe 4e34 223e e970 a93d 8409 023e
00000040: df79 ac3c 0039 163c f462 ba3d 0d49 79bc
00000050: 1536 ffbd 9922 f1bb 4db6 97bb 0b00 3d3c
00000060: a9eb 8dbc 94d4 0cbe 5c6f 75bd 5ecf 90bd
00000070: a771 adbd f711 88bb 7540 f6bd 92c9 48bd
00000080: c232 2dbe 12a2 2f3d 2e54 8f38 552b 573d
00000090: 5806 e1bd 1c30 e73c 39a0 3d3b dbed 23bd
000000a0: b6ce c3bd 953a 23bd 8273 aa39 6cbc 0cbe
000000b0: fe66 42bd 37c8 0c3c 1e12 2c3d 6d0e 483d
000000c0: c1f0 5dbb 7d12 fdbc 95a1 a4bd 6da7 12be
000000d0: be91 babd 3d99 6b3d c28f 883c 38c5 a23c
000000e0: 033f f6bd a887 b4be 725c e53b 100b b3bb
000000f0: 8393 b83c 9465 e6bd 13e6 b7bd 2e2e e83c
00000100: 652f 653d 1541 353d 0a74 87bc 3d4f e23d
00000110: d0a7 513d dab1 b53c 73d9 cf3b a2ff 8b3d
00000120: d75b acbd ab64 debd f879 8c3d 10f1 41bd
00000130: fe6c 5ebd 1c09 443c 42a0 cd3d 51be c5bd
00000140: f25d 30be 7cfb 2dbd 294c 4fbd 717e eabb
00000150: efa9 7e3c 2cc9 94bd 37ce 51be 993d 0e3e
00000160: b01f 633c 4ce1 12be e30b 103d f131 fcbd
00000170: 988f 3fbe 8b90 823e c7bd d7bd a5ea 803c
00000180: 418e 9a3c 0e9b 5e3d 6ece 91bc 8ba3 16be
00000190: d168 b93d 3fe0 d7bd 235b 0abe 7388 383d
000001a0: 2b4f f73c 887a a53d ef66 53be de55 eabd
000001b0: 6692 60bd 847e 643e 048b a4be 8bb6 25be
000001c0: 4ea6 373a 27bf 053e f219 263d 5931 13bd
000001d0: 7231 9cbe 99c5 6ebd 0e11 bf3d 9d6b b63d
000001e0: 4986 97bd 0a93 573d 14b1 a1bd fac7 fd3c
000001f0: fde2 303e 6b93 febb 2bac dc3d bb71 573d
00000200: 114c b1bd fde4 fc3d 3803 48bc a837 39be
00000210: 5384 13be 1e4c 03be 51ef c6bd c23c 5d3e
00000220: d754 5c3d 57aa 10be a8f6 abbd ddfd a2bd
00000230: 2b7f 473d 882c 4fbd 6ea4 37bd 141b 57bd
00000240: bec7 7a3d d908 c63b eb4a 903c 95d9 963b
00000250: ffa5 98bd a04e 61be 02d9 97bd 9507 98bc
00000260: 1fca 1b3d ea86 053e 279b 03be dcd7 96bc
00000270: 3447 15be b736 c7bc c43b dbbc 82b9 38bd
00000280: 9772 84be 5f79 27bd a892 25be f778 0dbd
00000290: 7f22 8ebc 1b2f 33be 962a 203d c4ab f33c
000002a0: 74a2 6fbd 9b3a 6dbd 7384 c23d a2b3 41be
000002b0: 6a6a 133d 13b9 083d 6143 1e3d dd65 a6bd
000002c0: 80ea 24ba e754 d63a 3589 643d dce4 71bd
000002d0: 0637 213e b4aa 8cbb a38d c4bd 4416 853c
000002e0: 9e51 003b a0bc ae3d abb5 353d 8e8e 52bd
000002f0: 322c b63d 765e 5dbe 1078 fe3b a42f 5e3c
00000300: d0df 863c f4ff 303e 53fd 00bd c337 9f3d
00000310: 4bcc 95bc 2b75 12bb a2c9 153e 0393 80bc
00000320: 4a81 1f3d 04b9 86bd 951b 943c f72c 03be
00000330: 8c10 c3be 5154 713b 6803 a8bd e637 9b3d
00000340: e8ea f4bc 3be8 d33b 0e1a 27be 380a 04bc
00000350: b1bb 003c 6f2b 1e3e 3e71 7bbd bb34 8ebe
00000360: a805 bcbd b074 823d 7e0f 30bd 4b8e 85bd
00000370: fa83 1a3e 3e2c 2fbe e4e6 9bbd 15b1 de3c
00000380: 8ae8 f03b df23 8c3d c956 4f3c c5ce 44bd
00000390: 9ecd 4a3c a498 5e3d fe82 33be 1670 24bd
000003a0: 4c77 d43b 6af0 193d 9544 d03c 3f73 cbbd
000003b0: c224 3d3a b380 273d 36e8 93bc 763e 143e
000003c0: 57a9 eb3d 9981 1fbe fe80 09be 07ec febd
000003d0: afde 4abc a5ba babe e8fa 18ba a376 b6bb
000003e0: ff60 143d f315 30bd c2ea c7bd 80d6 aa3d
000003f0: b3d3 063c 5f6c 50bd 9daf c1bd dc39 97bb

out_cat.bias f4 [3]
0.013818189 0.22223715 -0.19133835
00000000: af65 623c 2392 633e 33ee 43be
